checkpoints/single-phase/123bus/safe-ddpg/policy_net_checkpoint_a3.pth (torch, 3103 bytes, 4 tensors)

b f4 [100]
0	0x00000000	0.0
1	0x00000000	0.0
2	0x3d9f2af3	0.07771864
3	0x00000000	0.0
4	0x00000000	0.0
5	0x00000000	0.0
6	0x00000000	0.0
7	0x00000000	0.0
8	0x3b8a7599	0.0042254445
9	0x00000000	0.0
10	0x00000000	0.0
11	0x00000000	0.0
12	0x00000000	0.0
13	0x00000000	0.0
14	0x00000000	0.0
15	0x3ab687a6	0.0013925924
16	0x3b09d355	0.0021030505
17	0x3af1f488	0.0018459717
18	0x39e83774	0.00044291804
19	0x3a40e38b	0.00073581253
20	0x3b4fc4e2	0.0031703045
21	0x3b8004be	0.0039068153
22	0x3b384a25	0.0028120365
23	0x3a9e5354	0.0012079277
24	0x38337d70	4.279375e-05
25	0x00000000	0.0
26	0x00000000	0.0
27	0x3bf71ac1	0.007541031
28	0x00000000	0.0
29	0x00000000	0.0
30	0x3bcf7749	0.0063313586
31	0x00000000	0.0
32	0x00000000	0.0
33	0x3a415f9b	0.0007376612
34	0x00000000	0.0
35	0x00000000	0.0
36	0x39a11728	0.00030725566
37	0x00000000	0.0
38	0x395f5e20	0.00021302002
39	0x00000000	0.0
40	0x37d2d56a	2.513333e-05
41	0x37eb2aba	2.803408e-05
42	0x3b24e0da	0.0025158436
43	0x3aba6d0a	0.001422317
44	0x00000000	0.0
45	0x3a553cb0	0.00081343483
46	0x3aa29412	0.0012403748
47	0x3a516473	0.00079876854
48	0x3a7776bf	0.0009439997
49	0x389017f8	6.8709196e-05
50	0x3a2cdd3a	0.00065942446
51	0x3a64f5cd	0.0008734137
52	0x39886097	0.00026011906
53	0x3a111a9a	0.0005535275
54	0x3a336790	0.000684374
55	0x3a3c36ae	0.0007179779
56	0x3a36271e	0.0006948578
57	0x39534b4e	0.00020150581
58	0x387bd9eb	6.0046015e-05
59	0x3a5c4e42	0.00084039953
60	0x3a606293	0.00085596106
61	0x397ca2fe	0.00024093312
62	0x3a6f6e31	0.0009133546
63	0x39e53b2d	0.00043722373
64	0x3a179f3d	0.0005783921
65	0x3a4e54cc	0.0007870912
66	0x39cdd871	0.00039261908
67	0x3853d938	5.050862e-05
68	0x399bd5b0	0.00029723113
69	0x39f429a6	0.00046570337
70	0x3a300762	0.00067149673
71	0x3a817731	0.0009877441
72	0x39a7cbc2	0.00032004534
73	0x3a52ec67	0.0008046091
74	0x3a0c6802	0.00053560745
75	0x3a7ab6f4	0.00095640053
76	0x39b4250e	0.00034359883
77	0x3a214090	0.0006151283
78	0x3a699e16	0.0008911801
79	0x38e11b07	0.0001073387
80	0x383e2904	4.533773e-05
81	0x3a15dc04	0.0005716684
82	0x3847bed1	4.762301e-05
83	0x3a5a2daa	0.00083228445
84	0x395d2abf	0.00021092127
85	0x39e76088	0.00044131675
86	0x39c31089	0.00037205618
87	0x399f21a7	0.00030351916
88	0x3a2afbd2	0.00065225095
89	0x3a406fa0	0.0007340852
90	0x39eb403b	0.00044870548
91	0x3a4d4d52	0.0007831651
92	0x3a4f5610	0.00079092477
93	0x3a81ab93	0.0009893052
94	0x387aa5c9	5.9759044e-05
95	0x3a6190e1	0.00086046575
96	0x3a13f751	0.0005644458
97	0x3a392161	0.0007062164
98	0x3a2df4d1	0.0006635907
99	0x3a0bcd3e	0.00053330127

c f4 [100]
0	0x3b476c8a	0.0030429685
1	0x389320e9	7.015636e-05
2	0x3b2e7dec	0.0026625348
3	0x3a1652a1	0.00057343586
4	0x3a8c5a04	0.0010707979
5	0x3aff2786	0.0019466735
6	0x38dd9954	0.00010566661
7	0x39a78817	0.00031954117
8	0x3a988a15	0.0011637831
9	0x3b0c058d	0.0021365613
10	0x37b1abc8	2.1180036e-05
11	0x3b0eb111	0.002177302
12	0x3a59ed40	0.0008313246
13	0x3acb8816	0.0015528228
14	0x3b39419e	0.002826787
15	0x3af47c1f	0.0018652714
16	0x3a30ce3d	0.0006744599
17	0x3a6f08cc	0.00091184373
18	0x3abf5af8	0.0014599254
19	0x3a9d8f1d	0.00120208
20	0x3b2f63d9	0.0026762395
21	0x3acaaa0b	0.0015462054
22	0x3b448241	0.0029984864
23	0x3b044d30	0.002018761
24	0x38601be9	5.3431755e-05
25	0x3accb3d8	0.0015617562
26	0x3a555c90	0.0008139098
27	0x39ded036	0.0004249827
28	0x397dd26f	0.00024206353
29	0x395c39cc	0.00021002366
30	0x3b3ea386	0.0029089167
31	0x3ad12858	0.0015957458
32	0x3b04e186	0.0020276024
33	0x3b491c9d	0.003068722
34	0x3b3127ca	0.0027031773
35	0x3b391234	0.002823961
36	0x3aa98966	0.0012934625
37	0x3a433f80	0.0007448122
38	0x39b18f93	0.00033867042
39	0x3a7a5cf6	0.00095505954
40	0x3ada5452	0.001665721
41	0x3ae46cfc	0.0017427499
42	0x3b043ac8	0.0020176638
43	0x3b402215	0.002931719
44	0x3aab562e	0.0013071948
45	0x3a8c2c95	0.0010694439
46	0x3b2d915a	0.0026484341
47	0x3abf7784	0.0014607762
48	0x3b322256	0.002718111
49	0x3a6527b4	0.0008741573
50	0x398e3cb2	0.00027129572
51	0x3b1abd1c	0.0023611253
52	0x3b3594a5	0.0027707007
53	0x399b466c	0.00029616372
54	0x39dfd872	0.0004269514
55	0x3b061a66	0.0020462512
56	0x3a247658	0.0006273738
57	0x3a016bb6	0.00049370097
58	0x3ab30e60	0.00136609
59	0x3a0a0b9c	0.0005266012
60	0x3a56b781	0.00081907964
61	0x3b41cb1b	0.0029570523
62	0x3b4b6397	0.0031034702
63	0x38f1f0d0	0.0001153663
64	0x3a287162	0.0006425587
65	0x3b3c6dc6	0.0028751954
66	0x3adbf28c	0.0016780659
67	0x3a15b23b	0.00057104573
68	0x3a00dd28	0.00049157673
69	0x3abdecdf	0.0014490149
70	0x390fb344	0.00013704324
71	0x3ab2031c	0.0013581249
72	0x3a15e8d4	0.0005718593
73	0x3b468b97	0.0030295604
74	0x3a26825b	0.0006351822
75	0x3b2e0ddc	0.0026558554
76	0x3abc46fb	0.0014364416
77	0x3a970142	0.0011520761
78	0x3b3a9958	0.0028472748
79	0x3b40145b	0.0029309008
80	0x3ab071cb	0.0013461647
81	0x3b0fc00f	0.0021934544
82	0x3acb9438	0.0015531844
83	0x3b138fde	0.0022516171
84	0x3b2d7a13	0.0026470467
85	0x3b33d484	0.0027439902
86	0x3a9e363e	0.0012070609
87	0x3b2c9b62	0.0026337733
88	0x3a47a07f	0.00076151633
89	0x3b1c7dfe	0.0023878808
90	0x39fc5899	0.00048131196
91	0x3a99ad80	0.0011724681
92	0x3a0cda50	0.0005373107
93	0x3add2c30	0.0016874131
94	0x3a6357e3	0.0008672459
95	0x3ad870d0	0.0016513113
96	0x3a367b22	0.0006961097
97	0x3a8a8f6f	0.0010571311
98	0x3b2b4608	0.0026134271
99	0x3a54785c	0.0008105093

q f4 [1, 100]
0	0x3f623a2c	0.88370013
1	0x3f1a3253	0.6023304
2	0x402618fa	2.5952744
3	0x3f590176	0.84767854
4	0x3f461d8d	0.7738884
5	0x3f55e9c5	0.8355983
6	0x3f0f912a	0.5608088
7	0x3f3cf89b	0.7381684
8	0x3f910afb	1.1331476
9	0x3f238097	0.6386809
10	0x2f150ce4	1.3556051e-10
11	0x3f3682b5	0.71293193
12	0x3e974d03	0.29550943
13	0x3ef266e6	0.4734413
14	0x3ee4f0b6	0.44714898
15	0x3f6d3451	0.92657954
16	0x3f7d77d6	0.9901098
17	0x3f69051e	0.91023433
18	0x3e4e73ca	0.20161358
19	0x3e9015ec	0.28141725
20	0x3e00ca3b	0.12577145
21	0x97b91ace	-1.1962111e-24
22	0x3d4aa752	0.049475975
23	0x3e4f3a58	0.202371
24	0x3f053e46	0.52048147
25	0x3f5c1a53	0.8597767
26	0x3ef27e82	0.47362143
27	0x005c1ef2	8.459967e-39
28	0x3f38a51c	0.72126937
29	0x3f1b6ea9	0.6071573
30	0x28232065	9.055342e-15
31	0x3f5e9722	0.8694936
32	0x3f0a15d6	0.5393957
33	0x3e53a966	0.20670089
34	0x3f2925a7	0.6607308
35	0x3f4c1097	0.79712814
36	0x3e7eb0ae	0.24872085
37	0x3f730dab	0.9494273
38	0x3ceda690	0.029010087
39	0x3f2cd195	0.67507297
40	0x3e942256	0.28932446
41	0x3e7b819a	0.24561158
42	0x3f812a87	1.0091103
43	0x3eeec1aa	0.4663213
44	0x3e64ede4	0.22356373
45	0x3f054558	0.52058935
46	0x3ee6b207	0.450577
47	0x3f31dcf8	0.69477797
48	0x3f6381f3	0.8887016
49	0x3f5ea7ac	0.86974597
50	0x3f2cdf69	0.67528397
51	0x3f04fcef	0.51948446
52	0x3eb0c1de	0.3452291
53	0x3f4fb6d9	0.8113838
54	0x3d990078	0.074707925
55	0x3e2acbe0	0.16679335
56	0x3f735fc4	0.95068
57	0x3e9e03ca	0.30862266
58	0x3d378f60	0.044814467
59	0x3f39e67d	0.7261732
60	0x3f22ea4e	0.6363877
61	0x3effddde	0.4997396
62	0x3f316bad	0.69304925
63	0x3ee90186	0.45508975
64	0x3f6711ec	0.9026172
65	0x3d237710	0.03990847
66	0x3f520663	0.82040995
67	0x3ee92002	0.45532233
68	0x3f686b3b	0.9078862
69	0x3f39a2bd	0.72513944
70	0x3e0d698c	0.13809794
71	0x3ef18ce4	0.47177804
72	0x3f3f0202	0.7461244
73	0x3f604d5e	0.8761805
74	0x3ebabb40	0.36470985
75	0x3f1db02d	0.6159695
76	0x3f2c7d55	0.6737874
77	0x3ebe5bc6	0.37179393
78	0x3f3b8262	0.73245823
79	0x3f2ff5ef	0.6873464
80	0x3e142a5c	0.14469284
81	0x3ea977a4	0.3309909
82	0x3f5169a0	0.81801796
83	0x3c52dd40	0.012870133
84	0x3ea309dc	0.3184346
85	0x3ec78700	0.38970184
86	0x3f102d84	0.5631945
87	0x3f24aa25	0.6432212
88	0x3eb3a880	0.35089493
89	0x3ea2a8ce	0.31769413
90	0x3ea0e14e	0.31421894
91	0x3ee5465a	0.44780236
92	0x3dc9fa20	0.09862161
93	0x3f0a284e	0.5396775
94	0x3e101778	0.14071453
95	0x3f3cd689	0.73764855
96	0x3f11891b	0.5684983
97	0x3f5fc6e8	0.8741288
98	0x3ea2ab74	0.31771433
99	0x3f5721f6	0.84036195

z f4 [1, 100]
0	0x3e9838c4	0.2973081
1	0x3eba7002	0.3641358
2	0x3ecd94ee	0.40152687
3	0x3e983f98	0.29736018
4	0x3d3d9d80	0.04629278
5	0x3f3c7151	0.7361041
6	0x3efa569e	0.4889421
7	0x3eb61a1a	0.3556679
8	0x3f095fed	0.53661996
9	0x3e586f1c	0.21136135
10	0x3f29d3ef	0.6633901
11	0x3f3bb7d0	0.7332735
12	0x3e995b1a	0.29952317
13	0x3e6bfc0c	0.23045367
14	0x3d959020	0.0730288
15	0x3f2b164c	0.668309
16	0x3ebbffb6	0.3671853
17	0x3e375270	0.17902541
18	0x3f645758	0.89195776
19	0x3eb0773e	0.34465975
20	0x3ec52062	0.3850127
21	0x3f2d8d46	0.6779369
22	0x3e434138	0.19067848
23	0x3f67fb80	0.90618134
24	0x3f1ac1ef	0.6045217
25	0x3e91678e	0.28399318
26	0x3efac95a	0.48981744
27	0x3f678de1	0.90450865
28	0x3ea71dc2	0.3263989
29	0x3f1ef98a	0.62099516
30	0x3eeb3790	0.45940828
31	0x3d4d3da0	0.0501076
32	0x3ee3b25a	0.4447201
33	0x3f72c57d	0.94832593
34	0x3ed7dc16	0.421601
35	0x3ec14f3e	0.3775577
36	0x3f3d397e	0.7391585
37	0x3f7d24fe	0.9888457
38	0x3f4d5ece	0.80222785
39	0x3e90f1dc	0.28309524
40	0x3e632554	0.22182208
41	0x3d697b70	0.057002485
42	0x3f1e25b9	0.6177631
43	0x3f4dd9cf	0.80410475
44	0x3da3fab0	0.08006799
45	0x3ee0c81e	0.43902677
46	0x3f2d83e1	0.67779356
47	0x3e9fcdac	0.31211603
48	0x3f59a75f	0.85021013
49	0x3e923b08	0.28560662
50	0x3f77643d	0.96637326
51	0x3f0251af	0.5090589
52	0x3f0e7734	0.5565064
53	0x3f2c2b12	0.6725322
54	0x3e5cb760	0.21554327
55	0x3f235c02	0.6381227
56	0x3f7bf275	0.98416835
57	0x3f2fd96b	0.6869113
58	0x3e9e71d6	0.30946225
59	0x3ee6f408	0.45108056
60	0x3f099ff2	0.5375968
61	0x3e92e052	0.28686768
62	0x3edeed0a	0.4354022
63	0x3ee8b9a6	0.4545414
64	0x3e29eebc	0.16594976
65	0x3d9c4008	0.076294005
66	0x3f0175f8	0.5057063
67	0x3e7d5ec8	0.24743187
68	0x3f75c905	0.96009856
69	0x3f596c93	0.84931296
70	0x3e26f604	0.16304785
71	0x3de18bb0	0.110129714
72	0x3f010b2c	0.5040767
73	0x3d8630d0	0.06552279
74	0x3f5fafb2	0.87377465
75	0x3e4c284c	0.19937247
76	0x3f169e57	0.5883536
77	0x3e4fe2a4	0.203013
78	0x3ed04190	0.4067502
79	0x3f185724	0.59507966
80	0x3e120650	0.1426022
81	0x3e8d2fd2	0.27575547
82	0x3e3d89a0	0.18509531
83	0x3f635e16	0.8881544
84	0x3f70ca0e	0.9405831
85	0x3ee7a41a	0.45242387
86	0x3d540540	0.05176282
87	0x39c77800	0.00038045645
88	0x3f0ec34a	0.5576674
89	0x3f47fa25	0.78116065
90	0x3e2350c8	0.15948784
91	0x3f2a49c3	0.665188
92	0x3eda0d38	0.4258821
93	0x3e92b90e	0.2865681
94	0x3f6b020a	0.91799986
95	0x3f67a9a0	0.904932
96	0x3e440e84	0.19146162
97	0x3e4ed9f8	0.20200336
98	0x3ef215e0	0.47282314
99	0x3ddd2938	0.107988775
