checkpoints/single-phase/123bus/safe-ddpg/policy_net_checkpoint_a10.pth (torch, 3103 bytes, 4 tensors)

b f4 [100]
0.0 0.0 0.0 0.0 0.0 0.0 0.0 0.0
0.0 0.0 0.0 0.0 0.07164466 0.0 0.0 0.0
0.018361334 1.6836306e-05 1.6807726e-05 1.6806853e-05 1.6832177e-05 1.6808117e-05 1.6707663e-05 1.6796133e-05
1.679899e-05 1.64252e-05 1.678498e-05 1.5785125e-05 1.6781796e-05 1.6781796e-05 1.6784215e-05 1.6951539e-05
1.7399427e-05 1.6949101e-05 1.6604963e-05 0.015516275 0.004518583 0.0007412613 0.0 0.0
0.0012971074 0.00067658944 0.00029622694 7.573426e-05 0.00086462783 0.00040751186 5.3511005e-05 0.00024406088
0.00070494204 0.0005505289 0.0009990837 0.00066258933 0.0012676285 0.00018472815 0.00087008247 0.0004973777
0.00046354046 0.0011337721 6.711849e-05 0.00084870734 0.00047020902 0.0003436638 0.0001733469 0.0011984748
0.00019433102 0.0004895278 0.0010687445 0.0011767031 0.0010791289 0.00032909834 0.0007146674 0.0005522367
0.0009892664 0.00062693824 0.00024244281 0.00094770157 0.0011167665 0.0006520258 0.001129832 0.00095927034
0.0010691775 0.0010635523 0.0011655935 0.0007162128 0.0007847956 0.00078393996 0.00021403907 0.00041754948
0.0003905116 0.0006486963 0.00047803335 0.0010896148 0.00025874728 0.00030479953 0.00024364033 0.00012181598
0.00027147136 0.0004668011 0.00082905934 0.0009783688
00000000: 0000 0000 0000 0000 0000 0000 0000 0000
00000010: 0000 0000 0000 0000 0000 0000 0000 0000
00000020: 0000 0000 0000 0000 0000 0000 0000 0000
00000030: 6fba 923d 0000 0000 0000 0000 0000 0000
00000040: 826a 963c b13b 8d37 51fe 8c37 71fc 8c37
00000050: d332 8d37 28ff 8c37 6f27 8c37 6ce5 8c37
00000060: 8eeb 8c37 d9c8 8937 78cd 8c37 4c6a 8437
00000070: a2c6 8c37 a2c6 8c37 d4cb 8c37 2733 8e37
00000080: fcf4 9137 eb2d 8e37 e34a 8b37 f937 7e3c
00000090: 9f10 943b 3451 423a 0000 0000 0000 0000
000000a0: b403 aa3a 265d 313a e84e 9b39 85d3 9e38
000000b0: 31a8 623a 51a7 d539 0171 6038 98ea 7f39
000000c0: dccb 383a 5e51 103a b0f3 823a 9eb1 2d3a
000000d0: 8e26 a63a 96b3 4139 3f16 643a 7462 023a
000000e0: 5907 f339 149b 943a f7c1 8c38 c97b 5e3a
000000f0: 6386 f639 c62d b439 74c4 3539 2416 9d3a
00000100: 56c5 4b39 a853 003a 1d15 8c3a 9b3b 9a3a
00000110: 8f71 8d3a d58a ac39 8458 3b3a fac3 103a
00000120: 46aa 813a 1d59 243a 3f38 7e39 2d6f 783a
00000130: 7760 923a b6ec 2a3a df16 943a 8b77 7b3a
00000140: a523 8c3a e566 8b3a d4c6 983a 3ac0 3b3a
00000150: beba 4d3a 5281 4d3a ad6f 6039 8bea da39
00000160: 94bd cc39 460d 2a3a 8da0 fa39 68d1 8e3a
00000170: 79a8 8739 80cd 9f39 b479 7f39 7577 ff38
00000180: 4554 8e39 fcbc f439 3b55 593a 9c3c 803a

c f4 [100]
0.000375109 0.00043741247 0.00041694377 0.0025891578 0.0027861912 0.00048567393 0.0030525748 0.0013523451
0.0027494368 0.0023976606 0.00022412858 0.00076741556 0.0013534115 0.0024334528 0.001783418 0.001012992
0.00034963514 0.002872548 0.0019354069 0.00010512641 0.0017266492 0.0025342666 0.002703313 0.0015371158
0.0024097743 0.0020609295 0.00047021077 0.0004091673 0.00294239 4.070086e-05 0.0024902485 0.0008226494
0.0026204684 0.00051781733 0.0023861008 0.0002682614 0.0026679742 0.0016596166 0.0003625186 0.0009382508
0.00042478912 0.001687221 0.0005588498 0.00038625053 0.0024963152 0.002664837 0.0011954609 0.0002188526
8.6108244e-05 0.0017034953 0.0014538458 0.0005889443 0.0005802295 0.0018332337 0.0011867348 0.0010687084
0.0012515561 0.0020617307 0.0021544804 0.0022831233 0.0019972685 0.0020310266 0.0025435311 0.0015764737
0.0014941575 0.0028300607 0.0029928442 0.0011525382 0.0022140134 0.0006733746 0.0020708023 0.0022029874
0.00053061784 0.003018138 0.0024800478 0.0017230047 0.0019454954 0.0016880848 0.0025831638 0.0013118604
0.0014763741 0.00048461655 0.00067301403 0.0018319782 0.0011891095 0.0014632677 4.2374355e-05 0.0001574419
0.0027317898 0.0014724352 0.0007303478 0.0027133122 9.692464e-05 0.0021963108 0.0012884556 0.00013245137
0.0020839937 0.0010593866 0.00029394537 0.0018897584
00000000: 47aa c439 8254 e539 3f99 da39 dcae 293b
00000010: 8898 363b 0da2 fe39 b50d 483b 2c41 b13a
00000020: e52f 343b 1222 1d3b 0f04 6b39 632c 493a
00000030: f464 b13a 907a 1f3b 94c1 e93a 5fc6 843a
00000040: 3c4f b739 5c41 3c3b 7bad fd3a 5077 dc38
00000050: bc50 e23a f015 263b 112a 313b 0c79 c93a
00000060: 4eed 1d3b a910 073b 9f86 f639 8185 d639
00000070: 1dd5 403b 37b6 2a38 7033 233b 11a7 573a
00000080: 2abc 2b3b 22be 073a 2160 1c3b 70a5 8c39
00000090: 2ed9 2e3b 7e87 d93a 6c10 be39 f2f4 753a
000000a0: 3bb6 de39 be25 dd3a c67f 123a ab81 ca39
000000b0: 3899 233b 8ca4 2e3b 03b1 9c3a cc7b 6539
000000c0: 0395 b438 d147 df3a f88e be3a 6263 1a3a
000000d0: 8b1a 183a 1e49 f03a 368c 9b3a e713 8c3a
000000e0: 410b a43a 1a1e 073b 2f32 0d3b 74a0 153b
000000f0: 9be4 023b f91a 053b 5fb1 263b aea1 ce3a
00000100: 9bd7 c33a 8a78 393b 9823 443b c410 973a
00000110: fb18 113b 6885 303a 4cb6 073b ff5f 103b
00000120: 2919 0b3a f4cb 453b 4c88 223b 72d6 e13a
00000130: feff fe3a ba42 dd3a 4c4a 293b bbf2 ab3a
00000140: e582 c13a 2214 fe39 356d 303a fd1e f03a
00000150: e5db 9b3a 1ecb bf3a 1ebb 3138 fd16 2539
00000160: d407 333b bafe c03a d074 3f3a d3d1 313b
00000170: 0544 cb38 fbef 0f3b 65e1 a83a a5e2 0a39
00000180: 9d93 083b 1edb 8a3a ae1c 9a39 c5b1 f73a

q f4 [1, 100]
0.34597892 0.29356644 0.58780295 0.34005445 0.38443255 0.4639184 4.247102e-12 0.09750985
0.9668956 0.86709934 0.06595007 0.68359363 2.5934672 0.46672055 0.39352915 1.0276339
1.2313312 0.46185488 0.28310952 0.275938 0.5742836 0.2784389 0.68607605 0.201831
0.22144923 0.7718412 0.09072007 0.8391349 0.00072356703 2.4705816e-06 0.077739805 0.5598201
0.8303263 0.6450771 0.04629519 1.03838 0.4874517 0.5172563 0.31454653 0.40742728
0.63295597 0.06767191 0.7166693 0.225573 0.55288595 0.12649983 0.80857664 0.014732957
0.19026339 0.524234 0.57887965 0.86863804 0.95654887 0.64901173 0.86955506 0.80983126
0.33189815 0.59417653 0.8529764 0.564856 0.069232345 0.57212806 0.26213485 0.65782964
0.22444981 0.11813426 0.12512791 0.04996431 0.5878411 0.02387178 0.787944 0.19149941
0.88837224 0.29483277 0.057221055 0.92099804 0.81331193 0.051992297 0.32971913 0.3772511
0.97483134 0.41695118 0.28044814 0.1354813 0.06798798 0.4337672 0.038140774 0.55843174
0.063019276 0.3745113 0.6581863 0.083183706 0.16700184 0.20077777 0.06251663 0.16323495
0.789757 0.26896542 0.24588579 0.3385408
00000000: 2624 b13e 574e 963e 417a 163f 9e1b ae3e
00000010: 58d4 c43e b686 ed3e 7e6e 952c 3fb3 c73d
00000020: 7886 773f 39fa 5d3f d510 873d feff 2e3f
00000030: 5efb 2540 fff5 ee3e a77c c93e 8289 833f
00000040: 439c 9d3f 3e78 ec3e bbf3 903e bf47 8d3e
00000050: 4004 133f 8b8f 8e3e aea2 2f3f c9ac 4e3e
00000060: 96c3 623e 6397 453f 72cb b93d 8bd1 563f
00000070: c3ad 3d3a 45cc 2536 0c36 9f3d 5f50 0f3f
00000080: 4490 543f c623 253f 06a0 3d3d a3e9 843f
00000090: 4593 f93e e96a 043f 3e0c a13e 4f9a d03e
000000a0: 6709 223f 9297 8a3d a477 373f 9cfc 663e
000000b0: ef89 0d3f 2c89 013e e1fe 4e3f 8062 713c
000000c0: 68d4 423e 3334 063f 7531 143f 105f 5e3f
000000d0: 63e0 743f a225 263f 299b 5e3f 1a51 4f3f
000000e0: 8eee a93e f41b 183f a95c 5a3f 679a 103f
000000f0: b0c9 8d3d fc76 123f 8a36 863e 8667 283f
00000100: 2cd6 653e 60f0 f13d 8821 003e 60a7 4c3d
00000110: c17c 163f c08e c33c b3b6 493f 6c18 443e
00000120: 5d6c 633f 52f4 963e a060 6a3d 87c6 6b3f
00000130: 3635 503f e0f5 543d f2d0 a83e 0e27 c13e
00000140: 8c8e 793f a07a d53e e696 8f3e 9cbb 0a3e
00000150: 483d 8b3d bc16 de3e 8039 1c3d 62f5 0e3f
00000160: 4010 813d f2bf bf3e e67e 283f 385c aa3d
00000170: 8802 2b3e b098 4d3e b808 803d 1027 273e
00000180: 842d 4a3f d6b5 893e 7cc9 7b3e 3855 ad3e

z f4 [1, 100]
0.0512017 0.66117567 0.61857957 0.832075 0.08071703 0.7980732 0.37561077 0.49119312
0.8798905 0.4993708 0.8463503 0.03081435 0.9742676 0.29558623 0.84887177 0.92089355
0.5084323 0.86329037 0.43951607 0.9111224 0.4485525 0.27479625 0.94015634 0.05401236
0.32325023 0.7950526 0.31737638 0.7310077 0.28960854 0.21469945 0.87007505 0.44045937
0.013106942 0.024651766 0.23656523 0.34795117 0.1128723 0.43021798 0.39762592 0.47409588
0.6902823 0.54751366 0.8162289 0.48602694 0.5298844 0.947293 0.4810397 0.963144
0.9909063 0.17214465 0.4036668 0.26874983 0.2890802 0.76726365 0.19320214 0.5478415
0.16999578 0.17578495 0.032505095 0.5904712 0.56711495 0.4777968 0.6593943 0.52450097
0.7870408 0.62736607 0.37089282 0.30149287 0.9614307 0.79795784 0.98339736 0.5997964
0.9888403 0.019150615 0.49297744 0.09199804 0.933334 0.91118366 0.574733 0.48283345
0.11452603 0.5569534 0.6122926 0.9122537 0.35023236 0.11562234 0.588869 0.3687179
0.29969704 0.15955317 0.42959678 0.545088 0.28062272 0.021898031 0.10871816 0.8165791
0.30149215 0.42564493 0.27387828 0.9610763
00000000: e0b8 513d cf42 293f 3b5b 1e3f de02 553f
00000010: f84e a53d 864e 4c3f 0e50 c03e aa7d fb3e
00000020: 8140 613f 88ad ff3e 6aaa 583f 606e fc3c
00000030: 9a69 793f 1457 973e a94f 593f aebf 6b3f
00000040: 9f28 023f 9900 5d3f 4008 e13e 513f 693f
00000050: aca8 e53e 18b2 8c3e 16ae 703f 103c 5d3d
00000060: 0e81 a53e 9188 4b3f 287f a23e 5223 3b3f
00000070: 9247 943e 2cda 5b3e 3dbd 5e3f e483 e13e
00000080: 80be 563c 80f2 c93c 283e 723e a826 b23e
00000090: 9829 e73d 8845 dc3e a095 cb3e b2bc f23e
000000a0: 57b6 303f db29 0c3f 61f4 503f 86d8 f83e
000000b0: 81a6 073f cb81 723f d64a f63e 9b90 763f
000000c0: 09ac 7d3f b046 303e 6aad ce3e 9499 893e
000000d0: 5202 943e 646b 443f c8d6 453e 573f 0c3f
000000e0: 6013 2e3e f800 343e 1024 053d 1f29 173f
000000f0: 722e 113f c8a1 f43e 11ce 283f b245 063f
00000100: 827b 493f 109b 203f aae5 bd3e 465d 9a3e
00000110: 5320 763f f746 4c3f eebf 7b3f 428c 193f
00000120: a324 7d3f c0e1 9c3c 8a67 fc3e 7869 bc3d
00000130: faee 6e3f 5543 693f b421 133f f235 f73e
00000140: a08c ea3d 7f94 0e3f 35bf 1c3f 7589 693f
00000150: a851 b33e 68cb ec3d 1ec0 163f 98c8 bc3e
00000160: e471 993e e861 233e 1cf4 db3e e38a 0b3f
00000170: c8ad 8f3e 8063 b33c a0a7 de3d 540b 513f
00000180: 2e5d 9a3e 22ee d93e c639 8c3e 1909 763f
