checkpoints/single-phase/123bus/safe-ddpg/policy_net_checkpoint_a9.pth (torch, 3103 bytes, 4 tensors)

b f4 [100]
0.0 0.0 0.0 0.0 0.0 0.0 0.0 0.0
0.0 0.0 0.0 0.0 0.0 0.0 0.0 0.0
0.08247889 0.0 0.0 0.0 0.0 0.0 0.0 0.0
0.0 0.0 0.0 0.0 0.0 0.0 0.0 0.0
0.021953985 0.011036259 0.0025541435 0.0015054889 0.0006192788 0.0008726666 0.0006287262 3.3865188e-05
0.00044881113 4.847365e-05 0.00028771747 0.00045732685 0.0007525532 0.00058010645 0.0008436679 0.00066460465
0.0006037231 0.00057974894 0.00079321995 0.00048424528 0.00016543746 0.00065369956 0.0007355071 0.0009736958
0.00032406207 5.15739e-05 0.000107859894 0.000387052 0.0002269897 5.6349738e-05 0.00033239648 0.00015431744
0.0008843649 0.00097339525 0.00038384332 0.00090220233 0.0003140463 0.0009234477 0.00016538646 0.00019580351
0.00046174205 0.00024168254 0.0007309943 0.0001354048 0.00071312656 0.00055080344 0.0005941345 0.00069404906
0.00062021596 0.0003482805 0.00064243405 0.0009157422 0.00041439055 0.00018567561 1.7190352e-05 0.00027980775
0.00019342697 0.00022911163 5.945719e-05 0.0006844201 0.00031084998 0.0006288298 0.00082893623 0.0007680906
0.00094738574 5.543375e-05 0.0005564842 5.2992542e-05
00000000: 0000 0000 0000 0000 0000 0000 0000 0000
00000010: 0000 0000 0000 0000 0000 0000 0000 0000
00000020: 0000 0000 0000 0000 0000 0000 0000 0000
00000030: 0000 0000 0000 0000 0000 0000 0000 0000
00000040: b1ea a83d 0000 0000 0000 0000 0000 0000
00000050: 0000 0000 0000 0000 0000 0000 0000 0000
00000060: 0000 0000 0000 0000 0000 0000 0000 0000
00000070: 0000 0000 0000 0000 0000 0000 0000 0000
00000080: d8d8 b33c 6dd1 343c 6b63 273b d353 c53a
00000090: 1957 223a aac3 643a 1ad1 243a 780a 0e38
000000a0: 694e eb39 2f50 4b38 c9d8 9639 5fc5 ef39
000000b0: fe46 453a 4912 183a 9829 5d3a dd38 2e3a
000000c0: 2c43 1e3a 4bfa 173a 17f0 4f3a 4de2 fd39
000000d0: 4879 2d39 095d 2b3a 0ccf 403a 9e3f 7f3a
000000e0: e0e6 a939 0e51 5838 d732 e238 3ded ca39
000000f0: 1504 6e39 1259 6c38 8045 ae39 46d0 2139
00000100: b9d4 673a 732b 7f3a 943e c939 c681 6c3a
00000110: 95a6 a439 8713 723a 976b 2d39 9b50 4d39
00000120: f815 f239 2a6c 7d39 32a0 3f3a 73fb 0d39
00000130: 1df1 3a3a cb63 103a b1bf 1b3a d8f0 353a
00000140: fd95 223a 6b99 b639 0569 283a 6b0e 703a
00000150: 8f42 d939 ebb1 4239 0034 9037 29b3 9239
00000160: a8d2 4a39 af3d 7039 ac61 7938 a86a 333a
00000170: 94f9 a239 0ed8 243a f84c 593a b059 493a
00000180: fb59 783a 8981 6838 06e1 113a 4f44 5e38

c f4 [100]
0.0017281248 0.003206301 0.0017213464 0.0021736133 0.0030590899 0.0017446469 0.00096852006 0.00035644442
0.0010254582 0.0005557446 0.0009194432 0.0020902231 4.065032e-05 0.0015817491 0.0027131895 0.000901189
0.001840309 0.002882577 0.0024698833 0.00042543217 0.0016706149 0.00065885513 0.0029949981 0.0023054562
0.0023991908 0.002392951 0.0031416237 0.00045709935 0.0004887165 0.0021553629 0.002355778 0.0013764536
0.0029105109 0.00024104881 0.0016657494 0.00095980987 0.0018134287 0.0009808925 0.0010297673 0.0013206678
0.00039870307 0.0011554462 0.0006374307 0.0014415655 0.0030832617 0.00037622018 0.0024020378 0.0018124758
0.0020166556 4.0343606e-05 0.001570954 0.0011793022 0.0015947652 0.00035900678 0.0026267471 0.00033818523
0.0029503417 0.0027543867 0.0029052342 0.0019120647 5.999787e-05 0.00092524383 0.00092627195 0.0003791231
0.0023401538 0.002488177 0.0010089775 0.00032749417 0.0012316162 5.003367e-06 0.0022508916 0.0006009891
0.0020450235 0.0016820336 0.003015836 0.0005636134 0.0012821312 0.0027005905 0.0030418301 0.0018123711
0.000798153 0.0002399254 0.0001689338 0.0020536461 0.0019615316 0.0025236967 0.00031133712 0.001471781
0.00044444637 0.0007079568 0.003134049 0.00044958544 8.294435e-06 0.00029358445 0.0013700004 0.0016491609
0.0030026215 0.0004892253 0.00083643553 0.0021202343
00000000: 3f82 e23a ce20 523b cd9e e13a 2e73 0e3b
00000010: 037b 483b a3ac e43a 48e4 7d3a 29e1 ba39
00000020: ab68 863a 64af 113a ca06 713a 20fc 083b
00000030: f37f 2a38 b152 cf3a c4cf 313b c53d 6c3a
00000040: 8636 f13a 9ee9 3c3b c4dd 213b 8a0c df39
00000050: 89f8 da3a 05b7 2c3a bb47 443b 2317 173b
00000060: be3b 1d3b 0ed3 1c3b b3e3 4d3b d6a6 ef39
00000070: 361d 003a fd40 0d3b 6563 1a3b 1e6a b43a
00000080: 45be 3e3b 0cc2 7c39 4655 da3a c09b 7b3a
00000090: 92b0 ed3a 4a91 803a 42f9 863a 421a ad3a
000000a0: 0509 d139 5772 973a 4019 273a e9f2 bc3a
000000b0: 8c10 4a3b 6b3f c539 826b 1d3b 9990 ed3a
000000c0: de29 043b 9e36 2938 78e8 cd3a d192 9a3a
000000d0: 7107 d13a 1339 bc39 8125 2c3b 744e b139
000000e0: 855a 413b f182 343b be65 3e3b 3f9e fa3a
000000f0: 39a6 7b38 108c 723a 0fd1 723a 0bc5 c639
00000100: 445d 193b af10 233b ab3f 843a 86b3 ab39
00000110: 2f6e a13a 98e2 a736 b283 133b b28b 1d3a
00000120: cd05 063b af77 dc3a 55a5 453b 74bf 133a
00000130: 2f0d a83a 64fc 303b 7159 473b 158d ed3a
00000140: 243b 513a 7c94 7b39 d223 3139 7796 063b
00000150: 0a8d 003b 9b64 253b f63a a339 c7e8 c03a
00000160: 9504 e939 2d96 393a 9e64 4d3b 56b6 eb39
00000170: 5428 0b37 3dec 9939 9691 b33a a828 d83a
00000180: a1c7 443b 5b3f 003a 3d44 5b3a a1f3 0a3b

q f4 [1, 100]
0.5794171 0.43700027 0.5594155 0.3264209 0.56196153 0.4468015 0.8186836 0.6877037
0.52679896 0.5198794 0.92020875 0.77864367 0.38157564 0.371596 0.5062212 0.5226524
2.66158 0.39679646 0.050132602 0.24614646 0.37670544 0.14494891 0.51580274 0.94256866
0.091269456 0.7083208 0.17140226 0.3733827 0.4204951 0.37289685 0.7836125 0.61125183
1.086493 0.970407 0.25965554 0.5584877 0.74776447 0.87516993 0.047986448 0.8446211
0.2250306 0.29013962 0.28843015 0.5833911 0.4081325 0.08444542 0.2785318 0.97372365
0.08876288 0.71917194 0.30733103 0.83972704 0.27380854 0.45988715 0.87381846 0.93821216
0.6544642 0.24603039 0.37496924 0.30577022 0.012440741 0.8783668 0.29577452 0.2306611
0.21781087 0.9440724 0.68967754 0.88176066 0.23172498 0.45820612 0.028123558 0.7945602
0.19420022 0.60638857 0.4595474 0.023097157 0.26837718 0.45733726 0.4380561 0.64610964
0.83873075 0.25494444 0.7851603 0.048888326 0.39730114 0.9500405 0.7660483 0.9430643
0.7635246 0.69891775 0.80074096 0.2025162 0.6856471 0.7309451 0.8767915 0.91594124
0.7126084 0.19147903 0.67913604 0.91268027
00000000: ae54 143f 80be df3e db35 0f3f a420 a73e
00000010: b6dc 0f3f 2bc3 e43e 4095 513f 5a0d 303f
00000020: 4cdc 063f d116 053f cd92 6b3f 3155 473f
00000030: e25d c33e d541 be3e b697 013f 8ccc 053f
00000040: 5457 2a40 e828 cb3e d857 4d3d d10d 7c3e
00000050: 89df c03e 7d6d 143e a60b 043f 2e4c 713f
00000060: 7beb ba3d 8354 353f 1384 2f3e 042c bf3e
00000070: 224b d73e 56ec be3e d49a 483f 007b 1c3f
00000080: 3412 8b3f 986c 783f 92f1 843e 0df9 0e3f
00000090: 7e6d 3f3f 230b 603f 708d 443d 1739 583f
000000a0: 6c6e 663e 2e8d 943e 1ead 933e 1e59 153f
000000b0: bef6 d03e b8f1 ac3d b89b 8e3e f445 793f
000000c0: 50c9 b53d a71b 383f 7e5a 9d3e 5af8 563f
000000d0: a230 8c3e 5476 eb3e 91b2 5f3f ac2e 703f
000000e0: f78a 273f 64ef 7b3e f8fb bf3e ea8d 9c3e
000000f0: 40d4 4b3c a6dc 603f c26f 973e 6c32 6c3e
00000100: d009 5f3e bbae 713f b58e 303f 11bb 613f
00000110: 5049 6d3e fe99 ea3e 6063 e63c 4c68 4b3f
00000120: 6cdc 463e 483c 1b3f cc49 eb3e 4036 bd3c
00000130: bc68 893e 1c28 ea3e e448 e03e 7167 253f
00000140: 0fb7 563f 1488 823e 4400 493f 203f 483d
00000150: 0e6b cb3e db35 733f be1b 443f a96c 713f
00000160: 5976 433f 46ec 323f 5cfd 4c3f 6860 4f3e
00000170: 9186 2f3f 381f 3b3f 6875 603f 207b 6a3f
00000180: 816d 363f 1413 443e dcdb 2d3f 6aa5 693f

z f4 [1, 100]
0.85267144 0.22691935 0.056180418 0.95708185 0.99820834 0.7931865 0.35197854 0.40064752
0.5938661 0.47649193 0.8415323 0.079019666 0.85721976 0.75121 0.6414928 0.57029414
0.24501187 0.83406377 0.99924 0.33662373 0.5936613 0.104085565 0.6435747 0.34807724
0.4426191 0.64707845 0.13201028 0.23199219 0.34103858 0.8559723 0.72669977 0.0004735589
0.30505627 0.33379233 0.26986355 0.21892709 0.3117923 0.27162343 0.74036515 0.40424466
0.10574931 0.75756717 0.58368564 0.677771 0.70883614 0.5377909 0.84375805 0.640608
0.80107284 0.62723136 0.07912958 0.19029063 0.655354 0.28895718 0.70935285 0.8168928
0.04760444 0.2895022 0.2730887 0.05663693 0.7921376 0.0041550994 0.5274042 0.15557927
0.72787267 0.19246978 0.62966084 0.7844756 0.16369188 0.43420112 0.90615577 0.9732058
0.022123337 0.98246974 0.6276184 0.9467725 0.99781036 0.7525573 0.25027037 0.73405904
0.5674145 0.06519359 0.6305843 0.4923156 0.7696304 0.87811553 0.23971856 0.18213725
0.45993942 0.71385837 0.6002092 0.9536199 0.7334699 0.012645662 0.31486464 0.37753373
0.9433697 0.6519237 0.62739164 0.7342551
00000000: ad48 5a3f 8c5d 683e 701d 663d 5103 753f
00000010: 958a 7f3f 450e 4b3f 8836 b43e ac21 cd3e
00000020: 9c07 183f c0f6 f33e a96e 573f 10d5 a13d
00000030: c172 5b3f 4c4f 403f df38 243f ccfe 113f
00000040: 64e4 7a3e 3485 553f 31ce 7f3f f259 ac3e
00000050: 30fa 173f d02a d53d 50c1 243f 2e37 b23e
00000060: f89e e23e efa6 253f b42d 073e 5c8f 6d3e
00000070: 9c9c ae3e 0021 5b3f ff08 3a3f 0048 f839
00000080: 5630 9c3e d4e6 aa3e 8e2b 8a3e 6c2e 603e
00000090: 3ea3 9f3e 3a12 8b3e 9288 3d3f 28f9 ce3e
000000a0: 1893 d83d ecef 413f 6c6c 153f 6682 2d3f
000000b0: 4976 353f aaac 093f 8700 583f e3fe 233f
000000c0: 1c13 4d3f 3c92 203f b00e a23d 8cdb 423e
000000d0: 48c5 273f 32f2 933e 2698 353f e31f 513f
000000e0: e0fc 423d a239 943e 48d2 8b3e 20fc 673d
000000f0: 88c9 4a3f 8027 883b f603 073f 2c50 1f3e
00000100: dd55 3a3f cc16 453e 7431 213f 65d3 483f
00000110: d89e 273e 9c4f de3e d3f9 673f 0424 793f
00000120: 003c b53c 2383 7b3f 99ab 203f af5f 723f
00000130: 8070 7f3f 98a7 403f 7023 803e 4beb 3b3f
00000140: 1442 113f 3884 853d f96d 213f ca10 fc3e
00000150: 7f06 453f 2ecc 603f c878 753e 3082 3a3e
00000160: 2e7d eb3e 6cbf 363f 4fa7 193f 6f20 743f
00000170: afc4 3b3f c02f 4f3c f035 a13e 1a4c c13e
00000180: ad80 713f 79e4 263f bd9c 203f 24f8 3b3f
