checkpoints/single-phase/123bus/safe-ddpg/policy_net_checkpoint_a5.pth (torch, 3103 bytes, 4 tensors)

b f4 [100]
0	0x00000000	0.0
1	0x00000000	0.0
2	0x00000000	0.0
3	0x00000000	0.0
4	0x00000000	0.0
5	0x00000000	0.0
6	0x00000000	0.0
7	0x00000000	0.0
8	0x00000000	0.0
9	0x00000000	0.0
10	0x00000000	0.0
11	0x00000000	0.0
12	0x00000000	0.0
13	0x00000000	0.0
14	0x00000000	0.0
15	0x00000000	0.0
16	0x00000000	0.0
17	0x00000000	0.0
18	0x00000000	0.0
19	0x00000000	0.0
20	0x00000000	0.0
21	0x00000000	0.0
22	0x3d8d0c8b	0.06887158
23	0x00000000	0.0
24	0x3c1f48d5	0.009721954
25	0x00000000	0.0
26	0x3aa07c07	0.0012243994
27	0x00000000	0.0
28	0x3a2a69d2	0.0006500754
29	0x3afa549f	0.0019098705
30	0x3a83a686	0.0010044135
31	0x39bf79de	0.00036521157
32	0x3ae50ced	0.0017475166
33	0x3aaa0186	0.0012970425
34	0x3a9395fc	0.0011259909
35	0x3abdf898	0.0014493642
36	0x3ad11a19	0.0015953212
37	0x3af8ffe7	0.0018997163
38	0x3ac723d0	0.0015193168
39	0x3a11c7fe	0.0005561112
40	0x39ffb4ef	0.00048772196
41	0x3a6f0caa	0.00091190136
42	0x3ab144c7	0.0013524526
43	0x3a0ef9a8	0.0005454072
44	0x3a126b6e	0.0005585466
45	0x3a8bcfd1	0.0010666793
46	0x39ae8363	0.00033285757
47	0x39f19376	0.0004607697
48	0x39acf372	0.00032987777
49	0x3aa388ea	0.0012476717
50	0x3a27bd0c	0.00063987146
51	0x387bdda4	6.0049482e-05
52	0x39eea551	0.00045518068
53	0x39edc0d6	0.00045347837
54	0x3a178669	0.00057802215
55	0x3ab9f7ed	0.0014188268
56	0x3ac8ad22	0.0015310387
57	0x39c3555c	0.00037256896
58	0x3ab98f24	0.0014157039
59	0x3ac03b51	0.0014666115
60	0x3ad3edc0	0.0016168877
61	0x3aa4f890	0.0012586284
62	0x3a4f8efb	0.0007917729
63	0x3ae4ebff	0.0017465352
64	0x3a9d5d72	0.0012005998
65	0x3a2281fc	0.0006199179
66	0x3add3f0f	0.0016879755
67	0x3ac601a3	0.0015106689
68	0x3a84fb99	0.0010145783
69	0x3a0f1e2a	0.0005459512
70	0x39885532	0.00026003417
71	0x3ab590e8	0.001385239
72	0x39326cdf	0.0001701596
73	0x3a5348cf	0.00080598606
74	0x3ad62224	0.0016337079
75	0x3a40f929	0.00073613465
76	0x39c583cc	0.00037672964
77	0x3a9535e2	0.0011383856
78	0x3a3dd1ce	0.0007241041
79	0x3a4eea3c	0.000789318
80	0x3aeb3e4c	0.0017947643
81	0x3a19a1c4	0.0005860592
82	0x3ab286c0	0.0013620481
83	0x3a5a3166	0.0008323401
84	0x3ab82a9e	0.0014050787
85	0x3a82ce87	0.0009979763
86	0x3a0537b2	0.00050818466
87	0x3a8e304f	0.0010848137
88	0x3a95ccf9	0.0011428884
89	0x391e23b2	0.00015081352
90	0x39e64662	0.00043921458
91	0x3ab9581f	0.0014140642
92	0x3a7242d5	0.0009241526
93	0x39ab6f84	0.00032698747
94	0x3ad4fb9d	0.0016249303
95	0x3a858e88	0.0010189572
96	0x3acee2ad	0.0015784107
97	0x3a227bc1	0.00061982503
98	0x3980f6f2	0.0002459805
99	0x3aab30f5	0.0013060855

c f4 [100]
0	0x3a978d06	0.0011562414
1	0x39a7b31e	0.00031986175
2	0x3ab3c6b1	0.0013715831
3	0x3ad1dbc6	0.0016010932
4	0x3a0a8850	0.00052845944
5	0x3ae68e0e	0.0017589943
6	0x3afb63b2	0.0019179492
7	0x3a22620e	0.0006194421
8	0x3b124334	0.0022317888
9	0x3985e1ae	0.0002553588
10	0x3a9bbdd4	0.0011882135
11	0x3a2a2c29	0.0006491566
12	0x3af1d395	0.0018449897
13	0x3b15626c	0.002279426
14	0x39ed2874	0.00045234303
15	0x39bb7fff	0.00035762784
16	0x3afbd525	0.0019213302
17	0x3aa612d7	0.001267041
18	0x3a5e16a2	0.00084720005
19	0x3b17b369	0.0023147708
20	0x39a884ef	0.000321425
21	0x3b1e3fc7	0.00241469
22	0x3acf86b9	0.0015832997
23	0x3b2e7792	0.0026621562
24	0x3b0f5ff5	0.0021877263
25	0x3aed5051	0.0018105601
26	0x3b279e27	0.0025576444
27	0x3b20b1b2	0.0024519977
28	0x3a39a4fa	0.00070817734
29	0x3a388f61	0.0007040408
30	0x3a1889b4	0.0005818859
31	0x3b1dfe62	0.0024107923
32	0x3a2aff44	0.0006523023
33	0x3985c07b	0.00025511146
34	0x3a180a33	0.00057998596
35	0x3a6b2750	0.00089703966
36	0x3b29f906	0.0025935783
37	0x3b00425f	0.001957081
38	0x3a9d93c1	0.0012022184
39	0x38c40f4e	9.348859e-05
40	0x3aeb2772	0.0017940833
41	0x3b240859	0.002502939
42	0x3a8efc7a	0.0010908984
43	0x3b1395ae	0.0022519636
44	0x3a2ffb89	0.0006713202
45	0x3a6550b1	0.00087476807
46	0x3b43be2a	0.0029867985
47	0x3ac870a9	0.0015292364
48	0x3a81da5a	0.0009906993
49	0x3ab8e51d	0.0014106367
50	0x39d4f9a6	0.00040621794
51	0x3b11057a	0.0022128508
52	0x3a81d311	0.0009904822
53	0x3af219ab	0.0018470784
54	0x3ad4cb02	0.0016234817
55	0x3a9c3404	0.0011917357
56	0x3ac25ad2	0.0014828092
57	0x3a52897a	0.000803135
58	0x3a846888	0.0010101954
59	0x3a275d14	0.0006384414
60	0x3ad5f3b1	0.0016323236
61	0x3ad20227	0.001602237
62	0x3a5f26a0	0.00085125305
63	0x3b11f453	0.0022270873
64	0x3980053a	0.00024417957
65	0x3919a1a2	0.0001465143
66	0x3b28f4bd	0.002578064
67	0x3ab61435	0.001389152
68	0x3b04b915	0.002025192
69	0x3ae0fe2d	0.0017165594
70	0x3b0169bc	0.001974686
71	0x3b0a3856	0.0021090708
72	0x3b1e9f83	0.0024203963
73	0x3b12531b	0.0022327367
74	0x3b2af9f9	0.0026088937
75	0x3b3ce48d	0.002882275
76	0x3b144fe7	0.0022630633
77	0x3a5f8d72	0.0008527852
78	0x3ad0b1ca	0.0015922126
79	0x3b347ce2	0.0027540256
80	0x3ac213a4	0.0014806879
81	0x3abced25	0.0014413936
82	0x3b3f7544	0.0029214183
83	0x3a9d6e58	0.0012011034
84	0x3b08f55f	0.0020898206
85	0x3aa34620	0.0012456812
86	0x3b14caaf	0.0022703817
87	0x3b0ce681	0.0021499696
88	0x3a8915ba	0.0010458746
89	0x3830e38d	4.2173593e-05
90	0x3b161a73	0.0022903949
91	0x3b22b47a	0.002482681
92	0x3b2d6ea5	0.0026463654
93	0x39e20fb6	0.00043117785
94	0x3b2d4507	0.0026438849
95	0x3b3efb51	0.0029141495
96	0x39e8dbfd	0.00044414392
97	0x396a3812	0.00022336867
98	0x3a55fbd6	0.00081628317
99	0x3aaa3263	0.0012984987

q f4 [1, 100]
0	0x3f3acf85	0.729729
1	0x3e50c3d8	0.20387208
2	0x3f9a6380	1.2061615
3	0x3f5f1253	0.87137336
4	0x3da52009	0.08062751
5	0x3f28e04e	0.6596726
6	0x3f194672	0.59873116
7	0x3f06627e	0.5249404
8	0x3edc8081	0.4306679
9	0x3cf39a40	0.029736638
10	0x3e9acb13	0.30233058
11	0x3f36e490	0.7144251
12	0x3f3f9a46	0.7484478
13	0x3f8318ca	1.024194
14	0x3f715451	0.9426928
15	0x3efa2c0c	0.4886173
16	0x3f1b1389	0.60576683
17	0x3df3c648	0.119030535
18	0x3e2671bb	0.16254322
19	0x3e9108c1	0.2832699
20	0x3e5965df	0.21230267
21	0x3f7928a1	0.9732762
22	0x402bdf9b	2.6855228
23	0x3d089963	0.033349406
24	0x3f811ef6	1.0087574
25	0x3e2e5f46	0.17028531
26	0x3f1c987a	0.6117016
27	0x3bb732d5	0.0055907764
28	0x3ea81041	0.328249
29	0x3f64e1e7	0.894072
30	0x3f0dc4f3	0.55378646
31	0x3ed128bc	0.4085139
32	0x3ee2cb1a	0.4429558
33	0x3d14a0d0	0.036286175
34	0x3f28f70f	0.6600198
35	0x3e550e00	0.20806122
36	0x3f25150c	0.6448524
37	0x3f5b8888	0.85755205
38	0x3ea1a140	0.31568336
39	0x3ebb0d34	0.3653351
40	0x3f1c8b0e	0.6114968
41	0x3f3700ab	0.71485394
42	0x3f2d4194	0.6767819
43	0x3f6b3042	0.9187051
44	0x3f1489c7	0.5802273
45	0x3f4b61e8	0.7944627
46	0x3df65400	0.120277405
47	0x3e1a1b0c	0.1504938
48	0x3f0ff6d7	0.5623602
49	0x3f1f8bc7	0.6232266
50	0x3e67169c	0.22567219
51	0x3e1f2f80	0.15545464
52	0x3f4a2a42	0.7897073
53	0x3ef247f4	0.4732052
54	0x3f722b87	0.9459767
55	0x3e5cd330	0.21564937
56	0x3dcf59d8	0.10124558
57	0x3bffe080	0.007808745
58	0x3e868a8c	0.26277578
59	0x3f3aeec0	0.73020554
60	0x3f253bac	0.6454418
61	0x3f209959	0.6273399
62	0x3e85b772	0.2611652
63	0x3e97440a	0.29544097
64	0x3f2f780e	0.68542564
65	0x3f4645eb	0.77450436
66	0x3e884242	0.2661305
67	0x3e8f0ade	0.27937979
68	0x3ecf6c0c	0.4051212
69	0x3e454ed8	0.19268358
70	0x3ea1e914	0.31623137
71	0x3ec74fba	0.38928014
72	0x3ea019a4	0.31269562
73	0x3ee33c54	0.44381964
74	0x3f44a0ed	0.76808053
75	0x3ea0ed10	0.31430864
76	0x3da1d148	0.07901245
77	0x3f24d510	0.6438761
78	0x3e689fa8	0.22717154
79	0x3eecefc4	0.46276677
80	0x3f45e045	0.77295333
81	0x3e57fd4c	0.21092719
82	0x3e81ffae	0.2539038
83	0x3e7ec4e0	0.2487979
84	0x3de3d5f0	0.1112479
85	0x3f2b5a28	0.6693444
86	0x3f54e37d	0.8315962
87	0x3eb1f6e0	0.34758663
88	0x3f503615	0.8133252
89	0x3ea7ccd2	0.32773453
90	0x3eae0172	0.33985478
91	0x3ec242b0	0.37941504
92	0x3dbc4d00	0.09194374
93	0x3f2eba2a	0.68252814
94	0x3f1d9ede	0.6157054
95	0x3e52f1c4	0.20600039
96	0x3f180bdb	0.5939309
97	0x3f5217a9	0.8206735
98	0x3ec858f4	0.39130366
99	0x3f4f0c46	0.808781

z f4 [1, 100]
0	0x3f0ef2a1	0.5583897
1	0x3ddf9eb8	0.10918945
2	0x3f0bb9b9	0.54580265
3	0x3f5b75bf	0.8572654
4	0x3e3e117c	0.18561357
5	0x3f5fe45b	0.8745782
6	0x3e6f86e0	0.23391294
7	0x3d4ee4e0	0.05051124
8	0x3f35dba9	0.710383
9	0x3f0b4245	0.54397994
10	0x3f60542f	0.87628454
11	0x3f4f118b	0.80886143
12	0x3e2c2744	0.16811854
13	0x3f120cab	0.5705058
14	0x3ee8f448	0.45498872
15	0x3f22869b	0.6348664
16	0x3e725d90	0.23668504
17	0x3f250fac	0.6447704
18	0x3e3094c4	0.1724425
19	0x3e457770	0.19283843
20	0x3f228aab	0.6349284
21	0x3f6a99fe	0.91641223
22	0x3cc60740	0.024173379
23	0x3f01f503	0.50764483
24	0x3e859ef4	0.26097834
25	0x3f039eb0	0.5141401
26	0x3e85d9ee	0.2614283
27	0x3eac3c56	0.33639783
28	0x3a7f6400	0.0009742379
29	0x3e0a35d8	0.13497102
30	0x3f4057fb	0.7513425
31	0x3f13dc7f	0.57758325
32	0x3e045d30	0.12926173
33	0x3f1a33b0	0.6023512
34	0x3ee3c7de	0.44488424
35	0x3f7e2d8c	0.9928825
36	0x3da8f6d8	0.08250207
37	0x3eabd062	0.3355742
38	0x3f371d42	0.7152902
39	0x3f15c880	0.58509064
40	0x3f3a3061	0.7273007
41	0x3f2c013b	0.6718938
42	0x3f13e5d8	0.5777259
43	0x3e7334b8	0.2375058
44	0x3f7ce482	0.98786175
45	0x3e4c8afc	0.19974893
46	0x3f480d6b	0.78145474
47	0x3f77a314	0.9673321
48	0x3ee3734c	0.44423902
49	0x3f5b6276	0.85697114
50	0x3eee7af6	0.46578187
51	0x3f498e32	0.787326
52	0x3f715aa6	0.94278944
53	0x3ec8eb00	0.3924179
54	0x3f6d02f1	0.92582613
55	0x3f7f938a	0.998345
56	0x3f45bfce	0.77245796
57	0x3f443872	0.7664863
58	0x3f19e75f	0.6011867
59	0x3ee84c8e	0.45370907
60	0x3f32ef88	0.69896746
61	0x3f055f67	0.520987
62	0x3f6dfeb8	0.92966795
63	0x3e152eec	0.1456868
64	0x3ea4653e	0.32108492
65	0x3ea48bd2	0.32137924
66	0x3e8539e8	0.2602074
67	0x3f0f4009	0.55957085
68	0x3f6f224d	0.93411714
69	0x3f3aee8e	0.73020256
70	0x3f5086e6	0.8145584
71	0x3f2acdf4	0.6672051
72	0x3f7fd3d7	0.99932617
73	0x3f3afa6e	0.73038375
74	0x3f3f942d	0.74835473
75	0x3ef4ac6c	0.47787797
76	0x3e12cc1c	0.14335674
77	0x3ed6dd92	0.4196592
78	0x3dd5b6c8	0.104352534
79	0x3f0baec4	0.54563546
80	0x3e4e46e0	0.20144224
81	0x3f42cf6d	0.76097757
82	0x3ef89b36	0.48555917
83	0x3e917784	0.28411496
84	0x3f60feb9	0.87888676
85	0x3f429e66	0.76022947
86	0x3f135b0a	0.5756079
87	0x3f2e72ac	0.68143725
88	0x3ef60556	0.48050946
89	0x3e761da4	0.24034745
90	0x3eb4cd6c	0.35312974
91	0x3c5a3280	0.013317704
92	0x3da1d0c0	0.07901144
93	0x3e588160	0.21143103
94	0x3d8e6950	0.069536805
95	0x3ed790b6	0.42102593
96	0x3f2e7f02	0.6816255
97	0x3c6cb180	0.014446616
98	0x3e276a80	0.1634922
99	0x3e877f68	0.2646439
