checkpoints/single-phase/123bus/safe-ddpg/policy_net_checkpoint_a6.pth (torch, 3103 bytes, 4 tensors)

b f4 [100]
0	0x00000000	0.0
1	0x00000000	0.0
2	0x00000000	0.0
3	0x00000000	0.0
4	0x00000000	0.0
5	0x00000000	0.0
6	0x00000000	0.0
7	0x00000000	0.0
8	0x00000000	0.0
9	0x3d97ac67	0.0740593
10	0x00000000	0.0
11	0x00000000	0.0
12	0x3bf0231f	0.0073284055
13	0x00000000	0.0
14	0x00000000	0.0
15	0x00000000	0.0
16	0x00000000	0.0
17	0x00000000	0.0
18	0x00000000	0.0
19	0x00000000	0.0
20	0x00000000	0.0
21	0x00000000	0.0
22	0x00000000	0.0
23	0x00000000	0.0
24	0x00000000	0.0
25	0x00000000	0.0
26	0x00000000	0.0
27	0x00000000	0.0
28	0x00000000	0.0
29	0x00000000	0.0
30	0x00000000	0.0
31	0x3c8c5e17	0.01713471
32	0x3b8dd6ca	0.0043285834
33	0x3aed6d9e	0.0018114334
34	0x3abfd083	0.0014634285
35	0x3a73b5f2	0.00092968263
36	0x3a1882e8	0.00058178464
37	0x3aaf08a8	0.001335402
38	0x3a609e70	0.0008568531
39	0x3a0de18d	0.0005412333
40	0x3a33401c	0.0006837861
41	0x39ae5f90	0.00033259066
42	0x39a5e5ae	0.00031642377
43	0x3a4224a4	0.00074059726
44	0x3a2b61be	0.0006537697
45	0x3a131d13	0.00056119374
46	0x39c2e54c	0.00037173403
47	0x39b2cb87	0.00034102445
48	0x3aa8a68d	0.0012867019
49	0x38b46122	8.601161e-05
50	0x3a09a1cd	0.00052502454
51	0x3a760193	0.000938439
52	0x3a25e1df	0.0006327908
53	0x38810aa9	6.153185e-05
54	0x39b71758	0.00034921872
55	0x3aae00e0	0.0013275407
56	0x3970e3c2	0.0002297303
57	0x398c8cde	0.00026807835
58	0x39404116	0.00018334793
59	0x3a1c4420	0.0005961079
60	0x3a63afa2	0.0008685534
61	0x3a9dbef9	0.0012035064
62	0x393e9303	0.00018174578
63	0x3a1cecd1	0.0005986216
64	0x3950cae5	0.0001991201
65	0x3aaeccaf	0.0013336147
66	0x3a5de1bb	0.00084641174
67	0x37bcaf0c	2.2492859e-05
68	0x3a82fedd	0.0009994168
69	0x3a521c1e	0.0008015054
70	0x3a750e5c	0.0009348148
71	0x3a776349	0.0009437097
72	0x3a8b6e94	0.0010637813
73	0x3a6254d5	0.0008633857
74	0x3a16e173	0.00057556404
75	0x3a9c1773	0.0011908844
76	0x3a642bcb	0.00087040354
77	0x3911fe79	0.00013923076
78	0x3a302904	0.0006719979
79	0x3984c180	0.0002532117
80	0x3a872f65	0.0010313807
81	0x39ba3722	0.00035517762
82	0x3ab28db6	0.0013622555
83	0x395bb7e8	0.00020953978
84	0x3a551b1d	0.00081293454
85	0x3a1941f5	0.0005846315
86	0x3a3b8834	0.000715378
87	0x3996cb3e	0.00028761657
88	0x39da6b22	0.0004166002
89	0x3a3e2bac	0.00072544324
90	0x3ab736fd	0.001397818
91	0x39b3ff0c	0.00034331565
92	0x3a3ef8b6	0.00072849856
93	0x3a76bdcc	0.0009412437
94	0x38548568	5.0668983e-05
95	0x39cdf34c	0.00039281917
96	0x3a3dbb40	0.000723768
97	0x3a31ff77	0.00067900814
98	0x3ab52366	0.0013819754
99	0x3abcf07a	0.0014414929

c f4 [100]
0	0x3b21a6b9	0.0024666025
1	0x3aa36240	0.0012465194
2	0x3afebb9b	0.0019434573
3	0x3941b02e	0.00018471546
4	0x3a7f3bcd	0.0009736389
5	0x3b02c20d	0.001995209
6	0x3b0f508b	0.0021868076
7	0x3aef4ace	0.0018256546
8	0x39cd0e9a	0.00039111526
9	0x3ade7626	0.0016972467
10	0x3ac082df	0.001468744
11	0x3aa213ec	0.0012365556
12	0x3b383f32	0.002811384
13	0x3aad2314	0.0013209307
14	0x3b3a15b4	0.0028394284
15	0x3b37ba2d	0.0028034553
16	0x3a89a3fb	0.001050114
17	0x3b147372	0.0022651819
18	0x3ab32d80	0.0013670176
19	0x3b078aa3	0.0020682
20	0x3abb0422	0.00142682
21	0x3ab7cb4d	0.001402238
22	0x3b2c1307	0.0026256458
23	0x3ad4462d	0.001619523
24	0x3aab96a6	0.0013091161
25	0x3a6a9f5a	0.0008950137
26	0x3b3b7a05	0.0028606665
27	0x3ad3c21e	0.0016155874
28	0x3ae4e9f8	0.0017464748
29	0x39762aaf	0.00023476289
30	0x3aca431c	0.0015431377
31	0x39d730e2	0.00041044416
32	0x37dad2c6	2.6085774e-05
33	0x3b2b0cc7	0.0026100145
34	0x3b1b329b	0.0023681286
35	0x3a63f8f3	0.0008696459
36	0x3a809946	0.0009811304
37	0x3b0b1bc3	0.0021226264
38	0x3a98d4e2	0.0011660124
39	0x3af23388	0.0018478492
40	0x3b3076c6	0.0026926263
41	0x3a7e44c0	0.00096995756
42	0x39ad5055	0.00033056983
43	0x3aae8424	0.0013314527
44	0x3a19dc20	0.0005869288
45	0x3a02f1be	0.0004995129
46	0x3ac846ac	0.0015279851
47	0x3a8e40e8	0.0010853084
48	0x3ac0db1b	0.0014713736
49	0x3a6a2044	0.00089311996
50	0x3ad774d0	0.0016438011
51	0x3accc2c7	0.0015622013
52	0x39c52581	0.0003760271
53	0x3a87f991	0.0010374059
54	0x3a01620f	0.00049355713
55	0x3946188f	0.000188919
56	0x3ae3ed3e	0.0017389429
57	0x3a66a759	0.00087987405
58	0x3a10f444	0.00055295625
59	0x3a420ac2	0.0007402116
60	0x3af4caf5	0.0018676209
61	0x39b1ab7c	0.00033887837
62	0x3ae49bf5	0.0017441498
63	0x3a5777c5	0.0008219446
64	0x3a3e8965	0.0007268398
65	0x3adfef72	0.001708491
66	0x3b1d543b	0.0024006504
67	0x3a91e726	0.001113151
68	0x394e3add	0.00019667619
69	0x3afad63e	0.0019137335
70	0x3b2d50e0	0.002644591
71	0x3af69987	0.0018814065
72	0x3ab8ce81	0.0014099629
73	0x3b1bc61f	0.0023769212
74	0x3b2a764c	0.0026010452
75	0x3b204051	0.0024452398
76	0x3ae6dab7	0.001761279
77	0x3b3a47cb	0.002842414
78	0x3b39340b	0.002825978
79	0x3b3e485b	0.0029034826
80	0x3ab22fee	0.0013594606
81	0x3aec89d8	0.0018046452
82	0x3ab9314c	0.0014129071
83	0x3a42d771	0.0007432616
84	0x3aa4f13c	0.00125841
85	0x3ab0b183	0.0013480637
86	0x3ab76159	0.0013990804
87	0x3a94be6d	0.0011348255
88	0x3b125302	0.0022327309
89	0x3a1807a6	0.00057994795
90	0x3af9d575	0.0019060808
91	0x3a0aa029	0.0005288148
92	0x3b33a62f	0.0027412286
93	0x3ae337db	0.0017335372
94	0x3b0438ab	0.0020175378
95	0x3b383307	0.0028106587
96	0x3a62f8eb	0.00086583075
97	0x390c1b3c	0.00013361586
98	0x3a971ae2	0.0011528397
99	0x3af7429b	0.0018864454

q f4 [1, 100]
0	0x3ede5ea1	0.4343157
1	0x3e2efa56	0.17087683
2	0x3c299678	0.010350816
3	0x3f675f4a	0.90379775
4	0x3dd16efd	0.102262475
5	0x364f9d82	3.0937085e-06
6	0x3e9f726d	0.31141987
7	0x3e74123c	0.23835081
8	0x3f12d0dc	0.57349944
9	0x40291180	2.641693
10	0x3f926a9b	1.1438783
11	0x3de74052	0.11291565
12	0x3f9e58ff	1.237091
13	0x3f392621	0.72323805
14	0x3e65a85b	0.22427504
15	0x3f846c1e	1.0345495
16	0x3f8aee70	1.0854015
17	0x3f08cbfb	0.5343625
18	0x3e6cd28a	0.2312719
19	0x3e5f6ef8	0.21819675
20	0x3e41cf9c	0.18926853
21	0x3edbdcab	0.42941794
22	0x3e0aeef3	0.13567714
23	0x3c4f2745	0.01264364
24	0x3f7630ac	0.9616802
25	0x3ea48ba8	0.321378
26	0x3dc070ed	0.09396539
27	0x3d983e05	0.07433704
28	0x22ac8fed	4.677308e-18
29	0x3f268b1d	0.6505602
30	0x3f142f5c	0.57884765
31	0x3f9ef919	1.2419769
32	0x3f6d4d53	0.9269611
33	0x3f0f9a3a	0.56094706
34	0x3dc111a9	0.094271965
35	0x3ebf8628	0.3740704
36	0x3f009fcd	0.50243837
37	0x3f2381f2	0.63870156
38	0x3dce2ea0	0.10067487
39	0x3f65e025	0.8979514
40	0x3e6ab134	0.2291916
41	0x3b5c5c00	0.0033624172
42	0x3ed73a3c	0.42036617
43	0x3f7ab43e	0.9793128
44	0x3e80fc5c	0.25192535
45	0x3e66113c	0.22467512
46	0x3f0866d9	0.53281933
47	0x3f2f1b77	0.68401283
48	0x3f41c042	0.7568399
49	0x3f7ede55	0.99558
50	0x3f4c9197	0.7990965
51	0x3da01768	0.078169644
52	0x3f57c0cf	0.8427858
53	0x3f39a639	0.7251926
54	0x3f3e89ab	0.74428815
55	0x3e19c30c	0.1501581
56	0x3f3a59e8	0.72793436
57	0x3f35f76a	0.7108065
58	0x3eb49ec4	0.3527738
59	0x3e454f7c	0.19268602
60	0x3f4f815d	0.8105677
61	0x3f003797	0.50084823
62	0x3f5eaade	0.8697947
63	0x3f46fb45	0.77727157
64	0x3e8037b4	0.25042498
65	0x3f00544f	0.50128645
66	0x3d8ddc90	0.069268346
67	0x3ee19b82	0.44063956
68	0x3c91e040	0.017807126
69	0x3f21aa03	0.6315004
70	0x3cbd5620	0.023112357
71	0x3f2b3cc9	0.66889626
72	0x3f21fe7b	0.6327893
73	0x3f1c89bb	0.6114766
74	0x3e895ab4	0.26827013
75	0x3f798758	0.97472143
76	0x3f1d3928	0.6141534
77	0x3eef7d82	0.46775442
78	0x3f7ecd8c	0.9953239
79	0x3f47e29f	0.7808017
80	0x3eec1536	0.46109933
81	0x3f71f310	0.9451151
82	0x3f36be5c	0.71384215
83	0x3ee4f972	0.44721562
84	0x3e31b4d4	0.17354137
85	0x3de7a160	0.11310077
86	0x3f481788	0.78160906
87	0x3f1841f2	0.59475625
88	0x3edb12a8	0.4278767
89	0x3f4b38b4	0.793834
90	0x3f7e9331	0.99443346
91	0x3f5f2f39	0.8718143
92	0x3e9be4ca	0.3044799
93	0x3f442823	0.76623744
94	0x3f0b36c6	0.5438045
95	0x3edbdff0	0.42944288
96	0x3da136a0	0.07871747
97	0x3e9d166e	0.30681175
98	0x3f231b31	0.63713366
99	0x3f30abef	0.6901235

z f4 [1, 100]
0	0x3ed3b59a	0.41349488
1	0x3e4966fc	0.19668192
2	0x3f75da3a	0.9603611
3	0x3f0bc708	0.5460057
4	0x3d333510	0.043751776
5	0x3c235840	0.009969771
6	0x3f4403bc	0.765682
7	0x3f4a82be	0.79105747
8	0x3f5ee79d	0.87072164
9	0x3e970f40	0.29503822
10	0x3d15db10	0.036585867
11	0x3e1109b8	0.14163864
12	0x3f089243	0.5334818
13	0x3f76e460	0.9644222
14	0x3f775217	0.96609634
15	0x3f62a893	0.88538474
16	0x3f78eb5e	0.9723414
17	0x3ee283e4	0.4424125
18	0x3f3b8351	0.7324725
19	0x3f1f26b6	0.62168443
20	0x3f4165b3	0.75545806
21	0x3da9f190	0.082980275
22	0x3e7a472c	0.24441212
23	0x3d2f08b0	0.042732894
24	0x3f034a2b	0.51285046
25	0x3e7ce5c4	0.24697024
26	0x3f104bd5	0.5636571
27	0x3f60bd95	0.8778928
28	0x3f4cb459	0.7996269
29	0x3eb7fda8	0.35935712
30	0x3ef1edc4	0.47251713
31	0x3f2d5713	0.6771099
32	0x3f640fe2	0.89086735
33	0x3f2a2ddb	0.6647622
34	0x3d0ec4f0	0.034855783
35	0x3f169c45	0.588322
36	0x3eb1b7f6	0.34710664
37	0x3f6c7551	0.9236651
38	0x3e100070	0.14062667
39	0x3f45f035	0.7731965
40	0x3e56c204	0.20972449
41	0x3ee74a10	0.45173693
42	0x3e3786f8	0.1792258
43	0x3f629f31	0.88524157
44	0x3f45d974	0.7728493
45	0x3f49c4f0	0.7881613
46	0x3e7e5584	0.24837309
47	0x3dd0b050	0.10189879
48	0x3f35b7dd	0.7098368
49	0x3f73d2ca	0.95243514
50	0x3f115577	0.56771034
51	0x3e07e694	0.13271552
52	0x3f450d5a	0.769735
53	0x3e8ee89a	0.27911836
54	0x3f3b223f	0.7309913
55	0x3f4a22f5	0.7895959
56	0x3daf2578	0.085520685
57	0x3dbb46f8	0.091443956
58	0x3e485acc	0.19565886
59	0x3e132e8c	0.14373225
60	0x3f45599f	0.77089876
61	0x3eb684cc	0.3564819
62	0x3f103acf	0.56339735
63	0x3f1ee5b8	0.62069273
64	0x3f51b1c9	0.81911904
65	0x3f6e3b53	0.9305927
66	0x3f3e6917	0.74379104
67	0x3ddc0650	0.107433915
68	0x3f36f4fc	0.71467566
69	0x3dde3d58	0.10851544
70	0x3f268bb9	0.6505695
71	0x3f1f3d67	0.6220307
72	0x3f0e5a03	0.55606097
73	0x3d99d798	0.07511824
74	0x3f10127f	0.5627822
75	0x3f5c604d	0.86084443
76	0x3e840124	0.2578212
77	0x3ea736e0	0.32659054
78	0x3f1d02aa	0.6133219
79	0x3f1761fe	0.591339
80	0x3e26d390	0.16291642
81	0x3e8907c0	0.26763725
82	0x3ea7e0e4	0.32788765
83	0x3f44c0fc	0.7685697
84	0x3f326ef5	0.69700557
85	0x3eb46696	0.35234517
86	0x3eb57c70	0.354465
87	0x3eaac522	0.33353525
88	0x3f17df2f	0.59324926
89	0x3e050640	0.12990665
90	0x3f03d5f8	0.51498365
91	0x3f0daa6d	0.55338174
92	0x3e61a448	0.22035325
93	0x3b801500	0.0039087534
94	0x3f53a7ba	0.82677805
95	0x3f216662	0.6304685
96	0x3f491882	0.7855302
97	0x3e2c8f48	0.16851532
98	0x3e528cd0	0.20561528
99	0x3f278086	0.65430486
