checkpoints/single-phase/123bus/safe-ddpg/policy_net_checkpoint_a1.pth (torch, 3103 bytes, 4 tensors)

b f4 [100]
0.0 0.0 0.0 0.0 0.0 0.0 0.0 0.0
0.0 0.0 0.0 0.0 0.0 0.0 0.0 0.0
0.0 0.0 0.0 0.0 0.0 0.0 0.0 0.0
0.0 0.07607307 0.0 0.0 0.0 0.0 0.0 0.013050278
0.0 0.0 0.0 0.0 0.010376045 0.0 0.0 0.0
0.0065827295 0.0 0.0035592222 0.0007306442 0.00014206136 0.0013111876 0.00016979955 0.0002876934
0.00040369498 0.00061406475 0.000240842 0.000706454 0.00096750597 0.0003168359 0.0010541545 0.000965413
0.0012558242 0.0012620006 0.00083608937 0.00089316675 0.0011173093 0.000432787 0.0012213646 0.00075438473
0.0006900221 0.00086463045 0.00073720474 0.00037154768 0.00024821114 0.0013522566 0.00074419373 0.0006649958
0.0012338579 0.0013701665 0.0011756349 0.0010293673 0.0007245432 0.0004985579 0.0009354608 0.00067950145
0.0003566467 9.136352e-05 0.0003010634 0.0004997634 0.0006357984 0.00056880363 0.000329786 0.00039330928
8.567874e-05 0.0009915943 0.00014626764 0.0006732441 0.0013827985 0.00055445504 0.00051473663 0.0011223484
0.00044952636 0.001130868 0.00034676693 0.0007804145
00000000: 0000 0000 0000 0000 0000 0000 0000 0000
00000010: 0000 0000 0000 0000 0000 0000 0000 0000
00000020: 0000 0000 0000 0000 0000 0000 0000 0000
00000030: 0000 0000 0000 0000 0000 0000 0000 0000
00000040: 0000 0000 0000 0000 0000 0000 0000 0000
00000050: 0000 0000 0000 0000 0000 0000 0000 0000
00000060: 0000 0000 33cc 9b3d 0000 0000 0000 0000
00000070: 0000 0000 0000 0000 0000 0000 d5d0 553c
00000080: 0000 0000 0000 0000 0000 0000 0000 0000
00000090: 4900 2a3c 0000 0000 0000 0000 0000 0000
000000a0: f0b3 d73b 0000 0000 d741 693b b488 3f3a
000000b0: 4ef6 1439 28dc ab3a 380c 3239 8ed5 9639
000000c0: 06a7 d339 30f9 203a 888a 7c39 5331 393a
000000d0: 3aa0 7d3a ff1c a639 8e2b 8a3a c513 7d3a
000000e0: 789a a43a b769 a53a 022d 5b3a 6823 6a3a
000000f0: ae72 923a b0e7 e239 3216 a03a e7c1 453a
00000100: 99e2 343a 5ea8 623a f940 413a 49cc c239
00000110: 5622 8239 343e b13a ff15 433a 1d53 2e3a
00000120: 67b9 a13a 2997 b33a c317 9a3a d6eb 863a
00000130: 45ef 3d3a a8b1 023a b639 753a 9220 323a
00000140: 4ffc ba39 6b9a bf38 0cd8 9d39 8e02 033a
00000150: b5ab 263a c41b 153a 21e7 ac39 1435 ce39
00000160: 6cae b338 62f8 813a 6c5f 1939 a67c 303a
00000170: 053f b53a d958 113a 64ef 063a c31b 933a
00000180: 68ae eb39 a239 943a 45ce b539 bb94 4c3a

c f4 [100]
2.0897349e-05 0.0023992653 0.0012969652 0.001419003 0.0015821236 0.0025406966 0.0023123464 0.0013157421
0.0023550973 0.0025410263 0.0026739263 0.0028023112 0.00231678 0.0005596473 0.00026673183 0.00062683516
0.0016087453 0.0014920114 0.0009104611 0.0014631063 0.00088794 0.0023411345 0.0016680664 0.0009044369
0.0004975818 0.0020437294 0.0021629431 0.00072539237 0.0005666104 0.002838344 0.00059943285 0.0017036641
0.0025653588 0.002584969 0.0027681943 0.000926446 0.00018644988 0.00066439644 0.0012202149 3.9358478e-05
0.0027206342 0.0025516725 0.002844514 0.002051385 0.0014170437 0.00021645302 0.001062797 0.0028646977
0.00044453944 0.0011470417 0.0013483128 0.0011777934 0.001972071 0.0028741278 0.0009516567 0.0012046713
0.0023782873 0.0015054316 0.00021202212 0.0016035478 0.0011225124 0.00064929907 0.0013350947 0.0009783753
0.0005521421 0.00027958988 0.0009567425 0.0015532146 0.0013029331 0.000102265614 0.0008368745 0.0010954106
0.0012942577 0.00074991497 0.0012505112 0.002276691 0.0028642672 0.00182314 0.0027939195 0.0025980498
0.0020632336 0.0016465962 0.0028526955 0.001120105 0.001484167 0.00055121013 0.0025927094 0.0003301435
0.0015848918 0.0009014532 0.0010214244 0.0021525982 0.0004359225 0.0022073057 0.0017365259 0.0012262904
0.0028536166 0.0004152678 0.0014520163 0.0020095455
00000000: b74c af37 fe3c 1d3b eefe a93a d7fd b93a
00000010: 425f cf3a d181 263b bc8a 173b fb74 ac3a
00000020: fa57 1a3b 5987 263b 0a3d 2f3b fba6 373b
00000030: 1ed5 173b 4bb5 123a 24d8 8b39 3252 243a
00000040: 89dc d23a 988f c33a 03ac 6e3a b3c5 bf3a
00000050: a5c4 683a b86d 193b 05a3 da3a bc17 6d3a
00000060: 2670 023a 17f0 053b 2ac0 0d3b 4228 3e3a
00000070: 9588 143a 8303 3a3b 4223 1d3a 7b4d df3a
00000080: 941f 283b 9568 293b 986a 353b bddc 723a
00000090: c281 4339 e42a 2e3a 9eef 9f3a d814 2538
000000a0: ab4c 323b f639 273b 076b 3a3b 8770 063b
000000b0: 19bc b93a aaf7 6239 8d4d 8b3a a7bd 3b3b
000000c0: 1311 e939 5558 963a dfb9 b03a 3060 9a3a
000000d0: dc3d 013b dd5b 3c3b 9a78 793a 10e6 9d3a
000000e0: 0add 1b3b e751 c53a 4152 5e39 232e d23a
000000f0: 4421 933a b935 2a3a 58fe ae3a d43c 803a
00000100: a1bd 103a eb95 9239 e7cd 7a3a 3c95 cb3a
00000110: 2ec7 aa3a 6f77 d638 b261 5b3a e193 8f3a
00000120: 15a4 a93a f195 443a 31e8 a33a 8934 153b
00000130: 6eb6 3b3b 6df6 ee3a 311a 373b 0b44 2a3b
00000140: 5137 073b 9ad2 d73a 4af4 3a3b 7dd0 923a
00000150: 6188 c23a 167f 103a 72ea 293b 1c17 ad39
00000160: 25bc cf3a 804f 6c3a 51e1 853a 9b12 0d3b
00000170: 878c e439 72a8 103b 249c e33a 7abb a03a
00000180: be03 3b3b 4db8 d939 9551 be3a 94b2 033b

q f4 [1, 100]
0.03217323 0.08314522 0.67347366 0.5302453 0.309682 0.5553892 0.32202968 0.9962669
0.72951484 0.8560023 0.33537576 0.5490469 1.0389011 0.32325542 1.1043714 0.5364534
0.5886825 0.6450801 0.84944504 0.020632697 0.12967734 0.06388406 0.0695334 0.8069794
0.81214756 2.6140068 0.00027696157 0.9237321 0.91041344 0.15876873 0.55376804 1.0156747
0.2861741 0.74369323 0.0110157 0.4777355 0.80398226 0.26055068 0.4270414 0.031899687
0.75426537 0.27002275 0.5507229 0.05564346 0.49772447 0.14906263 0.017044544 0.056783557
0.8638936 0.051003337 0.47229874 0.7944037 0.5880365 0.35201627 0.6027414 0.12693322
0.7124241 0.009598076 0.013969243 0.7224311 0.9355456 0.9158174 0.22326958 0.20060623
0.09801382 0.8353306 0.73557734 0.48547548 0.85674167 0.1504085 0.79185873 0.48477226
0.9464805 0.39273405 0.5683819 0.55010396 0.23019129 0.88529515 0.17587972 0.033760905
0.8748876 0.74274904 0.9023628 0.30853808 0.16471821 0.6132038 0.2639776 0.800029
0.54685855 0.47599727 0.7457283 0.82832056 0.8363055 0.49301696 0.37220424 0.15482473
0.63535017 0.61306816 0.7601337 0.78610355
00000000: 14c8 033d 0b48 aa3d c568 2c3f 28be 073f
00000010: a48e 9e3e fd2d 0e3f 13e1 a43e 590b 7f3f
00000020: 7cc1 3a3f f722 5b3f 5fb6 ab3e 568e 0c3f
00000030: b6fa 843f bc81 a53e 0b5c 8d3f 0355 093f
00000040: e5b3 163f f823 253f 3b75 593f e705 a93c
00000050: 23ca 043e a5d5 823d 8767 8e3d 3496 4e3f
00000060: e7e8 4f3f e34b 2740 2735 9139 b579 6c3f
00000070: db10 693f 4594 223e bec3 0d3f a101 823f
00000080: 6985 923e ae62 3e3f 327b 343c bf99 f43e
00000090: c8d1 4d3f e666 853e 2ca5 da3e 3fa9 023d
000000a0: 8917 413f 6c40 8a3e 2dfc 0c3f 66ea 633d
000000b0: bed5 fe3e e0a3 183e 00a1 8b3c e095 683d
000000c0: 2228 5d3f e0e8 503d 24d1 f13e 0a5e 4b3f
000000d0: 8f89 163f 7a3b b43e 434d 1a3f c8fa 013e
000000e0: 6d61 363f 4041 1d3c 40df 643c 3ff1 383f
000000f0: eb7f 6f3f 0273 6a3f c8a0 643e b86b 4d3e
00000100: 78bb c83d 3ad8 553f cc4e 3c3f 3e90 f83e
00000110: 6c53 5b3f b004 1a3e 41b7 4a3f 1234 f83e
00000120: 8c4c 723f 7014 c93e 7a81 113f 9dd3 0c3f
00000130: 44b7 6b3e b4a2 623f d019 343e e048 0a3d
00000140: a2f8 5f3f cd24 3e3f 4001 673f b4f8 9d3e
00000150: e4ab 283e edfa 1c3f 1228 873e b3ce 4c3f
00000160: ecfe 0b3f eab5 f33e 0de8 3e3f d10c 543f
00000170: 1e18 563f b86c fc3e 8e91 be3e 608a 1e3e
00000180: 4fa6 223f 09f2 1c3f 1f98 423f 153e 493f

z f4 [1, 100]
0.042951643 0.59464765 0.9979388 0.28077072 0.25633705 0.033422172 0.63809973 0.82845145
0.3856126 0.8334991 0.9423093 0.46920127 0.058856487 0.21339023 0.21687055 0.02975136
0.3395797 0.6859854 0.26963323 0.3488543 0.16133755 0.08479047 0.7015026 0.7485519
0.54712987 0.83661884 0.41965216 0.09620768 0.27346396 0.7937888 0.83325416 0.38002747
0.808583 0.5817986 0.18717843 0.95281243 0.5681603 0.66018397 0.024293005 0.3650316
0.27018028 0.95916057 0.7043901 0.11881077 0.9626194 0.833346 0.6937037 0.9215823
0.1715802 0.6782544 0.092858076 0.31001467 0.43167138 0.71072245 0.68955666 0.052671194
0.2569943 0.04977399 0.26536584 0.80511326 0.5968299 0.65785277 0.4705456 0.76803476
0.07675928 0.6658345 0.5036105 0.13155603 0.95003545 0.3920589 0.9219227 0.7612395
0.41540223 0.24438822 0.80726236 0.88352007 0.84150416 0.6498638 0.82383037 0.8808328
0.4351318 0.3687948 0.012823343 0.5421063 0.21091157 0.57411236 0.12886935 0.66679996
0.33245653 0.58228177 0.5648375 0.9294554 0.47550952 0.2093218 0.7723574 0.2827602
0.5363835 0.19094604 0.19503099 0.7241571
00000000: 10ee 2f3d d43a 183f eb78 7f3f 2ec1 8f3e
00000010: 9c3e 833e b0e5 083d 815a 233f 6515 543f
00000020: 046f c53e 3260 553f 2f3b 713f 263b f03e
00000030: 8013 713d f882 5a3e 5013 5e3e 20b9 f33c
00000040: 64dd ad3e bd9c 2f3f 5e0d 8a3e 089d b23e
00000050: ac35 253e a0a6 ad3d ad95 333f 19a1 3f3f
00000060: b410 0c3f a72c 563f a6dc d63e 8808 c53d
00000070: 7803 8c3e be35 4b3f 2550 553f f692 c23e
00000080: 4cff 4e3f c1f0 143f b4ab 3f3e 84eb 733f
00000090: f472 113f d101 293f 2002 c73c 6ce5 ba3e
000000a0: 1255 8a3e 8c8b 753f e952 343f 1053 f33d
000000b0: 3a6e 763f 2a56 553f 9196 313f d1ec 6b3f
000000c0: b8b2 2f3e 15a2 2d3f 602c be3d 3eba 9e3e
000000d0: 0804 dd3e e8f1 353f c986 303f c0bd 573d
000000e0: c294 833e d0df 4b3d 08de 873e e71b 4e3f
000000f0: d8c9 183f 0a69 283f 5aeb f03e ed9d 443f
00000100: f833 9d3d 2174 2a3f 9eec 003f a0b6 063e
00000110: 8635 733f f2bb c83e 2003 6c3f 98e0 423f
00000120: 9aaf d43e e840 7a3e bfa8 4e3f 5f2e 623f
00000130: d16c 573f 795d 263f 8ce6 523f 427e 613f
00000140: 98c9 de3e acd2 bc3e 0019 523c 7ac7 0a3f
00000150: 34f9 573e 07f9 123f 54f6 033e 67b3 2a3f
00000160: be37 aa3e 6b10 153f 3199 103f caf0 6d3f
00000170: fc75 f33e 7458 563e 37b9 453f f2c5 903e
00000180: 6e50 093f 5c87 433e 34b6 473e 5c62 393f
