checkpoints/single-phase/123bus/safe-ddpg/policy_net_checkpoint_a11.pth (torch, 3103 bytes, 4 tensors)

b f4 [100]
0.0 0.0 0.0 0.0 0.0 0.0 0.0 0.0
0.0 0.0 0.0 0.0 0.0 0.0 0.0 0.0
0.0 0.0 0.0 0.0 0.0 0.0 0.0 0.0
0.0 0.0 0.0 0.0 0.0 0.0 0.0 0.0
0.0 0.07649331 0.008301741 0.011136538 0.0043024803 0.003088571 0.00078700547 0.00010602559
0.00046012437 0.0012120719 0.00093434606 0.00059658627 0.00013696996 0.0015817566 0.00077335606 0.00035631968
0.0001128634 0.000921972 0.0005472445 0.0004613009 0.0011037743 0.00019683984 4.1759038e-05 0.0008411706
0.0006942589 0.0014715806 0.00034597286 0.0002138677 0.0006031629 0.0012403528 0.0016042528 0.001044968
0.001583479 0.0009988402 0.0005821439 0.0003845015 0.0014183852 0.0002851004 0.0015828655 0.0011069216
0.0010514366 0.0005228248 0.00074179645 0.00042933057 0.00078238756 0.0011242734 0.0006115172 0.0012148938
0.0005214165 0.00051548454 0.0002179721 0.0011986166 0.0010302357 0.0005543074 0.00025418476 0.00027161307
0.00011658189 0.0011806107 0.0012500709 0.0007036492 0.0014160353 0.0005182829 0.0014115988 0.0005968278
0.00060204417 0.000106175365 0.0007230591 0.0006779907
00000000: 0000 0000 0000 0000 0000 0000 0000 0000
00000010: 0000 0000 0000 0000 0000 0000 0000 0000
00000020: 0000 0000 0000 0000 0000 0000 0000 0000
00000030: 0000 0000 0000 0000 0000 0000 0000 0000
00000040: 0000 0000 0000 0000 0000 0000 0000 0000
00000050: 0000 0000 0000 0000 0000 0000 0000 0000
00000060: 0000 0000 0000 0000 0000 0000 0000 0000
00000070: 0000 0000 0000 0000 0000 0000 0000 0000
00000080: 0000 0000 86a8 9c3d 0704 083c 0776 363c
00000090: d2fb 8c3b 9f69 4a3b 0b4f 4e3a 0e5a de38
000000a0: d93c f139 62de 9e3a e7ee 743a 3a64 1c3a
000000b0: 989f 0f39 f252 cf3a 0cbb 4a3a 6bd0 ba39
000000c0: 14b1 ec38 7eb0 713a f574 0f3a c2da f139
000000d0: 85ac 903a cb66 4e39 6d26 2f38 0182 5c3a
000000e0: edfe 353a 0de2 c03a b163 b539 ac41 6039
000000f0: 941d 1e3a 5593 a23a cb45 d23a 4ff7 883a
00000100: bd8c cf3a 84eb 823a 049b 183a eb96 c939
00000110: 1ce9 b93a 8779 9539 2778 cf3a 2016 913a
00000120: 5cd0 893a 2e0e 093a 1e75 423a c617 e139
00000130: 2419 4d3a 5b5c 933a 394e 203a 123d 9f3a
00000140: abaf 083a 9521 073a 718f 6439 e61a 9d3a
00000150: f908 873a f14e 113a 1a44 8539 4a67 8e39
00000160: 6d7d f438 b9be 9a3a 6bd9 a33a 1975 383a
00000170: 439a b93a 60dd 073a 6505 b93a 7074 1c3a
00000180: 80d2 1d3a 77aa de38 ad8b 3d3a 30bb 313a

c f4 [100]
0.001828365 0.0016203624 9.342658e-05 0.0017291557 0.002296536 0.0030531713 0.0030980567 0.0001272217
0.0029514933 0.002209872 0.00073949265 0.0028817046 0.0014538234 0.0029094876 0.002596041 0.0028469032
0.00026481232 0.0027586124 0.002500222 1.74891e-05 0.001534311 0.0014479415 0.0027839332 0.0030140523
2.6636942e-05 0.0027775131 0.0017462535 0.00047600621 0.00025989866 0.002631138 0.0007501792 0.002925731
0.0030231758 0.0011210619 0.0030153566 0.00028891666 0.0028712752 0.0004852193 0.0024486016 0.0015938344
0.0021826972 0.00061367505 0.0015725483 0.002182403 6.587449e-05 0.0005759338 0.001932432 0.000294398
0.002789678 0.0010647995 0.00081834634 3.5569734e-05 0.0020024353 0.0025422561 0.0029943187 0.0030958543
0.001115006 0.0006836925 0.00091578497 0.00062704727 0.0009610194 0.0011391157 0.0009153826 0.0010581916
0.00013859883 0.0027576839 0.0004218565 0.0019257292 0.00012586248 0.0012724175 0.0009045423 0.0011908965
0.00014929152 0.0026671446 0.0016760137 0.0007439593 0.0018071206 0.000103111764 0.00059342507 0.0024536499
0.0010447811 0.0017372231 0.0016756194 0.003082309 0.0006444494 0.0009641778 0.0007314031 0.0010135135
0.0026205613 0.0030205455 0.00013037339 0.00019193305 0.001387146 0.0010141197 0.00094594207 0.00042929046
0.00079217245 0.0014443872 0.0025815913 0.00024141457
00000000: c0a5 ef3a 5762 d43a 03ee c338 d6a4 e23a
00000010: 7b81 163b b717 483b c408 4b3b d166 0539
00000020: d76d 413b 80d3 103b 83da 413a fbda 3c3b
00000030: 388e be3a 1aad 3e3b 5722 2a3b 1c93 3a3b
00000040: 82d6 8a39 d6c9 343b c4da 233b 8eb5 9237
00000050: ef1a c93a dbc8 bd3a a672 363b 6887 453b
00000060: 6672 df37 f006 363b 8be2 e43a 7990 f939
00000070: 0243 8839 2c6f 2c3b ada7 443a 9fbd 3f3b
00000080: 7920 463b 98f0 923a 4a9d 453b bd79 9739
00000090: 012c 3c3b 0865 fe39 b878 203b 35e8 d03a
000000a0: 950b 0f3b 09df 203a f71d ce3a a606 0f3b
000000b0: 1926 8a38 43fa 163a a849 fd3a 6e59 9a39
000000c0: 08d3 363b be90 8b3a 4b86 563a b630 1538
000000d0: 4a3b 033b fb9b 263b 553c 443b d1e3 4a3b
000000e0: 6525 923a d439 333a 4a11 703a 6e60 243a
000000f0: ecec 7b3a 614e 953a 49f6 6f3a 05b3 8a3a
00000100: d754 1139 42ba 343b 9f2c dd39 c068 fc3a
00000110: f4f9 0339 3fc7 a63a ce1e 6d3a db17 9c3a
00000120: 238b 1c39 43cb 2e3b b0ad db3a 4306 433a
00000130: e8dc ec3a b53d d838 1590 1b3a 6acd 203b
00000140: 09f1 883a 89b3 e33a 75a0 db3a 9000 4a3b
00000150: 44f0 283a e0c0 7c3a a2bb 3f3a dfd7 843a
00000160: b9bd 2b3b 58f4 453b d7b4 0839 a341 4939
00000170: e5d0 b53a 36ec 843a 19f9 773a 6412 e139
00000180: cba9 4f3a 9851 bd3a ea2f 293b 3b24 7d39

q f4 [1, 100]
0.83036816 0.96628493 1.0223073 0.8610901 0.45233175 0.35652357 1.0013578 -7.08841e-40
0.606897 0.66965413 0.18508933 1.0109813 0.90902704 0.7645146 0.120447084 0.1801912
0.51493317 9.95414e-40 0.764133 0.38894838 0.60935676 0.7700265 0.039246954 0.35307506
0.42291355 1.077247 0.76583236 0.39994365 3.2137558e-38 0.68612164 3.3451938e-06 0.5947622
0.9121964 2.4440954 0.7049542 0.0049662106 0.920377 0.5088618 0.29488146 0.048185937
0.68729675 0.39664006 0.7955906 0.12500298 0.4032511 0.3347215 0.70143557 0.3767935
0.43901712 0.09534961 0.5524709 0.7158982 0.9661215 0.61816984 0.2646472 0.31934166
0.616435 0.34718186 0.37462085 0.9164753 0.5044487 0.4319669 0.7238924 0.18315339
0.05018103 0.21016467 0.57994777 0.14593506 0.5930327 0.8991785 0.01712364 0.6319652
0.2891975 0.024239182 0.7367268 0.7677733 0.5317994 0.0069906116 0.12356335 0.5732503
0.19032133 0.47692794 0.9556357 0.633113 0.036855042 0.28583908 0.97784305 0.10306847
0.6957071 0.5850177 0.30715734 0.4293567 0.863099 0.41460013 0.9185858 0.8001521
0.94934535 0.28811544 0.093924284 0.9314854
00000000: 0293 543f 735e 773f f7da 823f 6770 5c3f
00000010: 0798 e73e 428a b63e 7e2c 803f f6b7 0780
00000020: 9a5d 1b3f 746e 2b3f 0f88 3d3e d667 813f
00000030: ffb5 683f 3bb7 433f f6ac f63d 0b84 383e
00000040: a9d2 033f cfd6 0a00 389e 433f 3e24 c73e
00000050: cefe 1b3f 7520 453f 6ac1 203d 41c6 b43e
00000060: 2088 d83e 3be3 893f 970d 443f 6ac5 cc3e
00000070: 38f9 2e01 aba5 2f3f fe7d 6036 5642 183f
00000080: b485 693f 0f6c 1c40 e177 343f 98bb a23b
00000090: d49d 6b3f c444 023f b4fa 963e 9e5e 453d
000000a0: aef2 2f3f 6814 cb3e d3ab 4b3f c800 003e
000000b0: ee76 ce3e 9e60 ab3e 4891 333f 14eb c03e
000000c0: dac6 e03e a846 c33d bc6e 0d3f 1b45 373f
000000d0: bd53 773f 6140 1e3f d67f 873e c080 a33e
000000e0: afce 1d3f d2c1 b13e 4ece bf3e 209e 6a3f
000000f0: 8d23 013f c42a dd3e 0351 393f 908c 3b3e
00000100: a08a 4d3d 6835 573e 7577 143f 0070 153e
00000110: fed0 173f 9030 663f e046 8c3c 79c8 213f
00000120: b211 943e 4091 c63c 219a 3c3f ca8c 443f
00000130: 0124 083f 8011 e53b c80e fd3d 88c0 123f
00000140: 98e3 423e e62f f43e 8ba4 743f b213 223f
00000150: 50f5 163d 8059 923e ec53 7a3f 9015 d33d
00000160: dc19 323f b8c3 153f ba43 9d3e a4d4 db3e
00000170: 0ef4 5c3f 7846 d43e 7028 6b3f c5d6 4c3f
00000180: 4c08 733f de83 933e 605b c03d d475 6e3f

z f4 [1, 100]
0.5839837 0.34241998 0.12849385 0.7077763 0.5260727 0.650262 0.8117697 0.37951428
0.11946803 0.46567142 0.6606236 0.21641493 0.6184949 0.20183295 0.6253093 0.17097253
0.9669548 0.6071566 0.18001527 0.82499105 0.7538398 0.1311462 0.26999903 0.6863656
0.8439538 0.16154909 0.6464193 0.037257195 0.2202481 0.3099481 0.9910811 0.89419407
0.9600104 0.5419334 0.6498476 0.24642444 0.34407443 0.3159336 0.14180905 0.7326114
0.77551806 0.44100702 0.63508415 0.34897125 0.07697445 0.8014793 0.19612432 0.04864669
0.9263287 0.7591074 0.14535606 0.039737463 0.46455455 0.9235087 0.47117412 0.19216126
0.30082393 0.5481381 0.7770522 0.9039621 0.98190093 0.33663213 0.42735672 0.60832244
0.14406031 0.61765206 0.58990204 0.76117015 0.16972786 0.55898935 0.057020664 0.5164111
0.855542 0.39282173 0.13301754 0.10332924 0.8924892 0.78674024 0.5518804 0.06609416
0.87010264 0.7806895 0.4821977 0.9498011 0.00073981285 0.7449544 0.069000065 0.68626153
0.42122334 0.4210829 0.17167717 0.9920166 0.44058818 0.5269238 0.39914638 0.8106887
0.18060309 0.45954055 0.23763478 0.23506987
00000000: f57f 153f ac51 af3e e493 033e d430 353f
00000010: b3ac 063f 9277 263f 24d0 4f3f b24f c23e
00000020: a8ab f43d 7c6c ee3e a11e 293f e09b 5d3e
00000030: af55 1e3f 4cad 4e3e 4514 203f 6c13 2f3e
00000040: 5a8a 773f 9d6e 1b3f ec55 383e 9d32 533f
00000050: a5fb 403f 304b 063e 503d 8a3e a8b5 2f3f
00000060: 5b0d 583f 206d 253e bc7b 253f 009b 183d
00000070: b888 613e 84b1 9e3e 7eb7 7d3f e7e9 643f
00000080: 3ec3 753f 26bc 0a3f 6a5c 263f b056 7c3e
00000090: 862a b03e 0cc2 a13e 6436 113e 6c8c 3b3f
000000a0: 5a88 463f accb e13e e094 223f 5cac b23e
000000b0: c8a4 9d3d bf2d 4d3f d0d4 483e c041 473d
000000c0: e123 6d3f dd54 423f 38d8 143e c0c3 223d
000000d0: 18da ed3e 116b 6c3f bc3d f13e ecc5 443e
000000e0: 9805 9a3e c752 0c3f e5ec 463f 0f6a 673f
000000f0: dc5d 7b3f 0c5b ac3e 80ce da3e 05bb 1b3f
00000100: 8c84 133e 721e 1e3f d203 173f 0cdc 423f
00000110: 24cd 2d3e ed19 0f3f 808e 693d 8533 043f
00000120: cd04 5b3f ee1f c93e c035 083e 489e d33d
00000130: 2c7a 643f cf67 493f 0948 0d3f 605c 873d
00000140: 0cbf 5e3f 44db 473f 9ee2 f63e 2a26 733f
00000150: 00f0 413a 55b5 3e3f e84f 8d3d d6ae 2f3f
00000160: 96aa d73e 2e98 d73e 24cc 2f3e cdf4 7d3f
00000170: c694 e13e 7ae4 063f ea5c cc3e 4b89 4f3f
00000180: 04f0 383e e648 eb3e 8856 733e 28b6 703e
