checkpoints/single-phase/123bus/safe-ddpg/policy_net_checkpoint_a0.pth (torch, 3103 bytes, 4 tensors)

b f4 [100]
000000 00 00 00 00 00 00 00 00 00 00 00 00 00 00 00 00
       0.0 0.0 0.0 0.0
000010 00 00 00 00 00 00 00 00 00 00 00 00 00 00 00 00
       0.0 0.0 0.0 0.0
000020 00 00 00 00 00 00 00 00 00 00 00 00 00 00 00 00
       0.0 0.0 0.0 0.0
000030 00 00 00 00 00 00 00 00 00 00 00 00 00 00 00 00
       0.0 0.0 0.0 0.0
000040 00 00 00 00 00 00 00 00 00 00 00 00 00 00 00 00
       0.0 0.0 0.0 0.0
000050 00 00 00 00 00 00 00 00 00 00 00 00 00 00 00 00
       0.0 0.0 0.0 0.0
000060 00 00 00 00 00 00 00 00 00 00 00 00 00 00 00 00
       0.0 0.0 0.0 0.0
000070 00 00 00 00 00 00 00 00 00 00 00 00 00 00 00 00
       0.0 0.0 0.0 0.0
000080 00 00 00 00 00 00 00 00 00 00 00 00 00 00 00 00
       0.0 0.0 0.0 0.0
000090 00 00 00 00 f7 94 a3 3d f2 37 ac 3b 5d c6 69 3b
       0.0 0.07987397 0.0052556926 0.0035671212
0000a0 ca 60 54 3a a8 ca 9e 3a 29 18 e5 3a 58 e3 00 3a
       0.0008101581 0.001211484 0.0017478514 0.00049166894
0000b0 ff 8e 03 3b 2b 2e 18 3a 86 0b 5d 36 b2 7c c5 3a
       0.0020074246 0.00058052194 3.2938274e-06 0.0015067069
0000c0 75 57 1f 3a 3b 88 80 3a 77 34 14 3a 9b 36 77 39
       0.0006078401 0.0009806225 0.000565357 0.00023576098
0000d0 c6 22 8e 3a 80 dc ee 3a 23 33 32 3a 21 83 f2 3a
       0.0010844104 0.0018223673 0.0006797781 0.0018502214
0000e0 f2 43 f7 3a ce 95 47 3a 00 68 2f 3a 72 6e fc 3a
       0.0018864854 0.000761357 0.00066912174 0.001925899
0000f0 5c 7c 89 39 6f 4c 55 39 7f c9 61 3a f2 36 4e 3a
       0.0002622333 0.00020341737 0.0008613094 0.0007866464
000100 7d 23 f6 3a 40 91 53 38 c4 39 7b 3a a5 c7 c8 3a
       0.0018778887 5.0441595e-05 0.0009583498 0.0015318288
000110 99 33 1d 39 6a b6 ee 3a 42 9e b4 39 57 0d 91 39
       0.00014991908 0.0018212323 0.00034450187 0.00027666494
000120 b3 52 9c 3a 45 1a bf 3a 14 19 13 3a 53 b8 bd 3a
       0.0011926502 0.0014579972 0.0005611342 0.0014474489
000130 2f 92 cf 3a 77 21 ed 3a a4 0f b4 39 55 b0 f5 3a
       0.0015836413 0.0018091638 0.0003434393 0.0018744568
000140 c1 ca 42 3a e1 32 e5 3a 69 80 d4 3a d6 81 cf 3a
       0.00074307254 0.0017486477 0.0016212586 0.0015831541
000150 44 34 a3 39 b3 b2 98 3a 52 b0 82 3a 4f f3 c5 3a
       0.00031128724 0.0011649936 0.000997076 0.0015102419
000160 c1 ae b8 3a 52 38 c4 3a 2b c1 ad 39 1f a7 02 3a
       0.0014090167 0.0014970398 0.00033141053 0.00049840094
000170 e6 4f 17 3a a4 ea c4 3a 7c 42 91 3a 4f 19 96 39
       0.00057720987 0.0015023542 0.0011082436 0.00028629086
000180 fd fd e9 3a c0 08 9b 3a 1a 1e 89 39 41 66 bd 39
       0.0017852184 0.0011828169 0.00026153104 0.00036125074

c f4 [100]
000000 df 1c 78 3a 28 f0 36 38 b6 21 6f 3a 9d 19 16 3a
       0.00094647513 4.3615844e-05 0.000912215 0.00057258626
000010 a5 1f df 38 e9 32 97 3a 9f 40 eb 3a 62 c1 22 3a
       0.00010639363 0.0011535558 0.0017948336 0.0006208626
000020 93 fb ee 3a 9d 38 24 3b 6b aa 2d 3b 3e 6b be 3a
       0.0018232934 0.0025058158 0.0026499282 0.001452781
000030 36 4f 3b 3a 4f de cd 3a 60 8f f5 3a 9b 2f 04 3b
       0.0007145287 0.0015706512 0.0018734746 0.0020169977
000040 7f 25 90 39 c7 e6 13 3b 72 96 a8 3a ba 14 33 3a
       0.00027493757 0.0022567974 0.0012862219 0.00068313966
000050 2c b0 db 3a 96 fc c1 3a 99 9e 46 3a 7b c2 c7 3a
       0.0016760877 0.0014800008 0.00075767335 0.0015240455
000060 0e ce 1a 3b c8 20 d6 39 d4 ac d1 3a fc ac f9 3a
       0.0023621353 0.00040841685 0.0015996941 0.0019048746
000070 5f 17 1a 3b 67 a8 23 3b c7 de f8 3a ff 76 27 3b
       0.0023512465 0.0024972202 0.0018987291 0.0025553105
000080 26 bc f8 3a 15 dc e8 3a 72 31 23 3b a6 e4 fa 3a
       0.0018976971 0.0017765785 0.0024901298 0.0019141629
000090 87 49 7a 3a 09 aa c5 3a 2a 67 1e 3b 0c db 19 3b
       0.00095476996 0.0015080582 0.0024170377 0.002347651
0000a0 4a aa 95 3a 05 c3 0a 3b 90 20 b0 3a e1 74 54 3a
       0.0011418548 0.002117337 0.0013437439 0.00081045745
0000b0 91 6c 0e 3b ae 00 ef 3a df 4b 3b 3a 5e ae e7 3a
       0.002173219 0.0018234455 0.00071447896 0.0017675867
0000c0 7b bb b3 3a ef 8c 02 3a f3 95 a5 3a 96 15 03 3b
       0.001371249 0.0004980107 0.0012633189 0.002000188
0000d0 7b 19 29 3b 85 d2 b6 3a 94 68 5d 3a b3 50 9b 3a
       0.002580254 0.0013948238 0.00084460643 0.0011849612
0000e0 58 42 70 39 11 c8 ea 3a af 41 19 3b 4a a0 bd 3a
       0.00022912899 0.0017912408 0.0023385098 0.0014467326
0000f0 ae b1 22 3b 50 a2 b6 3a ac 0d 17 3b e8 47 14 3b
       0.0024825144 0.0013933871 0.002304892 0.0022625867
000100 70 b1 20 3b 4d 53 d6 3a 4a 36 82 39 57 e5 02 3b
       0.0024519823 0.001635173 0.0002483598 0.0019973123
000110 21 69 9f 39 74 81 d4 3a 37 30 d8 3a 76 7d a8 37
       0.0003040517 0.0016212896 0.0016493861 2.0085583e-05
000120 7d d4 fc 3a 5c 99 79 38 83 8a 29 3b 5f 90 e5 3a
       0.0019289401 5.9509053e-05 0.0025869913 0.0017514339
000130 2f cc 07 3b 2b 03 a1 3a 46 65 93 38 52 49 94 39
       0.0020721068 0.0012284269 7.02837e-05 0.00028283388
000140 6a f2 09 3b 9c 88 08 3a 9a f2 89 3a 13 e9 28 3b
       0.002104903 0.00052083447 0.0010524571 0.0025773689
000150 d7 5f 1d 3b fb 1f e0 3a 59 02 96 3a e9 c5 26 3b
       0.0024013424 0.0017099375 0.0011444791 0.0025447553
000160 1b 00 7c 3a 28 5a 1f 3b aa c9 f8 3a d3 ed f1 3a
       0.0009613053 0.0024315212 0.0018980999 0.0018457718
000170 e8 de 94 3a 7d 63 e6 3a 67 58 34 3a 6a 78 0f 3b
       0.0011357935 0.0017577257 0.0006879628 0.002189184
000180 dc 80 e2 39 e0 ba cf 38 9b c9 c6 3a 3a 97 11 3b
       0.00043202087 9.905337e-05 0.0015166284 0.0022215382

q f4 [1, 100]
000000 74 2c d3 3e bf c9 06 3f 39 4c 9f 3e 1e 70 4b 3f
       0.41244853 0.5265159 0.3111284 0.7946795
000010 2f cb 9b 3e 14 07 4c 3f c3 00 f2 3e 00 92 6a 3f
       0.30428454 0.796983 0.47266206 0.9162903
000020 d6 7c ac 3e 4a f4 1f 3f 7d 42 15 3d e0 ba 71 3f
       0.33688992 0.6248213 0.03644036 0.94425774
000030 fc 90 1d 3f dc 00 05 3f 16 3c 1c 3e 05 76 6f 3f
       0.61549354 0.51954436 0.15257296 0.9353946
000040 a0 80 c7 3e 6b 5f 36 3f 29 37 26 3f 04 78 72 3f
       0.3896532 0.71239346 0.6492792 0.9471438
000050 36 85 5e 3f 81 da aa 3e 57 61 75 3f f0 51 41 3e
       0.86922014 0.3336983 0.95851654 0.18878913
000060 9a 91 cf 3d fa 9d 6e 3f 97 04 8d 3d ee 04 32 3f
       0.10135193 0.93209803 0.06885641 0.6953877
000070 5c c3 dc 3e ca 64 40 3d e4 47 3f 3e 46 a1 36 3f
       0.43117797 0.04697112 0.18679768 0.71339834
000080 e2 36 00 3f 59 ae ed 3e f5 53 4b 3f 62 66 3d b9
       0.50083745 0.4642208 0.79424983 -0.00018062585
000090 e4 17 5c 3f 66 b5 23 40 d4 b8 45 3f 9f 7c 0d 3f
       0.85973954 2.5579467 0.7723515 0.5526828
0000a0 16 87 03 3f 3e b8 fa 3e 5c 7f 67 3e c4 27 8d 3e
       0.51378 0.4896869 0.22607177 0.275694
0000b0 00 e3 1b 3d 0f 74 7a 3f 6c b1 ed 3e c0 46 31 3e
       0.03805828 0.9783334 0.46424425 0.17312145
0000c0 11 17 0d 3f 85 64 41 3f 3c 74 95 3e 95 76 04 3f
       0.5511332 0.75544006 0.29190242 0.5174344
0000d0 cc eb 2a 3f ec d3 c7 3e b4 a7 66 3f e4 a3 76 3e
       0.6676605 0.3902887 0.90099645 0.24085957
0000e0 fa 13 c9 3e 7c 14 67 3f 5e f9 0f 3f cb a4 7e 3f
       0.39273053 0.9026563 0.5623988 0.99470204
0000f0 9c 9d 56 3f 7c 1b 01 3f ea 2e c1 3e 01 9d 31 3f
       0.8383424 0.5043256 0.37731105 0.69380194
000100 72 13 9e 3e 0c 94 06 3e 72 a2 b8 3e 90 3a 4e 3e
       0.3087421 0.13142413 0.36061436 0.20139527
000110 32 5f 4c 3f 9e 53 b2 3e 30 d8 8a 3d fb 3e 74 3f
       0.79832757 0.3482942 0.06779516 0.954086
000120 ea a4 8d 3e 0d 84 08 3f 20 98 77 3d 60 22 4b 3f
       0.27664882 0.53326494 0.060447812 0.7934933
000130 a5 07 00 3f 04 be 6b 3e 36 f6 bc 3e cc 23 a7 3e
       0.50011665 0.23021704 0.36906594 0.32644498
000140 60 50 6a 3e 3a 06 9a 3e f0 5b 94 3d ba 59 e8 3e
       0.22882223 0.30082875 0.07244098 0.45380956
000150 c4 93 3f 3f 20 06 cc 3e 10 67 a1 3d 10 50 8b 3e
       0.7483485 0.39848423 0.07880986 0.2720952
000160 9e bb a3 3e 0c 80 c3 3e f2 98 df 3e a6 d7 e4 3e
       0.31979078 0.3818363 0.43671376 0.44695777
000170 be 9d 5c 3f 80 70 af 3e c0 67 c9 3d 89 e8 5c 3f
       0.86178195 0.34265518 0.09834242 0.8629232
000180 82 29 1b 3f 43 ab 12 3f a0 b6 73 3f b0 13 c0 3e
       0.6061021 0.57292575 0.9520054 0.3751502

z f4 [1, 100]
000000 40 bd 76 3e 60 74 1d 3e f4 87 3d 3e 2b e8 5d 3f
       0.2409563 0.15376425 0.18508893 0.86682385
000010 a2 03 3a 3f 48 e9 b5 3d c5 c3 7c 3f 46 c8 ee 3e
       0.72661793 0.088823855 0.9873622 0.46637172
000020 17 4b 5a 3f a5 42 39 3f 7c d6 d1 3e 0f 33 6f 3f
       0.8527083 0.72367316 0.4098395 0.93437284
000030 e2 ec d0 3e c8 62 ba 3e 2b c1 37 3f 56 12 76 3f
       0.40805727 0.3640349 0.71779126 0.9612173
000040 08 47 5d 3f 40 59 21 3f 39 8e 40 3f 6c 4e e4 3e
       0.8643651 0.6302681 0.75217015 0.4459108
000050 aa 83 f1 3e 98 b9 02 3e a2 e3 ee 3e 6c d8 76 3f
       0.47170764 0.12766111 0.46658045 0.96423984
000060 f7 98 27 3f f6 66 8b 3e 74 98 5c 3e f9 dd 17 3f
       0.6546778 0.2722699 0.21542531 0.5932308
000070 6e ab 2d 3f a3 88 59 3f f2 ed 44 3f 96 51 2e 3f
       0.67839706 0.84974116 0.76925576 0.6809324
000080 e2 1b a8 3e a0 73 fc 3c d5 ca 2e 3f fa 1f f4 3e
       0.32833773 0.030816853 0.6827825 0.47680646
000090 a4 78 33 3e 9a 66 5d 3f de 6f b9 3e 20 45 03 3f
       0.1752649 0.8648468 0.3621816 0.5127735
0000a0 91 c9 34 3f 20 37 62 3d f8 c5 01 3e f5 3f 02 3f
       0.70620066 0.055228353 0.12673175 0.5087884
0000b0 d8 a4 6c 3e ed ff 4f 3f 98 f6 1d 3f 4f b8 11 3f
       0.23109758 0.81249887 0.617044 0.5692186
0000c0 9c 72 0c 3f d6 d4 7b 3f b2 82 93 3e 0c bd ea 3e
       0.5486238 0.98371637 0.2881065 0.45847356
0000d0 26 1c 22 3f c3 44 3d 3f 3a 8b 43 3f c0 3b c0 3e
       0.633242 0.7393305 0.7638432 0.37545586
0000e0 df 03 08 3f 2a 62 2a 3f 00 f0 aa 3e 72 0e e9 3e
       0.53130907 0.66556036 0.3338623 0.45518833
0000f0 c4 56 9c 3e 30 c4 cf 3e de d5 4a 3f a0 ff ed 3d
       0.30534947 0.40579367 0.79232585 0.11621022
000100 10 cc 17 3e a5 d8 75 3f a8 27 51 3f af 80 3b 3f
       0.14823937 0.960337 0.81701136 0.7324323
000110 ba e1 b8 3e 70 0e 23 3d 66 16 a7 3e a8 a6 ea 3d
       0.36109716 0.03980869 0.32634276 0.114575684
000120 d8 3c a7 3d fc f3 69 3f 95 ab 10 3f f8 e3 bf 3d
       0.08165902 0.91387916 0.56511813 0.093696535
000130 de 1d 01 3f 17 c0 37 3f b5 bf 3d 3f d2 64 1b 3f
       0.504362 0.7177748 0.74120647 0.60700715
000140 5f e4 11 3f b8 5f 05 3e c4 33 62 3f 4e ac c6 3e
       0.5698909 0.13024795 0.8836024 0.38803333
000150 49 b6 35 3f 2c 7f 01 3e 92 58 20 3f 01 4e 77 3f
       0.7098127 0.12646168 0.6263515 0.966034
000160 70 cc 01 3f a7 c9 3f 3f 23 53 60 3f da a4 3a 3f
       0.5070257 0.7491707 0.87626857 0.72907794
000170 a6 c6 aa 3e 52 14 66 3f 38 5c 5b 3f 84 dc 08 3e
       0.33354682 0.89874756 0.8568759 0.1336537
000180 88 90 8e 3e 90 fc 7f 3d 2b bd 6b 3f d4 e4 6c 3e
       0.27844644 0.06249672 0.9208552 0.23134166
