checkpoints/three-phase/13bus3p/ddpg/policy_net_checkpoint_a7.pth (torch, 43735 bytes, 5 tensors)

linear1.weight f4 [100, 1]
00000000: 1d8b 06bd 49c1 583f f1e0 9f3e d4f7 8bbe
00000010: dd22 3a3f 6e7a 67bf dcbe 86be 5424 7b3f
00000020: 9ed0 17bf 50d5 e73d 4821 8fbe 217e c03e
00000030: 7aaa 9e3e 316a d4be be76 833f e881 4dbe
00000040: f1cc 853f 28e6 a93d 22f1 4abf 8af7 0abf
00000050: 8898 363f cee4 873f a02e cbbd 4068 823d
00000060: 14bf 6ebf 7912 3fbd e935 5a3e 9038 78be
00000070: 5d75 053d d846 473e 2077 9a3d 52fa 9ebe
00000080: 99bf 77be 51fb 5a3f 6164 e53e a89d 5d3f
00000090: 54c9 d1be a7a1 713d e3e8 15bf eb13 293f
000000a0: 43bc 91be 5ac3 77bf e40e 843f 00fb 523c
000000b0: 3512 453e 4b36 3abf 74a1 dc3e aad4 2abf
000000c0: 90c8 35bf 5652 bcbd 9e4f 10bf cc0e 12bf
000000d0: 8089 b03c f846 a6be cf66 803f ed40 4cbe
000000e0: b0d5 02bf 816b 133f 18a0 b0be 9e93 043d
000000f0: 6d54 003e 5291 23bf c8be f9be 983d 07be
00000100: bac1 263f 7086 773f 6038 233e 973f 723f
00000110: da14 573f 1e38 b5be ed96 1d3f 42c6 13bf
00000120: d6db 3dbe 38e6 67be a96e e0be f779 84be
00000130: b33e fc3d 902e 353f f4b9 7ebf 90ac e3be
00000140: 461e 353f 6c3b 563f d023 e33e 19ef 2b3f
00000150: 9128 3abf cc30 d6be cebe 843f 3c53 e93e
00000160: c43c b2be 285c 75be e30c 6d3f f8f0 4bbe
00000170: 93d4 813e 98d6 31bf 0955 353f 5984 8dbd
00000180: cc10 203f e819 5e3f 7a89 96bc 2355 223e
-0.032847513 0.8466993 0.31226304 -0.27337515 0.7270945 -0.9042119 -0.2631749 0.9810231
-0.593027 0.11319983 -0.2795508 0.3759623 0.30989438 -0.41487268 1.0270612 -0.20069087
1.0453168 0.08295852 -0.7927419 -0.54283965 0.71326494 1.0616701 -0.099210024 0.0636754
-0.9326031 -0.046648476 0.21309628 -0.24240327 0.03258263 0.19460618 0.075422525 -0.31050354
-0.24194182 0.8553973 0.44803146 0.8656869 -0.40973914 0.058992054 -0.5855848 0.6604602
-0.28463945 -0.9678246 1.0317044 0.012877226 0.19245227 -0.72739094 0.4309193 -0.6673075
-0.7100916 -0.09195392 -0.56371486 -0.5705383 0.02154994 -0.3247602 1.0031375 -0.19946642
-0.5110731 0.5758591 -0.34497142 0.03236734 0.12532206 -0.63893616 -0.48778367 -0.1320709
0.65139353 0.9668951 0.15939474 0.9462828 0.8401619 -0.35394377 0.6155842 -0.5772439
-0.18540892 -0.22646415 -0.43834427 -0.25874302 0.123166464 0.70774174 -0.9950249 -0.44467592
0.7074932 0.8368442 0.4436326 0.6716171 -0.7271815 -0.41834104 1.0370729 0.45571315
-0.34811985 -0.23960936 0.9259779 -0.19916141 0.25357494 -0.6946807 0.7083288 -0.06910009
0.6252563 0.8675828 -0.0183761 0.1585279

linear1.bias f4 [100]
00000000: d6d4 483f fadc 7c3e f044 d8bb 1414 48bf
00000010: 7953 2d3f a3f1 353f 20c9 62be d918 5a3e
00000020: 909f 793e e2f4 13bf 806f 07be 68ae 303f
00000030: 3e78 743f f774 5a3f f8d4 63be 9cd3 6ebf
00000040: be2c 9ebe 870d 053f c668 05bf 0a46 2abf
00000050: c1e8 18bf 7739 3c3f d380 5d3f b250 2ebf
00000060: 7c56 5bbf 1be5 f83e fb9a 4e3e c010 d63c
00000070: 82b8 c03e 6051 46bf 300e 76be 809b b33e
00000080: 9e2e 7a3f 14ac 37bf f423 e73e b50b 47be
00000090: e0bb fdbd c281 ed3e c84f 553f 3f51 e3be
000000a0: cda9 943e 24c5 e43e e448 24be 1826 d0be
000000b0: d797 513f 6518 833f 84c2 4bbf f86b 1c3e
000000c0: e0b9 f33e 49b6 1b3f 0c66 59bf ecd2 68bf
000000d0: b0bc 29bf 7246 22bf 44f4 243f e920 423f
000000e0: a816 17bf 84dd 753f 2c5a 8dbe 19da 1c3f
000000f0: c15b 3a3f 8c50 a63e b09c 5abf 3819 48be
00000100: f10e f1be 689c 35bf e0b8 13bf c368 173f
00000110: 72a5 1bbf bc41 363f a3fe e2be 4ca7 1ebf
00000120: b526 003f c629 22bf 5c8e 203f 1cfe a23e
00000130: 4bad 593f 36b4 163f c0c0 70be 5e60 13bf
00000140: 19aa 7f3f cda9 193f 1261 23bf 663f 1a3e
00000150: eb17 623f 803c 033d fadc 4f3f 490c b0be
00000160: 807f c63c e00f 73bf 099b 2cbf d084 aebd
00000170: bf8c f7bd 8cf6 34bf 2b7f 673f 501e 823f
00000180: 0427 143f 83e5 c7bd 96d5 7b3f 7c3f 0c3d
0.7844976 0.24693671 -0.006600015 -0.78155637 0.67705494 0.71071833 -0.22147036 0.21298541
0.24377275 -0.57795537 -0.13226128 0.6901612 0.95495975 0.85334724 -0.2224921 -0.9329164
-0.3089351 0.51973766 -0.52112997 -0.6651312 -0.59730154 0.73525184 0.86524695 -0.6809188
-0.8567884 0.48612294 0.20176308 0.026131034 0.37640768 -0.7746792 -0.2402885 0.35079575
0.9772738 -0.71746945 0.45144618 -0.1943806 -0.1238935 0.4638806 0.8332486 -0.44397923
0.29035798 0.44681656 -0.1604343 -0.40654063 0.81872314 1.024182 -0.7959368 0.15275562
0.4760275 0.6082502 -0.84921336 -0.9094684 -0.6630354 -0.6338874 0.6443522 0.75831467
-0.59018946 0.9604113 -0.27607858 0.6127029 0.72796255 0.32483327 -0.85395336 -0.1954087
-0.47081712 -0.7094178 -0.5770397 0.5914423 -0.60799325 0.7119405 -0.44334897 -0.61974025
0.5005906 -0.6334499 0.62717223 0.31834495 0.8503005 0.5886873 -0.23511028 -0.5756892
0.99868923 0.6002472 -0.6381999 0.15063247 0.88317746 0.03204012 0.8119656 -0.34384373
0.024230719 -0.949461 -0.67424065 -0.08521426 -0.12087392 -0.706887 0.9042842 1.0165501
0.57872033 -0.09760573 0.9837278 0.03424023

linear2.weight f4 [100, 100]
00000000: f7c9 3abd fdc7 c73d 6507 9cbd e7bf 023c
00000010: 68ad 95bd c0d8 0fbc 2707 02bd 0068 d03c
00000020: 9a24 17bc 07cf 01bd 7ada b23c f580 b0bd
00000030: c3f2 1bbd d39a aa3c c7bf f6bc e77a 58bc
00000040: c78e 8abd 3352 993d 104c 743d 93a6 e63c
00000050: 6013 75bd fa29 82bc 0098 01bd b7aa 1f3d
00000060: a59f a6bd 5bfd b93d 48f7 94bd f735 0b3d
00000070: 4084 b0bc 6742 313a 4d78 203d 001c e0ba
00000080: 9acc 64bc d3ae 80bd e77b 833b 8030 afbb
00000090: 5ab5 b63d 9082 c0bd 5f7b babd 9d37 08bd
000000a0: 9acc c83b 8395 353d f732 8bbd 8d5e 113d
000000b0: 3db8 6ebd ba82 9fbd da64 b33c 3051 02bd
000000c0: bd2f 673d 0018 1bbd 331f 0c3c 420f 8cbd
000000d0: 9a89 5fb9 5318 53bd 9a59 49bc a22c bc3d
000000e0: a7b2 9abc ea24 07bd 67bd 40bd 7a14 6fbd
000000f0: eaed 48bd 6006 c63c 80ec 773c a2b9 ccbd
00000100: 7d31 023d 0a82 29bd e320 b53d 33be 5e3b
00000110: b704 013d f3c6 1abc e763 34bc 0a59 a5bd
00000120: 13cd a4bc cdd7 913b ea55 a53d 90d0 c1bd
00000130: 40e3 583d 1a81 1bbd ba5d c03c 63cc 323d
00000140: 0014 80bd cdc0 2dbb 1ab5 4dbd 6773 ed3b
00000150: 9060 153d 3325 203b 6745 19bb 9ab3 643c
00000160: 3d74 103d e724 f5bb da8d 893c 9a4c 17bc
00000170: 9af9 633b 90f2 47bd b3cd 583d 8fd3 b23d
00000180: 73ff 9d3d 5a77 19bd 735f 7d3c b3f6 123d
00000190: ce4b 8dbc 545c 753d b371 353d 0080 c03c
000001a0: a4c1 7b3d d816 373f ed50 90bc d434 b8bd
000001b0: 3324 eebb e7d2 cabd e337 1b3d 1735 953d
000001c0: 1584 c83c 3f3c 133c 986a 76bd 3383 2cba
000001d0: 885b 5ebd 2bf6 d43d e755 3e3c 334b aa3c
000001e0: e617 4fbf f912 08bc d8ef 663d 27e2 d9bc
000001f0: 5dcf 00bd d1e2 013d 7824 86bd cf48 b9bd
00000200: 7ed5 35bc 3308 3dbd 550e 893d b49d a9bd
00000210: 183a e43d 0f15 1dbf 1e68 cabc cdb2 893c
00000220: c5ca a13d 3603 a43d 0925 173d 12c3 ca3d
00000230: 65bf 4c3f d3f2 b03c c69f cbbc b3df b8bc
00000240: 7f52 25bd 4863 973d 6077 a83d bbde ca3d
00000250: da15 dfbc 7e5f 1dbd 400c 53bd 42c0 a0bd
00000260: 9282 8d3d 9a80 80bb 9d75 28bd e382 033e
00000270: d7b4 213d 6999 233d 9780 753d 5963 f63d
00000280: bd06 6b3d f760 033d e5be 923d 006a a8bb
00000290: 0e8d 413d a1ef 1bbd 1a9a a73c f065 59bd
000002a0: 07be d53d 2a2f 29bc 1597 59bd 4f91 c8bd
000002b0: a653 e03d bd91 2bbd 33f1 eebc 7547 323d
000002c0: 75a4 f7bb bde5 97bd 0751 cd3c d3a4 b7bd
000002d0: 622e 733d 511f 833d d31a e1bc 575f c1bd
000002e0: ac77 bfbd cfec 98bd 1309 193d abeb f93d
000002f0: 7a9f dc3c 7d5c 79bd 9032 423d 670a 4cbc
00000300: 6441 513d 737c 553c fefc c53d 225e 3dbc
00000310: 9fb7 c83d 14cd f0bd d1a1 1a3d ec4e 3d3d
00000320: cd86 8a3a 58dc b1bd 9f5b 853d e0b6 4cbd
00000330: 27ef fcbc 8a98 1b3d 9af5 623a 6ff9 c13d
00000340: e7d7 b5bc 7395 c83d 2302 8abd fa28 64bd
00000350: 3ba3 9abd 9a91 4c3b e08a 69bd 2a48 a6bd
00000360: 7d44 b93d 9352 84bd f3a8 ed3c 50df 3e3d
00000370: 8f65 88bd 0b77 c1bd c2b7 b3bd 7d22 a53d
00000380: 87fc 303d 8812 9abd ed85 b73d 7376 9cbc
00000390: 9a24 833d 5a80 c83d 6da3 e83c 332f 3bbc
000003a0: 0259 85bd 9383 e63c db24 c23d dac4 6f3c
000003b0: 1d5b 403d a071 28bd 9a6d 9bba c343 203d
000003c0: 0031 713b 4d37 14bc 62ac 82bd fa2d b5bd
000003d0: 73cf a5bc 4f7d 86bd 8dcd 863c dd77 523d
000003e0: 0b21 82bd 38dc c0bd 67e2 14bc 0db7 4abc
000003f0: 20ba 363d 1a56 dc3b b301 843c 67a1 8c3c
-0.045602765 0.097549416 -0.07618598 0.007980323 -0.07308465 -0.008779705 -0.031745102 0.025440216
-0.009225035 -0.031691577 0.021832693 -0.086183466 -0.038073312 0.020825779 -0.030120743 -0.013212896
-0.06765514 0.074863814 0.05964285 0.0281556 -0.05983293 -0.015889157 -0.0316391 0.038981166
-0.081359185 0.09081527 -0.07273728 0.03398701 -0.021547437 0.0006761909 0.039177228 -0.0017098188
-0.013964796 -0.06283345 0.004012573 -0.005346358 0.08921309 -0.09399903 -0.091055624 -0.033256162
0.006127906 0.04433204 -0.0679683 0.03549056 -0.058281172 -0.07788606 0.021898676 -0.031815708
0.05644201 -0.037864685 0.00855236 -0.06838848 -0.00021318198 -0.05153687 -0.012289429 0.091882005
-0.018884016 -0.03299419 -0.04705563 -0.058369137 -0.049055018 0.024172962 0.01513207 -0.09996344
0.031785477 -0.04138378 0.08844163 0.003398788 0.031498637 -0.009446847 -0.011010147 -0.080736235
-0.020117318 0.0044507743 0.080730274 -0.09463608 0.052951097 -0.037964918 0.023482192 0.04365195
-0.06253815 -0.0026512623 -0.05022154 0.007246423 0.036469042 0.0024436235 -0.0023387314 0.013958836
0.035267103 -0.0074812057 0.016791273 -0.009234572 0.0034786225 -0.04881531 0.052930545 0.08731758
0.07714739 -0.03746734 0.015464651 0.035879802 -0.01724806 0.059902504 0.044297885 0.023498535
0.061463967 0.7151923 -0.017616713 -0.08994451 -0.007267499 -0.09903508 0.037895095 0.07285517
0.024477044 0.008986532 -0.06016025 -0.00065808295 -0.05428651 0.10398515 0.01161716 0.02078781
-0.8089584 -0.008305305 0.056381077 -0.026597096 -0.031447757 0.03171045 -0.065499246 -0.0904709
-0.011098264 -0.046150398 0.06692187 -0.082820326 0.11143893 -0.6136026 -0.02470785 0.016808892
0.07900003 0.08008425 0.036900554 0.09900488 0.79979545 0.021600163 -0.02485646 -0.022567606
-0.040361878 0.07391983 0.08225894 0.09905764 -0.0272321 -0.038421147 -0.051525354 -0.0784917
0.0690967 -0.0039215805 -0.04112779 0.12842898 0.039479103 0.039941225 0.059937086 0.12030668
0.057379473 0.032074895 0.071653165 -0.0051395893 0.04725366 -0.038070325 0.020459224 -0.05307573
0.104366355 -0.010326186 -0.0531226 -0.097933404 0.10953455 -0.041887034 -0.029167747 0.043525178
-0.0075574466 -0.07416866 0.02506305 -0.089669846 0.059370406 0.064024575 -0.027478611 -0.09442013
-0.093489975 -0.07467043 0.03736217 0.12203153 0.026931513 -0.06087922 0.0474115 -0.012453652
0.051087752 0.013030159 0.09667395 -0.011558088 0.09800648 -0.117578655 0.037751976 0.046217844
0.0010568738 -0.08684605 0.06511616 -0.04997909 -0.030875755 0.03798727 0.00086578133 0.09471404
-0.022197677 0.0979413 -0.06738689 -0.05570314 -0.07550665 0.0031214715 -0.057017207 -0.08119233
0.09046266 -0.06461062 0.029011225 0.046599686 -0.06659996 -0.09446534 -0.087752834 0.08063219
0.04320958 -0.07523066 0.08961091 -0.01909945 0.064034656 0.09790106 0.02839824 -0.011424827
-0.065111175 0.028138911 0.09479686 0.014634335 0.046961892 -0.041123986 -0.0011858225 0.039127123
0.0036802888 -0.009046388 -0.06380536 -0.0884666 -0.020240521 -0.065668695 0.016455436 0.05138384
-0.06353959 -0.094170034 -0.009087182 -0.012372744 0.044611096 0.0067241313 0.016114092 0.017166806

linear2.bias f4 [100]
00000000: b33e 0fbd 19d3 17bd 3d00 463d 9c2d b63d
00000010: f381 d63d da7b ba3d 3d86 0fbd bd44 60bd
00000020: 535d ac3d 695c a73d f208 c7bd a521 bc3c
00000030: 7a53 203d 1e0a 923d e789 e6bb 5154 c93d
00000040: e12d 49bd 8dfa 02bc b886 923d d751 a33d
00000050: f820 fc3c 33e3 92b9 3a08 fb3c c73d 4d3d
00000060: f3d4 e8bc 8a50 31bd 9afe 073d bde1 003d
00000070: 3748 293d b86e c03d a7b7 e93c 436c ba3d
00000080: 26d5 51bd 4d28 86bb 284a 5c3d 3359 023e
00000090: e0a1 ae3c 29a5 a53d a589 3d3d 3316 35bb
000000a0: cfaa a23d a712 e63d ab53 c8bd 430f 423d
000000b0: 9cf7 01bd 9745 e0bc 47a8 e63c dea1 e43d
000000c0: c29d dd3d 7a53 90bd 2375 e53d a851 8abd
000000d0: 6ab0 b5bd fde7 403d 6639 b13d 0293 f3ba
000000e0: 6ed3 a03d 0dc1 33bd 8a8a abbd 34f7 703d
000000f0: fc9e 9fbd ed7f c93d 07f6 e13c 1339 acbc
00000100: 1768 81bd 3abf 913c ab77 a0bd f34d a6bd
00000110: ad6c 34bd 03a3 8fbd 4342 913d c7c9 b4bd
00000120: 331c abbc d6fd 843d f7eb 0bbd 35fb b3bd
00000130: 06bc 28bd 80c4 0abd a107 8d3d 0af3 b93d
00000140: 5c11 d53d 2daa d83d 8731 fc3d b38b 253c
00000150: d233 b3bd 912c e23d 0c5d c03b 2d2a 4fbd
00000160: b078 883d 67a0 b33a abb3 053d 9e5c c53c
00000170: 9e04 54bd 652f b5bd 8174 c03c eda2 e0bc
00000180: 6d30 e63c 85c2 743c e45d d73d ca18 9fbd
-0.034971904 -0.037066553 0.04834007 0.08895418 0.104740046 0.09105654 -0.03504013 -0.054753054
0.08416238 0.08171923 -0.09718503 0.022965262 0.03914211 0.07130836 -0.007035482 0.09830535
-0.04911602 -0.007994306 0.07154602 0.07974594 0.03077744 -0.00028016567 0.030643571 0.050107744
-0.028421855 -0.0432897 0.03320179 0.03146528 0.041328635 0.09396118 0.028529955 0.091026805
-0.051228665 -0.0040941597 0.05378166 0.1272934 0.021317422 0.080881424 0.046273846 -0.002763164
0.079427354 0.112340264 -0.097815834 0.047377836 -0.03173028 -0.027376933 0.028156413 0.11163686
0.108211055 -0.07047172 0.11203983 -0.06753856 -0.08871539 0.04709624 0.08653526 -0.001858324
0.07852827 -0.04388528 -0.083760336 0.0588295 -0.07793996 0.09838853 0.027583135 -0.021023309
-0.06318682 0.01779138 -0.07835325 -0.081203364 -0.044048954 -0.07013514 0.070927165 -0.088275485
-0.02088747 0.06493728 -0.03416058 -0.08788148 -0.041194938 -0.033878803 0.06886221 0.09079559
0.10403702 0.105793335 0.12314134 0.010104108 -0.08750118 0.110436566 0.005870467 -0.05057733
0.06663644 0.001370442 0.032642048 0.024092015 -0.051762216 -0.088469304 0.023493053 -0.027421439
0.028099263 0.014938955 0.10515955 -0.077684

linear3.weight f4 [1, 100]
00000000: cb37 e639 75fe d2bd f848 fd3a 489d ba3d
00000010: fb85 cbbd 068e 1abb 53d9 a3bd 5ad4 81ba
00000020: 0921 313b ff56 cbbd c172 f138 0fc1 9cbd
00000030: 7fc9 cfbd 0742 8d3d 33df 5e39 8464 f0bd
00000040: 700f b13d 7929 4c3a 586b 123b fcce aebd
00000050: ed38 bdbd 6ae0 203b f2b9 6fba 215b c6ba
00000060: 3143 08bb 5c27 9f38 4e13 b2ba 0f94 adba
00000070: abf8 d5b9 3eaa 9439 7834 a13a 0470 afbd
00000080: 3d83 22ba f80f 3eba a70c c5bd b423 babd
00000090: 75b2 fbbd f8af eebd d1e4 b9bd 1598 ad39
000000a0: 54a3 50b9 bbee 9e3e 2e90 8a3a 193c 08bb
000000b0: 0410 ddbd 6283 7f3d 39c2 a4ba c08b 96bd
000000c0: 840c 91bd 9cf8 1b3b 2926 a1bd feb4 7d39
000000d0: f97c b33a 5296 0ebb 63b1 dcbd f7a6 a7bd
000000e0: 0061 953d 63ca 0ebb 064c 9bba ff61 2f3d
000000f0: 9471 1dbe 684d 1ebb 1d52 1db9 0e87 d039
00000100: 7af1 b43a 26c6 c1bd 5c96 9fba 4e9e 7939
00000110: 82ec 993d 5c29 5839 0c16 69ba 0e81 11bb
00000120: 5417 abba f0b1 b2bd 8b80 0139 aafd f43a
00000130: 6203 a4bd 8169 963d f7b2 89bd d68d 103a
00000140: da47 3d3d da01 fcbd e6fd a4bd ff91 3c3b
00000150: 8145 1e3b 3b3b a2bd f8d1 973d 8b8d 00bb
00000160: c831 913d e291 e43a 228f 7a3d 78ea 3d3d
00000170: 568c bfbd 9ed3 d339 0f87 fe3d fab2 1d39
00000180: a20e dfbd 8c66 3ebb fcd0 c7bd 3f8e a1bd
0.00043910588 -0.1030244 0.0019324115 0.0911203 -0.09937664 -0.0023583188 -0.08000436 -0.0009905205
0.0027027747 -0.099287026 0.0001151315 -0.076540105 -0.10145854 0.06897359 0.00021254718 -0.11737922
0.086455226 0.00077881623 0.0022341814 -0.08535573 -0.09239373 0.0024547824 -0.00091448345 -0.001513336
-0.0020792002 7.589042e-05 -0.0013586076 -0.0013242977 -0.00040811798 0.000283556 0.0012298962 -0.08566287
-0.00061993656 -0.00072503043 -0.09621554 -0.09088841 -0.12289897 -0.11654657 -0.090768464 0.0003311044
-0.0001989727 0.31041512 0.0010571533 -0.0020787774 -0.1079407 0.062381156 -0.001257009 -0.07350874
-0.07082465 0.0023799306 -0.078686066 0.00024195385 0.0013693861 -0.0021757078 -0.10776021 -0.08186143
0.07293892 -0.0021788112 -0.0011848218 0.042818066 -0.15375358 -0.0024155024 -0.00015003276 0.00039773475
0.0013804876 -0.09461622 -0.0012175548 0.00023805464 0.075158134 0.00020614773 -0.000889153 -0.0022202167
-0.0013053217 -0.08725345 0.00012350285 0.001869132 -0.08008458 0.07344342 -0.06723588 0.0005514299
0.0462111 -0.12305041 -0.0805624 0.0028773544 0.0024150314 -0.079214536 0.07413095 -0.0019615616
0.07089573 0.0017438496 0.06117166 0.046366185 -0.09352939 0.00040402723 0.12428104 0.00015039361
-0.10891463 -0.0029052822 -0.097566575 -0.078884594
