checkpoints/three-phase/13bus3p/ddpg/policy_net_checkpoint_a0.pth (torch, 45271 bytes, 6 tensors)

linear1.weight f4 [100, 3]
000000 83 fc f6 be 78 6a 02 be c7 20 13 bf 2f 53 3e 3e
       -0.48239526 -0.12735927 -0.5747189 0.1858642
000010 33 23 be be 2b 61 3f 3e f7 34 21 3d f7 dd 04 3f
       -0.3713623 0.1868941 0.03935715 0.5190119
000020 99 f3 d6 3e cc 43 db 3d 26 ad ae 3e 8a 30 a2 be
       0.41982725 0.107062906 0.34116477 -0.31677657
000030 e7 b6 80 be 74 c7 fa be c1 71 2c 3e b9 a7 a7 be
       -0.25139543 -0.48980296 0.16840269 -0.3274515
000040 e2 a1 ca 3e 4d 44 0d bf 0d f5 e7 3e 1e 28 09 3f
       0.39576632 -0.55182344 0.45304146 0.5357684
000050 29 49 b8 be 49 68 ec be 58 b9 df 3e 5b dc 51 3d
       -0.35993317 -0.46173313 0.43696094 0.051235538
000060 50 11 72 bb 73 69 41 be 95 18 ed 3e e8 c1 21 3f
       -0.0036936589 -0.18887882 0.46307817 0.631865
000070 cb d4 d3 be bc 72 89 3e ab 89 02 3e 89 a4 0b bf
       -0.41373286 0.26845348 0.12747829 -0.54547936
000080 be b3 5f bd 24 69 0a 3e 36 76 46 be 35 60 ae 3c
       -0.054614775 0.1351667 -0.19381031 0.02128611
000090 42 d8 06 bf 57 a4 a4 3e 71 95 e2 3e ee 14 9a 3d
       -0.52673733 0.3215663 0.4425464 0.07523523
0000a0 a2 57 82 3d be f4 fd bd 8a c1 c9 bd 70 83 0c 3f
       0.06364371 -0.124001965 -0.09851368 0.5488806
0000b0 80 ef cb be d3 22 8e be ca ad 9f be 5a 56 4f 3e
       -0.39831161 -0.27760944 -0.31187278 0.20247784
0000c0 c7 61 4a 3e a7 7f c4 be 5a 86 06 3e 76 e9 89 3e
       0.19763862 -0.3837864 0.13137189 0.2693593
0000d0 82 28 81 3e fb 7a 08 3f 2d ee 0e 3f 1c e5 1b bf
       0.25226218 0.53312653 0.5583218 -0.6089647
0000e0 cb c1 15 3f 9c 0e 0c bf f6 d5 90 bb c5 44 81 3e
       0.5849883 -0.5470979 -0.0044200374 0.2524778
0000f0 9c 6f 2d 3e b7 04 08 bd b5 62 b0 3e df 9b 30 be
       0.16937107 -0.03320762 0.34450307 -0.1724696
000100 c8 7c 56 3e 7d 23 26 3f 14 aa b6 be c6 29 c5 be
       0.20946038 0.648979 -0.35676634 -0.38508433
000110 e0 48 33 3e 02 48 18 3e 56 92 d9 3e 51 32 7e bd
       0.17508268 0.14871219 0.42494458 -0.062059704
000120 87 81 09 be 47 c7 83 3e 71 82 19 3f 25 a3 37 bf
       -0.13428317 0.25737974 0.5996466 -0.71733314
000130 8c 8c bd 3e 3a ef db 3e 0c 20 e9 3d f5 56 44 bd
       0.3702129 0.42955953 0.113830656 -0.04793449
000140 29 6e 01 bf cc ab 81 3e d2 38 0f 3f 74 45 6d bd
       -0.50558716 0.25326383 0.55946076 -0.057927564
000150 17 13 d6 be 29 56 3e 3e 64 d6 0f bf a4 09 2b 3f
       -0.4181144 0.18587555 -0.5618651 0.66811585
000160 01 f8 cc be 20 ca 64 3d 44 66 78 3e 01 28 09 bf
       -0.40032962 0.055856824 0.24257761 -0.53576666
000170 13 30 9b 3e 0a ed 64 3e 1c e6 22 be 9d 5d ee 3d
       0.30310115 0.22356048 -0.15908092 0.11638949
000180 35 12 3a 3d 05 a9 99 be d6 f0 16 3f f8 3a 23 3f
       0.04542752 -0.30011764 0.58961236 0.63761854
000190 f3 38 10 3f d0 96 e1 bc 72 8b 03 3f b8 64 44 3e
       0.563369 -0.027537733 0.5138465 0.19179046
0001a0 2a 11 37 be 69 f7 e7 3e d3 b2 92 be 21 22 a3 3e
       -0.17877641 0.45305946 -0.28652057 0.31861976
0001b0 71 5d 1f 3f f7 e4 08 3f f3 b0 e5 be ef e4 0c 3f
       0.62251955 0.5347437 -0.44861564 0.55036825
0001c0 aa 1c 75 be 86 68 ba bd 7c bf 1a be 6d 13 5c bd
       -0.23936716 -0.091019675 -0.15112108 -0.053729463
0001d0 34 c8 22 bd e3 04 09 bf c8 6e cd be 9a f6 4b be
       -0.03974171 -0.5352308 -0.40123582 -0.1991829
0001e0 b1 b7 83 be bc 43 50 be 14 72 62 be cd 90 1f 3f
       -0.25726083 -0.20338339 -0.2211383 0.62330323
0001f0 d8 a1 13 3f 96 23 07 3d c4 73 10 bf 22 c7 1c be
       0.5766883 0.03299292 -0.56426644 -0.15310338
000200 e0 86 3d 3e e0 9a c1 be a3 5f 30 3e cb d0 b3 3e
       0.18508482 -0.37813473 0.17223983 0.35120234
000210 a8 eb 23 be 07 09 c0 3e ae 83 6f bd 5a e2 0e 3e
       -0.16007864 0.37506887 -0.05847519 0.13953534
000220 4a b3 f4 be 52 8f a6 be a7 9f ba be ce 79 b4 bd
       -0.47793037 -0.3253122 -0.3644993 -0.08812295
000230 be 98 5e 3e b6 d6 bf bd c9 0a 2b 3e 95 d8 f4 be
       0.21737954 -0.09367125 0.16703333 -0.4782149
000240 01 90 83 3e f3 1f 29 3f 2c d7 07 3e 5e 80 62 bd
       0.25695804 0.66064376 0.13265675 -0.0552982
000250 52 5a 7c 3e 5b db a3 be a2 b9 11 3d 87 43 13 bf
       0.2464383 -0.32003292 0.035577424 -0.57524914
000260 85 72 c7 be 23 76 0d 3f 36 db 07 bf a2 bb 85 3e
       -0.3895456 0.5525839 -0.53068864 0.26119715
000270 1a dc 18 be 77 4c 54 3e d5 54 32 3e 11 7d 7a bd
       -0.14927712 0.20732294 0.17415173 -0.06115443
000280 0c 89 c6 3e 60 44 c2 bd 7e 33 90 3e 4f 96 bc 3e
       0.38776433 -0.09485698 0.28164285 0.36833426
000290 34 57 bf be 89 33 12 bd 29 67 8a 3e d8 f6 01 3f
       -0.37371218 -0.03569368 0.2703183 0.5076728
0002a0 38 15 22 3a 1a f0 be be 44 cb eb 3e db ce 04 3e
       0.00061829714 -0.37292558 0.46053517 0.12969534
0002b0 a5 87 82 3c 4b ae 5a 3e 77 17 a8 be 82 0a ad be
       0.015933821 0.2135555 -0.32830402 -0.3379708
0002c0 6b 67 65 3e 05 26 5f 3e 7b 74 cf 3e 02 cb c1 be
       0.22402732 0.21791847 0.40518555 -0.37850195
0002d0 c8 0d b5 3e 58 d5 f3 be b2 14 d3 3d e4 a1 95 3d
       0.35362077 -0.47623706 0.10306682 0.07306269
0002e0 42 ec a0 be 0f 8c 91 bd 9a 5e 77 be f4 89 a1 3e
       -0.3143025 -0.07106792 -0.24157181 0.31550562
0002f0 18 ca 85 be 26 4b 33 3f 09 72 bf be 33 29 74 3e
       -0.26130748 0.7003654 -0.3739169 0.23843841
000300 89 f4 8a be c3 52 9d be 2b d6 6e be e7 b5 fe 3e
       -0.2713969 -0.30727205 -0.23323886 0.49748155
000310 d0 dd f0 3e d2 9a 6f 3e fe 0d 11 bf 38 5e e7 3c
       0.4704423 0.23398903 -0.56661975 0.02824317
000320 b6 b4 af 3d ea c0 93 3e 40 94 2a bd 14 28 0e 3f
       0.0857939 0.2885812 -0.04164529 0.55529904
000330 84 60 1c 3f 4f 27 80 be 7a 05 0e 3e f6 05 eb bd
       0.6108477 -0.2502999 0.13869277 -0.11475746
000340 17 00 80 be 3b 9e 4a 3d 3d d7 0b bf bc 53 8a 3e
       -0.2500007 0.049467307 -0.546253 0.2701701
000350 ae ea 6a bd 7f b5 82 bd 41 68 b6 3c 14 30 24 3f
       -0.057352714 -0.06382274 0.022266509 0.6413586
000360 a7 87 52 3e 2f 28 23 3e a0 90 72 be 8a 3c 7c be
       0.2055956 0.15933298 -0.23687983 -0.24632469
000370 fa d9 ee 3e 4d b5 17 3f 74 30 0e be a1 3a f2 3d
       0.46650678 0.5926102 -0.13885671 0.11827589
000380 93 4e c0 be a8 3b e2 bd b2 8d 82 3e bb e4 2e 3f
       -0.37559947 -0.11046535 0.2549873 0.68317765
000390 de fc 31 3f db fd f4 3e e6 cc fe be 56 50 83 be
       0.6952647 0.47849926 -0.497657 -0.2564723
0003a0 32 8f 02 bf f1 8d c2 3e 55 f8 0c bf 0f b4 7a 3e
       -0.5099975 0.37998918 -0.55066425 0.2448275
0003b0 f7 f6 50 be 0f be a1 3e d2 6a 9f 3e 52 84 c7 be
       -0.2040671 0.31590316 0.31136185 -0.3896814
0003c0 89 2d 87 be 57 12 89 bd 4f 2e b4 be 84 ff 01 bf
       -0.26401928 -0.06692951 -0.3519158 -0.5078051
0003d0 51 6e bc be b0 fa ee 3e 65 d9 f4 bd 08 c6 9e bd
       -0.36802915 0.46675634 -0.11955527 -0.07752615
0003e0 42 9b 35 3f b3 51 e7 be 92 37 b3 bd b1 d8 0d 3f
       0.7094003 -0.4517952 -0.087508336 0.5540877
0003f0 49 32 da 3e bf 89 85 be 02 20 7e be 26 59 e8 3d
       0.4261649 -0.26081654 -0.24816898 0.11345129

linear1.bias f4 [100]
000000 b3 f6 3e bd 6c 13 6e be 1b 19 07 bf ba 5b af be
       -0.04662199 -0.23249596 -0.5277268 -0.3424967
000010 70 9c d8 3d 77 0b ef be 68 6c b9 bd ca 6e 15 be
       0.10576713 -0.46688434 -0.0905388 -0.14593044
000020 a6 1b fa be f4 a5 20 3e 0b 55 c2 3e 3a af f2 3e
       -0.4884922 0.15688306 0.37955508 0.47399312
000030 52 3d 6d 3e 22 86 bb be 4b 62 ae be 2d f7 e1 3c
       0.23167923 -0.36625773 -0.34059367 0.027583683
000040 03 5c 00 3e a2 5d 69 3d e9 2b 9a be 95 55 0b 3f
       0.125351 0.05697406 -0.30111626 0.5442746
000050 3f 06 d8 be c3 3f ca 3e a1 37 9d 3e f1 9a 1a 3f
       -0.42192265 0.3950177 0.30706504 0.6039267
000060 88 4d 08 bf a9 d3 12 3f 10 f2 3d be 00 84 e6 3e
       -0.53243303 0.5735422 -0.18549371 0.45022583
000070 ed a8 05 3f 70 61 7c be f3 e8 1d 3f cd 9f 82 3e
       0.52210885 -0.24646544 0.6168358 0.25512543
000080 1a 19 a4 3d e8 1b 6e 3d a0 5d 50 be 69 71 31 be
       0.080126 0.058132082 -0.20348215 -0.17328419
000090 5e a4 9a be 7b b6 03 bf f9 f9 2e be 66 60 fd bd
       -0.30203527 -0.5145032 -0.17087545 -0.12371902
0000a0 07 6f 01 3f 29 70 86 3e 21 09 15 3e 12 ea f5 bd
       0.5056004 0.26257446 0.14554264 -0.12007536
0000b0 63 7a 1d 3e 72 b5 f6 be 02 c7 b5 bd 97 47 af 3d
       0.15378718 -0.48185307 -0.08875848 0.085585766
0000c0 5f d0 4d be 6b 4b ca be 08 79 d2 be 8a e3 22 be
       -0.20099019 -0.39510664 -0.41107965 -0.15907112
0000d0 bf 93 ce 3d 71 79 d6 be c3 cb cd 3e 53 cc b9 3d
       0.10086774 -0.41889527 0.4019452 0.09072175
0000e0 16 79 f9 3e 20 ce 98 bd ac 15 e6 3d cb de 4c be
       0.48725194 -0.0746119 0.11234602 -0.20006864
0000f0 41 6c 0c 3e 6b 61 57 be 1d 74 d2 3e 1b 74 83 bd
       0.1371317 -0.21033256 0.41104212 -0.0641863
000100 4b 99 0d bf 7f 59 40 be 4e 32 b7 bd de ca b8 bd
       -0.5531203 -0.1878414 -0.08945142 -0.09023069
000110 1d d5 c0 be 77 4a 86 be 4e bc f9 bb 7e 41 72 be
       -0.37662593 -0.26228687 -0.0076213246 -0.23657796
000120 93 5c 97 3e 8c f1 35 bd ee 9a 9b be 43 95 ff 3e
       0.29562816 -0.04441981 -0.3039164 0.49918565
000130 12 38 05 bf 0c 0e 8a 3e 07 01 c8 be 23 11 f2 bd
       -0.5203868 0.26963842 -0.39063284 -0.11819675
000140 b3 5d c6 be e6 a1 84 be 3f 12 ff 3e bf 6c 52 be
       -0.38743362 -0.2590477 0.49818608 -0.20549296
000150 cd 86 ba be 1e 1a da be da d1 99 be d5 fa 80 3e
       -0.3643097 -0.4259805 -0.30042917 0.2519137
000160 4f e1 f7 be b2 38 c6 bd 03 e4 ef bd ea 76 c5 3e
       -0.48414084 -0.096787825 -0.11713412 0.38567287
000170 66 00 ab 3e 69 43 cd be f1 77 76 3e 91 76 df be
       0.3339874 -0.40090492 0.24069192 -0.43645146
000180 90 73 83 3e 7f 75 e5 3e 32 43 2a 3f 51 99 28 3e
       0.25674105 0.44816205 0.6650878 0.16464736

linear2.weight f4 [100, 100]
000000 f3 a5 76 bc 00 18 60 3b 1d 2d 44 bd 8a 1b 11 3d
       -0.015054214 0.0034193993 -0.047894586 0.035426654
000010 73 30 e1 bc 8d cd c7 3d 43 a9 a9 bd 45 11 97 bd
       -0.027488923 0.097560026 -0.08284237 -0.07376341
000020 2a de 71 3d fd 04 33 3d 57 28 85 bd 27 67 c3 bc
       0.059049763 0.04370593 -0.06501835 -0.023852898
000030 e8 d2 9f 3d 8d b7 2e bd 67 db 50 3c e0 04 d9 3c
       0.07803899 -0.042655516 0.012747622 0.026491582
000040 f8 0d b1 bd 80 8a ce 3b cd 3b 05 bc 3f b2 89 3d
       -0.086452425 0.0063031316 -0.008131933 0.06723451
000050 93 aa 39 3d f3 e1 02 bc b5 2b a1 bd 27 c6 67 bc
       0.045328688 -0.007988441 -0.078696646 -0.014146364
000060 a0 95 45 3d 1a 2a d9 bc d7 77 5e 3d 93 67 4b 3d
       0.048238397 -0.026509333 0.054313507 0.049659323
000070 67 5a 76 bd 47 80 75 3d cd 6b 51 3d c0 49 1f bd
       -0.06014481 0.059936788 0.051128197 -0.038888693
000080 67 bc e7 3a ca 15 9c 3d c0 2d 89 bc 67 94 60 3b
       0.001768005 0.076213434 -0.016745448 0.0034268142
000090 cd 64 92 bc c7 6e a1 bd 50 35 c6 bd 57 db 76 bd
       -0.017870331 -0.07882457 -0.09678137 -0.060267773
0000a0 98 ce b4 3d 87 ce 27 bd 52 c0 89 3d 6d 2c 9f bd
       0.08828467 -0.040968444 0.06726135 -0.077721454
0000b0 43 04 2c 3d 1b 71 92 3d c7 aa 76 3d 2b 25 8b bd
       0.04199625 0.071504794 0.06022146 -0.067941986
0000c0 77 76 62 bd b0 0d 5b bd da 00 0c bc 80 77 8c 3b
       -0.055288758 -0.05347985 -0.008545125 0.0042867064
0000d0 18 18 c6 3d 93 40 2c bd 8d 94 02 bc eb b0 ae bd
       0.09672564 -0.04205377 -0.007969988 -0.08529838
0000e0 9a b3 2b 3b 82 16 bf bd 48 36 c1 bd d0 ab 00 3d
       0.002619958 -0.09330465 -0.094341815 0.031413853
0000f0 a0 41 7f bd cd 31 2f bb aa 36 8f 3d 07 8a 93 bd
       -0.062318444 -0.0026732564 0.06992848 -0.07204061
000100 8d 2d 54 bd 40 83 92 bd a7 e4 f6 3c 60 2c 13 3d
       -0.051801253 -0.0715394 0.030138327 0.03593099
000110 43 4e 9d bd 57 01 8e 3d 8d be 6d bc f2 0c 92 bd
       -0.07680943 0.06933849 -0.014510763 -0.07131375
000120 53 0b ed 3c ba 24 1b bd 9d 06 cb bd 9a 50 7b 3d
       0.028936064 -0.037876822 -0.09913371 0.061356165
000130 ea aa 24 bd 27 2b 24 3d 00 f3 14 3d 63 2e 11 bd
       -0.04020206 0.040080216 0.036364555 -0.03544463
000140 a5 ef 91 bd da 36 54 bd 5a 65 a2 bc 38 14 80 3d
       -0.07125787 -0.051810123 -0.019823719 0.062538564
000150 cd 0c 7a 3d 6b e4 be 3d e7 bf 07 3d 75 0d b0 3d
       0.061047364 0.09320911 0.033141997 0.08596317
000160 e7 10 58 3c 7d ac 39 3d e0 e7 c7 bc 93 6a 36 bd
       0.013187624 0.045330513 -0.024402559 -0.04453523
000170 27 60 81 3c 30 a2 a5 bd ca 71 aa 3d 87 fe 9e 3c
       0.01579292 -0.080875754 0.08322485 0.019408477
000180 67 47 38 3b b3 43 be bc 47 ae 7d 3d 43 2b 05 bd
       0.002811873 -0.02322564 0.061933782 -0.03251196
000190 0f db c1 3d 1d f5 17 3d da ac d5 3d a3 40 b4 3d
       0.0946561 0.037098993 0.104333594 0.08801391
0001a0 aa f6 34 bd 30 71 99 bd 56 c2 59 3d ba 68 30 3d
       -0.04418055 -0.07492292 0.05316385 0.043068625
0001b0 fb 44 87 bd 84 c1 87 bb 16 4a 1e bc 8b 4c a9 3d
       -0.06604954 -0.004142942 -0.009661218 0.082665525
0001c0 a1 19 9b 3e 75 e9 b9 3d 2d 22 53 bd 95 18 b8 3d
       0.3029299 0.090777315 -0.051546264 0.08989064
0001d0 33 a7 46 be b6 e3 ce ba b4 f1 7f be 29 fa d6 3e
       -0.19399719 -0.0015784416 -0.24994546 0.41987732
0001e0 d7 27 8a bd 58 1f 08 3e b0 40 62 bd 98 ac 15 bd
       -0.0674588 0.13293207 -0.055237472 -0.03654155
0001f0 e5 f9 16 3e b5 9d 86 3e 9d 40 7d bd d7 80 82 3d
       0.14743765 0.26292196 -0.0618292 0.063722305
000200 e0 12 e5 bc 22 74 af be 9e 61 9e 3d a0 67 9b 3d
       -0.027963102 -0.3426829 0.07733463 0.07588124
000210 5e b1 8e bd c9 c1 da bc 84 a9 9c bd 31 df 36 be
       -0.06967424 -0.026703732 -0.0764952 -0.17858578
000220 c0 89 33 bd 40 cf b8 bc 13 c3 2f bd 60 3c af 3c
       -0.04383254 -0.022559762 -0.042910647 0.021391094
000230 23 7f b9 3d cc 63 03 bc 9a ed 10 bd d0 b1 3a 3e
       0.090574525 -0.008019399 -0.035382845 0.18231893
000240 e6 96 6b 3e fa 3b 9e bc 8d 05 4f bd 4d 96 ec 3b
       0.23006782 -0.019315708 -0.050542403 0.0072200657
000250 eb 19 d7 3d 85 83 c6 3d b2 4d af bd 8a 6c 83 be
       0.1050299 0.09693054 -0.08559741 -0.25668746
000260 19 be db 3c 0b 75 b8 3d 22 a1 41 bd 11 20 03 3e
       0.026824044 0.09006699 -0.04727281 0.12805201
000270 b4 cb 20 3c d5 23 28 3d 63 6e b5 3d 18 68 41 bf
       0.009814192 0.041049797 0.08858945 -0.7554946
000280 47 b0 79 be 80 a2 71 bc 32 c7 61 3e 71 70 60 be
       -0.2438365 -0.014748216 0.22048643 -0.21917893
000290 00 35 82 bd 22 36 1a bc f3 5c 89 3c 8c 0e 33 3d
       -0.06357765 -0.00941232 0.016767954 0.043715045
0002a0 97 fc af be c7 54 26 3d 1f 8d c1 3d 27 fb d5 bc
       -0.34372398 0.040608194 0.09450745 -0.026120735
0002b0 09 50 9d 3d 8f 7e 98 3c 67 86 a5 bb d2 8a 14 3e
       0.07681281 0.018615035 -0.0050514224 0.14506081
0002c0 a1 c5 39 be b2 d8 cb bd e7 b1 7a 3d 77 10 b6 bc
       -0.18141796 -0.09953441 0.061204817 -0.022224648
0002d0 a7 3f a6 bc 87 10 a1 3d 14 9e 0d bc 80 7d b5 bb
       -0.020294024 0.078644805 -0.008643646 -0.0055386424
0002e0 67 3a 43 3c 20 79 0f bd 8b 08 fc bd 1e 0c d7 3d
       0.01191578 -0.035027623 -0.12306317 0.10500358
0002f0 e6 78 f1 bd 62 81 9c 3e ce 20 bd bd 98 01 1f 3e
       -0.11790638 0.3056746 -0.092347726 0.15527952
000300 66 7a b3 3c f0 f1 45 be 9d 17 bb bd e4 67 8f be
       0.02190895 -0.19330573 -0.09135363 -0.2800895
000310 a0 a7 43 be ef 6d b9 3e 2b a7 73 3d 1a ff a3 3b
       -0.19106913 0.36216685 0.059485596 0.0050047757
000320 77 8f 19 3d 50 ec 04 3d bd 24 1b 3d 63 d8 27 3d
       0.037490334 0.032451928 0.037876833 0.040977847
000330 48 23 96 3d 4b bf 8b 3d a5 21 ae bd b2 60 ca 3d
       0.07330948 0.068235956 -0.08502511 0.098817244
000340 18 d2 8e bd 2a 42 55 3d e7 22 21 3c 1d ea 38 bd
       -0.06973666 0.052065052 0.0098349815 -0.045145143
000350 9b 19 a9 3d 27 b4 48 bd 0b e5 c0 3d 67 0a f1 ba
       0.08256837 -0.04899993 0.094186865 -0.0018389941
000360 73 85 5a 3c 3d a6 38 bd d7 57 4c 3d 2f 4c c7 3d
       0.013337481 -0.045080412 0.049888458 0.09731328
000370 00 02 d2 bc 20 c5 7c 3d 83 aa 0c bd 4a 24 63 bd
       -0.02563572 0.06171143 -0.0343423 -0.05545453
000380 80 cf b0 3b 67 2e 02 bb 73 1f 31 3c ca 29 71 bd
       0.0053958297 -0.0019864084 0.010810721 -0.058877744
000390 40 62 00 3c a7 33 10 3d 40 ac d5 bc 3d 4c 1e bd
       0.007835925 0.03520551 -0.026083112 -0.038646925
0003a0 00 2b 07 bd cd 6e 54 bd 93 b3 2e bd e7 67 a0 bc
       -0.032999992 -0.05186348 -0.042651724 -0.019580794
0003b0 03 9f 5c 3d 9a 7b c3 3c 20 cd 81 bd 6a 63 bd bd
       0.053862583 0.023862649 -0.063379526 -0.09247477
0003c0 13 b1 8b 3d 17 9b 33 3d 47 fe 5d bd 70 fd b3 3d
       0.068208836 0.043849077 -0.054197576 0.08788574
0003d0 67 48 b1 bb 00 2b fe bb e0 6b 7f bd 50 80 a6 3d
       -0.0054102424 -0.007756591 -0.062358737 0.081299424
0003e0 98 cf a7 bd 73 0e 9f bc 13 ff f6 bc 7d e5 a0 bd
       -0.08193892 -0.01941607 -0.030150926 -0.078562714
0003f0 f3 b5 8f 3c 77 74 ad bd a0 22 ad 3c 9f f0 8d bd
       0.017542815 -0.084694795 0.021134675 -0.069306605

linear2.bias f4 [100]
000000 c7 f5 7e bd 4b 77 21 3e 7a 78 f2 3c 07 0b 17 bd
       -0.06224611 0.15768163 0.029598463 -0.03687575
000010 e3 a0 3b 3e c5 c6 a3 bd 12 fd 14 bb 26 80 86 bb
       0.18323092 -0.07996897 -0.002273385 -0.004104632
000020 d3 96 7c bd ae cd 0e be 6b 3a 87 bd e4 25 db bd
       -0.061667275 -0.13945648 -0.06602939 -0.107005864
000030 5c d6 22 be 63 ee 2c be 2f 63 01 bd 21 04 05 3c
       -0.15902084 -0.16887812 -0.03158873 0.00811866
000040 3a 15 42 3e 57 1e 02 3e 7d 93 93 bd 0a f6 3b be
       0.1895341 0.12706886 -0.072058655 -0.18355575
000050 0d 1e 9f bc 87 ed 35 bd 17 29 34 bd 74 c1 2d bc
       -0.019423509 -0.044415977 -0.0439845 -0.010605205
000060 6c 32 35 3e 8a b6 63 bd 05 ee 97 bd 5a 85 30 bc
       0.17695016 -0.055594005 -0.074184455 -0.010773981
000070 dd ad f7 bd 63 f3 2d 3d 70 61 60 bd 5d 7d 8b 3d
       -0.12093709 0.04246844 -0.054780424 0.068110205
000080 87 2f 82 bc 9a 5e ae bd d0 bf 26 be 57 81 01 bd
       -0.015891803 -0.085141376 -0.16284108 -0.03161749
000090 97 96 3a 3d 2f ed e7 bd fd 0b 03 bd 2f b7 2d bd
       0.04555377 -0.11324536 -0.031993855 -0.042411026
0000a0 98 3b 22 be 02 41 1a be ba f5 91 3d f6 2d 97 3d
       -0.15843046 -0.15063861 0.07126947 0.07381813
0000b0 14 b7 ec bd 1a 15 a2 3b c0 c7 0f 3c 28 d9 55 bd
       -0.11558357 0.004946363 0.008775651 -0.05220905
0000c0 e7 f5 16 bc 6b 9f b7 3d c4 de b4 bd c0 01 31 be
       -0.009213901 0.089659534 -0.08831552 -0.17285824
0000d0 6a 2e af bd 14 1e 5e bd 43 1c 05 3e 63 fd ac 3d
       -0.08553775 -0.054227903 0.12999062 0.08446767
0000e0 c7 48 2f bd 33 ff b6 3d de b1 ee bb 86 67 ba bd
       -0.042794015 0.08935394 -0.007284387 -0.09101777
0000f0 33 6c 1f bb a4 a1 19 3e ff fa a8 bd db 9f d0 bd
       -0.0024325966 0.15003067 -0.08250999 -0.1018674
000100 d6 90 03 bd 53 c6 ad 3d 00 06 0c bb 6c ca c0 bd
       -0.03212055 0.08485093 -0.002136588 -0.09413609
000110 13 e8 98 bd aa a7 9a bd af b2 85 bd 1b 29 05 3d
       -0.0746614 -0.07551511 -0.06528222 0.032509904
000120 d5 df a5 bd f7 e1 72 3d 73 99 fd bc bd cf 12 bd
       -0.08099333 0.059297528 -0.03095696 -0.035842646
000130 9a 70 94 bd fa dc 81 3d 9a 0d 80 3a 07 58 58 bd
       -0.072480395 0.06340976 0.0009769679 -0.052818324
000140 48 a7 54 3e 75 7d e1 b9 c9 7c bb 3d 9e 98 b5 bc
       0.20766938 -0.00043008817 0.0915466 -0.0221675
000150 f7 64 6d bd dd 6c 35 3d 97 0f 96 bd 7f c7 fd 3c
       -0.057957616 0.044293273 -0.07327192 0.030978916
000160 6d a0 8a bd ec e9 41 3d 0d 8a 19 bd 69 cf 48 3c
       -0.0676888 0.047342226 -0.03748517 0.012256482
000170 33 2b 77 bb a3 98 c8 bd af 0f 3c be 1b a1 37 bd
       -0.0037714958 -0.09794738 -0.18365358 -0.044831377
000180 dd bf 97 3d 4f fb ca bc 40 43 df 3a fd f8 3e 3e
       0.07409642 -0.024778036 0.0017033592 0.18649669

linear3.weight f4 [3, 100]
000000 f2 6a cf b8 6e ad af be 72 50 0f 3b 8a 37 b9 ba
       -9.890449e-05 -0.34312004 0.0021868018 -0.0014130932
000010 aa 67 5c be 0d a0 97 bc 41 15 3c 3e a1 96 b2 3e
       -0.2152392 -0.018508935 0.18367483 0.34880546
000020 cf 65 ea ba 45 5c a1 3e 69 30 13 3a 4b 99 e3 3e
       -0.0017883125 0.3151571 0.00056148187 0.4445289
000030 49 99 e5 bd 4d 8e 86 3e 36 a4 b7 3e 2e d7 3a ba
       -0.112108774 0.26280442 0.3586747 -0.0007127401
000040 52 39 2d be 80 ce 05 bd 8d ab 5e b9 5d 25 d6 3b
       -0.16916397 -0.032667637 -0.00021235477 0.006535216
000050 0d bb 0d 3b c6 fe b6 be 9d 6a 36 3b dc ca b9 bd
       0.0021626384 -0.35741252 0.0027834543 -0.090718955
000060 04 39 01 3e 08 66 e5 3a 3d ce 10 3b dd f4 6c 3a
       0.12619406 0.0017501721 0.0022095584 0.0009039173
000070 2d 10 21 3e aa 4c a6 ba 4d 12 de ba c5 a5 9c 3a
       0.15728827 -0.0012687643 -0.001694271 0.0011951259
000080 87 b5 60 ba be 4a 13 3b d9 36 41 bd 37 1d 5c ba
       -0.00085719716 0.002247497 -0.047171447 -0.00083966873
000090 41 45 06 3e 6d a1 9b 3e 2d 74 d1 39 c9 3d 40 3e
       0.13112356 0.30396596 0.00039950144 0.18773569
0000a0 89 31 a2 3d 89 a1 91 bc ea 13 c1 be b6 1b d7 3e
       0.07919604 -0.017777221 -0.37710506 0.4201333
0000b0 60 1b c8 3d 02 62 d1 ba 0e 41 3c 3b ab fc b9 3e
       0.09770846 -0.0015974643 0.00287253 0.36325583
0000c0 ae ca 49 3a 4a 94 3f 39 c1 3c 33 ba 62 85 c5 3e
       0.0007697743 0.00018270421 -0.0006837361 0.38578326
0000d0 9f a7 98 3d ac e2 05 be ae 90 96 3e 7f 88 f4 ba
       0.07453846 -0.1307475 0.29407257 -0.0018656402
0000e0 13 5f af 3e f1 69 87 be fc d4 83 bd 13 aa e4 bc
       0.34252223 -0.26448014 -0.06437108 -0.027913129
0000f0 14 f7 0f 3b 86 71 d8 3d 51 a7 25 3b 5a 5c ba 3e
       0.0021967338 0.10568528 0.002527673 0.36398584
000100 47 ec 9a 3e db 91 d9 3a f5 d4 2d 3b 09 6c 9e 3d
       0.3025839 0.0016599254 0.0026524637 0.0773545
000110 de 8f c6 ba cd 8b 10 3b 29 58 41 ba d9 73 c1 3e
       -0.0015149077 0.0022055984 -0.00073755026 0.37783697
000120 ca 6d c7 3e 82 a8 cb 3a 09 3d 33 3b 16 d1 4f be
       0.3895095 0.001553789 0.0027349612 -0.20294604
000130 7f a4 c1 3b 67 67 79 be 50 de e4 3a 15 19 25 ba
       0.005909502 -0.24355851 0.0017461274 -0.0006297988
000140 cb cb 2e be 43 7a 84 bd 55 77 a6 be 53 39 40 3d
       -0.17069928 -0.06468632 -0.32512918 0.04692967
000150 c1 e0 48 3a b4 1c cf 39 db 0e 06 3e 36 40 39 3e
       0.00076628855 0.00039503502 0.13091604 0.18090901
000160 1b 5d 26 ba db 49 dc 38 1f 09 5e b9 2b 61 a5 3e
       -0.0006346271 0.00010504174 -0.00021174968 0.32300696
000170 29 10 b8 b9 3a e1 13 3e f9 00 64 3e 73 1d 10 be
       -0.00035107255 0.14441386 0.22265996 -0.14073734
000180 43 6f 8d 39 e6 3d 9c 3e f7 30 b9 be 9d 0c 4c be
       0.00026976512 0.30515975 -0.3617017 -0.19926687
000190 dd 72 a2 39 76 b7 97 bd 5c 8c 13 bb fe d8 08 bb
       0.00030984628 -0.07408039 -0.002251408 -0.002088129
0001a0 3c 0c 07 be 0a ef 52 3e 55 cd 46 bc d8 8c 25 3d
       -0.13188261 0.20598999 -0.012133916 0.040417522
0001b0 09 e2 a4 ba 60 dd aa 3e 70 a5 22 bb 7f 95 dc 3e
       -0.0012579571 0.3337202 -0.0024817847 0.43082806
0001c0 65 6b 00 3e 27 bc 77 3e ab b3 b0 3e ba 92 37 ba
       0.12540968 0.24192868 0.34512076 -0.000700276
0001d0 32 e5 57 be 3e 06 2b be 8e 5d 02 3b 39 8c 28 3e
       -0.21083525 -0.167016 0.0019892189 0.1645974
0001e0 77 db 2d bb b7 9c 06 3e 89 7c 55 ba ee d9 34 3e
       -0.0026528516 0.1314572 -0.00081438624 0.17661259
0001f0 ff f3 0a bd ec 51 85 b9 44 1c 27 ba b4 cf e8 3a
       -0.0339241 -0.00025428773 -0.00063747563 0.0017762096
000200 a2 12 2d 3e 79 2b c1 b9 6f 81 40 ba 19 b7 19 3b
       0.16901639 -0.00036844218 -0.0007343506 0.0023455082
000210 79 a5 57 b9 f1 e5 14 3b 3f 21 47 3e d8 e6 81 3a
       -0.00020565641 0.0022720064 0.19446276 0.0009910716
000220 ef 1a b6 bd d3 e2 97 3e 60 83 15 bb 3a 0f 2f be
       -0.08891856 0.2966524 -0.0022813901 -0.17095652
000230 43 87 37 bf 5e 27 34 3e b6 93 36 bc 5d 3b d9 bd
       -0.7169077 0.17593142 -0.0111436155 -0.10607026
000240 d7 ad 23 3e 4d a4 2d 3b f8 4c 28 ba 17 5e ab 3d
       0.15984283 0.0026495636 -0.00064201606 0.083675556
000250 fb ad 1f 3b 2e 6b 82 3a 39 a0 ed 39 6e ee a0 3e
       0.0024365175 0.0009950155 0.00045323538 0.31431907
000260 1c 81 49 3e 0d ae 27 bd 0b 40 14 3d c9 ae e9 38
       0.19678158 -0.040937472 0.03619389 0.00011142862
000270 ea ae a8 3e 58 01 59 be 9c 27 86 bd e6 f9 09 3e
       0.3294595 -0.21191919 -0.06550524 0.13474235
000280 08 16 f0 ba d9 1e ef bd d1 a4 dc 39 4d 85 45 3d
       -0.0018317113 -0.116758056 0.00042084468 0.04822283
000290 24 3f 92 3e 76 a7 87 ba 3b 1d b4 3a 70 d7 ba 3c
       0.28563797 -0.001034959 0.0013741622 0.022807807
0002a0 1d f2 db b9 19 f0 19 ba 2e c2 8b ba 46 1c f6 3d
       -0.00041951324 -0.0005872264 -0.0010662728 0.120171115
0002b0 6c 16 a4 3e c4 0c b8 3a e5 de 40 bb a3 a1 94 bc
       0.32048357 0.001404189 -0.002942973 -0.01814348
0002c0 cf 28 36 3e 2c 31 6c bd 7d 5c 3b bb 08 98 d4 b9
       0.17789005 -0.05766408 -0.0028589063 -0.00040549063
0002d0 f2 19 47 be 46 01 63 3c 67 c0 99 3d 80 cb a9 3c
       -0.19443491 0.013855284 0.07507401 0.02072692
0002e0 f4 63 b3 b9 9c 7c ab b8 1a 2a 37 3e 05 0c 44 be
       -0.0003421601 -8.177126e-05 0.17887154 -0.1914521
0002f0 9a f1 f8 b9 10 72 86 ba 09 c4 1a 3b a7 12 bd 3e
       -0.00047482253 -0.0010257382 0.0023615381 0.36928293
000300 52 0c 8b ba 89 79 51 3e 2e 92 4e 3e 81 f5 b7 bc
       -0.001060853 0.20456518 0.2017295 -0.022455933
000310 c5 3e 03 ba 4d 31 82 3e 4f 77 5c 3d 23 8e 22 be
       -0.0005006607 0.2542824 0.05382472 -0.15874533
000320 7f 3e d5 3a ba 68 95 bd 8f 43 64 3a 5e 41 2f 3b
       0.0016269236 -0.07295366 0.0008707577 0.0026741843
000330 e9 30 05 be 37 52 43 3e fb 07 cb be 79 a0 3d bd
       -0.13006939 0.19074331 -0.39654526 -0.046295617
000340 0e 8d 94 39 c2 2a d8 3d 77 27 0b 3a 4d c2 9c 3d
       0.00028333854 0.105550304 0.000530831 0.076542474
000350 1b 5a 2f 3e 3f be 98 3d 5b 6d 75 3e 71 ab a2 ba
       0.17124216 0.074581616 0.23967497 -0.0012410713
000360 fe a4 17 be 8f 38 1d be b4 66 41 3b a0 7e 39 3e
       -0.14809033 -0.15353607 0.0029510679 0.1811471
000370 4c 99 c1 3a e1 5c 78 3d 8d 64 42 3b 61 90 04 3e
       0.0014770417 0.06063545 0.0029661984 0.12945701
000380 b6 a3 76 be 24 e4 17 3b 74 5f 0a bb 6d 06 cb 3a
       -0.24085888 0.0023176754 -0.0021114023 0.0015489586
000390 01 6f 97 3d 98 b3 2b ba e3 95 f4 38 06 e0 eb ba
       0.07394219 -0.0006549894 0.00011662745 -0.0017995841
0003a0 d3 45 dc 3a 71 1e 8e 3a e2 46 b5 3d b4 75 d3 3a
       0.0016805477 0.0010842812 0.088514104 0.0016133101
0003b0 a6 18 84 3d fe 43 7a 3e 91 c0 cc ba d4 60 9f 3d
       0.06450014 0.2444 -0.0015621354 0.077821404
0003c0 42 39 24 be c4 5d 51 3e 64 59 d3 3c 94 21 a2 be
       -0.16037467 0.20445925 0.02579946 -0.31666243
0003d0 c2 8e 0f 3e d5 41 3d bb 00 14 fd b9 8d 9d 25 be
       0.14019302 -0.002887835 -0.00048270822 -0.16173382
0003e0 f0 77 7a 38 74 a6 fc 3a f2 17 d6 ba 3f dd 62 3e
       5.9716345e-05 0.0019275681 -0.001633404 0.22154711
0003f0 f1 8b 1c 3e 97 74 0a 3e 19 1d 85 be ec 49 25 bb
       0.15287758 0.13521038 -0.25998762 -0.0025221063

linear3.bias f4 [3]
000000 1b cc 77 bd a8 bf 9b bd 78 d4 44 bd
       -0.060497385 -0.07604915 -0.04805419
