checkpoints/three-phase/13bus3p/ddpg/policy_net_checkpoint_a11.pth (torch, 44503 bytes, 6 tensors)

linear1.weight f4 [100, 2]
0.66008335 0.5515977 -0.35029888 -0.30896464 0.3541153 0.13455379 -0.25716707 -0.08574262
0.40868124 0.505726 -0.28135508 0.5652063 0.70809865 -0.59905404 0.63129115 0.5110317
-0.002213131 -0.29998264 0.12878399 -0.6973388 -0.06005007 0.044426404 -0.6421761 0.5664949
-0.3215064 -0.13547938 -0.0684511 -0.39833754 -0.68766695 0.53273284 -0.23733583 0.60752547
-0.102521844 0.4258952 0.4012913 0.47552642 0.42896894 0.78878736 0.19180861 -0.69789404
0.53624076 -0.70905334 0.07017279 0.55857456 -0.07684152 0.8115426 -0.5405406 -0.23539452
0.21315311 -0.2521367 0.059584346 -0.13189788 -0.07692726 -0.3354936 -0.35003775 0.5478528
-0.34256577 0.65319836 0.7280226 -0.06740012 -0.5537886 0.052789293 -0.5810093 0.080468446
-0.21954516 0.45452404 0.76243585 0.26542616 -0.6325671 0.038941916 -0.5437595 -0.029805997
-0.4712348 -0.6795795 0.17952107 -0.38079882 0.7244563 -0.1139245 -0.24002495 -0.13082238
0.4754968 0.5812216 0.044256467 -0.17777464 0.1770444 -0.31785634 0.008441837 0.43653083
0.08458007 0.7675201 0.6516556 -0.4447629 -0.35286504 0.092660606 -0.526717 0.7654323
0.21857001 -0.61797434 -0.2651523 0.074170865 0.39219823 -0.4435163 -0.6134126 0.4875663
0.42028803 -0.5977229 0.18385065 0.6733435 -0.27012742 -0.6729655 0.69577026 0.08020192
-0.29751137 0.66976994 -0.27028593 0.41010365 0.63261735 0.47382852 0.04925445 0.6819352
0.51321733 -0.33901274 0.50992006 -0.32307145 -0.37591624 -0.35397217 0.4531343 -0.740166
0.45894545 0.60025513 -0.3287378 0.8134701 -0.46934086 0.7991094 0.13054039 -0.015284643
-0.4520822 0.6158542 -0.43390155 -0.5128165 -0.6878948 0.6111858 0.70491457 0.038115628
0.49311644 -0.5339278 -0.09021587 0.67398745 0.44805384 -0.30483288 0.05799455 -0.03853337
-0.3638373 -0.6825634 0.36639336 0.05176802 -0.56046677 -0.25095573 0.3706954 0.0001410541
-0.2729605 -0.5466982 0.49469703 -0.45407397 0.58039564 -0.22851236 0.4410388 0.48779285
0.28275833 0.10095103 -0.2880996 0.052211262 -0.6910009 0.30634943 -0.23149586 -0.082051314
-0.17493834 -0.43749398 0.1759463 0.276257 -0.67857426 0.10677697 0.6339243 -0.33342817
-0.30342188 0.10457389 0.22528729 -0.3271255 -0.6235275 -0.07603485 0.6558581 -0.31084743
-0.67858666 -0.54117465 0.11913618 0.13955857 0.24757011 0.6855635 -0.4447611 -0.18697917
00000000: 39fb 283f 8235 0d3f 605a b3be 9d30 9ebe
00000010: 9a4e b53e 78c8 093e 67ab 83be d499 afbd
00000020: ab3e d13e 4277 013f c60d 90be 5cb1 103f
00000030: f445 353f 9b5b 19bf 4c9c 213f f9d2 023f
00000040: 2d0a 11bb 5397 99be f3df 033e cc84 32bf
00000050: 10f7 75bd 76f8 353d a765 24bf cf05 113f
00000060: 7d9c a4be 1bbb 0abe 1730 8cbd e6f2 cbbe
00000070: f10a 30bf 2e61 083f 2a08 73be ca86 1b3f
00000080: f9f6 d1bd f00e da3e 0e76 cd3e 3378 f33e
00000090: d1a1 db3e f8ed 493f 7a69 443e 2fa9 32bf
000000a0: 1347 093f 8584 35bf c0b6 8f3d befe 0e3f
000000b0: 165f 9dbd 41c1 4f3f de60 0abf 430b 71be
000000c0: cf44 5a3e 1018 81be b70e 743d 3d10 07be
000000d0: 0a8c 9dbd d1c5 abbe 2638 b3be 1540 0c3f
000000e0: c864 afbe 0238 273f b05f 3a3f 1309 8abd
000000f0: 17c5 0dbf 9639 583d 07bd 14bf a4cc a43d
00000100: 72d0 60be 60b7 e83e ff2e 433f f0e5 873e
00000110: ebef 21bf 8f81 1f3d d333 0bbf b52b f4bc
00000120: b045 f1be ecf8 2dbf 5fd4 373e 10f8 c2be
00000130: f875 393f 4051 e9bd 1ac9 75be 4df6 05be
00000140: 5174 f33e f0ca 143f 4546 353d 8e0a 36be
00000150: 214b 353e 11be a2be a14f 0a3c f880 df3e
00000160: 5138 ad3d 337c 443f e7d2 263f f6b7 e3be
00000170: baaa b4be d8c4 bd3d edd6 06bf 5ff3 433f
00000180: d1d0 5f3e 9133 1ebf 0bc2 87be e5e6 973d
00000190: 35ce c83e 9214 e3be 9c08 1dbf 4aa2 f93e
000001a0: fe2f d73e 5e04 19bf 5843 3c3e 3d60 2c3f
000001b0: 244e 8abe 7847 2cbf 001e 323f e740 a43d
000001c0: 6953 98be 0b76 2b3f eb62 8abe 1bf9 d13e
000001d0: 36f3 213f a799 f23e 09bf 493d 4e93 2e3f
000001e0: 3662 033f 1493 adbe 1f8a 023f 9f69 a5be
000001f0: 1878 c0be d73b b5be 3801 e83e 857b 3dbf
00000200: e6fa ea3e 52aa 193f 5250 a8be 943f 503f
00000210: 724d f0be 6f92 4c3f 61ac 053e 706c 7abc
00000220: 5177 e7be 9fa8 1d3f 5828 debe f147 03bf
00000230: e019 30bf ac76 1c3f 4875 343f 221f 1c3d
00000240: c279 fc3e 7eaf 08bf 19c3 b8bd 718a 2c3f
00000250: 5067 e53e 0e13 9cbe b18b 6d3d 2bd5 1dbd
00000260: e248 babe 7abc 2ebf e997 bb3e b40a 543d
00000270: c07a 0fbf 457d 80be cacb bd3e ece7 1339
00000280: 7bc1 8bbe 6af4 0bbf ee48 fd3e 627c e8be
00000290: cf94 143f 25ff 69be d6cf e13e fcbf f93e
000002a0: b3c5 903e 6abf ce3d ca81 93be 7adb 553d
000002b0: 6fe5 30bf d5d9 9c3e 400d 6dbe 850a a8bd
000002c0: 0923 33be 36ff dfbe 442b 343e 8f71 8d3e
000002d0: 0bb7 2dbf e2ad da3d dd48 223f 19b7 aabe
000002e0: 1d5a 9bbe d62a d63d b6b1 663e fe7c a7be
000002f0: 809f 1fbf 29b8 9bbd 51e6 273f 6527 9fbe
00000300: dbb7 2dbf 6c8a 0abf abfd f33d 71e8 0e3e
00000310: 0583 7d3e 1781 2f3f bab7 e3be 7877 3fbe

linear1.bias f4 [100]
-0.41310373 -0.16656384 0.22454458 0.048768707 -0.69002736 -0.09620758 0.5877471 -0.16013685
-0.5353533 0.34294257 -0.06414725 -0.12644047 0.6033785 0.6387102 -0.63083297 -0.15556417
-0.05285604 0.5278847 -0.27762634 -0.030696308 0.7253532 -0.46318915 0.11888751 0.21196197
0.40016115 -0.0076320353 0.591959 0.014754748 -0.5987769 0.32355213 0.72756284 -0.6813864
-0.082714885 0.45947427 -0.21748616 0.06838663 -0.35847706 0.65829754 0.5925982 0.14142029
-0.5621405 -0.38625816 -0.25797486 -0.62140816 -0.3027744 -0.653607 -0.25505888 0.14776409
-0.6086315 -0.034723524 0.62277526 0.6560924 -0.25051656 0.1415995 -0.5639788 0.648221
0.68939567 0.2201369 0.06966378 -0.40607902 0.24818054 -0.5421234 -0.6350404 0.47427022
-0.52093285 -0.24603286 0.39784452 -0.05008824 -0.50785947 0.3580368 -0.23454814 0.34232867
-0.3113901 -0.40419167 0.5590851 0.3719668 0.6189141 0.33423758 0.62861115 0.7639155
0.6135121 0.30517194 -0.1695746 0.55742145 0.5399911 -0.12973778 -0.2757895 0.0791796
-0.5736558 -0.17536101 0.6405816 -0.1537758 0.3896047 0.18716945 -0.3283102 0.17269951
-0.30997244 0.2992131 -0.39408803 -0.22919261
00000000: 5582 d3be b68f 2abe 04ef 653e b2c1 473d
00000010: a2a5 30bf 7b08 c5bd 9876 163f eafa 23be
00000020: ea0c 09bf 2b96 af3e a25f 83bd 9c79 01be
00000030: 0377 1a3f 8382 233f 457e 21bf 374c 1fbe
00000040: 937f 58bd 7423 073f 0a25 8ebe d376 fbbc
00000050: bfb0 393f 2127 edbe 4b7b f33d 8f0c 593e
00000060: ece1 cc3e 2716 fabb a08a 173f e6bd 713c
00000070: 7149 19bf a0a8 a53e 8f41 3a3f 576f 2ebf
00000080: 6c66 a9bd 3640 eb3e b1b4 5ebe 4a0e 8c3d
00000090: 4e8a b7be 3086 283f 84b4 173f 7bd0 103e
000000a0: 71e8 0fbf a1c3 c5be 4815 84be 9b14 1fbf
000000b0: 3f05 9bbe ca52 27bf 1497 82be 784f 173e
000000c0: 46cf 1bbf 413a 0ebd 336e 1f3f acf5 273f
000000d0: b543 80be 76ff 103e ea60 10bf d0f1 253f
000000e0: 3c7c 303f 916b 613e e2ab 8e3d 97e9 cfbe
000000f0: 0a23 7e3e 99c8 0abf 0292 22bf 8cd3 f23e
00000100: db5b 05bf 0af0 7bbe 47b2 cb3e 5429 4dbd
00000110: 1403 02bf 9950 b73e 632d 70be b445 af3e
00000120: 866e 9fbe 36f2 cebe 3320 0f3f 6f72 be3e
00000130: 2871 1e3f 3021 ab3e a9ec 203f f78f 433f
00000140: 210f 1d3f 7f3f 9c3e f7a4 2dbe 2cb3 0e3f
00000150: db3c 0a3f fbd9 04be 4834 8dbe ea28 a23d
00000160: 1bdb 12bf d691 33be 28fd 233f 6777 1dbe
00000170: 447a c73e 59a9 3f3e 4618 a8be 24d8 303e
00000180: b5b4 9ebe 7632 993e e8c5 c9be 78b1 6abe

linear2.weight f4 [100, 100]
-0.0062150536 -0.055744853 -0.017251136 0.0106441025 -0.10338057 -0.006211274 -0.03664242 -0.04864828
0.002354622 0.08125991 0.035665393 0.020720232 0.09864828 -0.059715055 -0.08661326 -0.13658921
-0.014400371 0.029874917 -0.03510224 -0.09976695 0.04560162 -0.12573844 -0.09791209 0.034970094
0.064925805 0.0049805525 0.024184631 0.11121119 -0.07421986 0.04673807 -0.035609398 0.025516069
-0.06389367 -0.0034292887 -0.017866135 -0.011450052 -0.052552667 -0.023729227 -0.059839528 -0.006720412
-0.1129576 0.07057043 0.051763486 -0.5445301 -0.034752317 0.057421148 -0.049382508 -0.036694583
0.039664567 0.06380006 -0.013495629 0.06696791 -0.09292381 -0.001607918 0.06255189 -0.007992073
-0.047937416 -0.051395386 -0.054000363 -0.06269667 0.014577524 -0.0027440072 0.09942549 0.12553269
-0.13320225 0.014968073 0.016948743 -0.16231796 -0.074277475 0.06467166 -0.050874867 0.0056449273
0.016477942 -0.16818191 -0.017429208 0.102216944 -0.043318093 0.068940595 0.026731957 0.08211096
-0.08360769 0.08831355 -0.15846793 0.0424803 0.05029424 -0.08514203 -0.032243144 -0.011141801
0.004390812 -0.13206075 -0.033738166 -0.11858843 0.11029787 -0.02014427 0.03698454 -0.020330815
0.089258276 -0.030446487 -0.12935637 -0.08212315 0.08582848 0.08107503 -0.059362855 -0.07811145
-0.09440749 0.009081853 0.033434726 -0.072383665 0.07512712 0.051386762 -0.033204485 -0.014989424
-0.052847445 -0.021329297 -0.066262774 -0.04337107 -0.08007276 -0.09673133 0.03340285 0.0072535756
0.050625026 0.002093792 -0.08273771 0.06746461 -0.02571379 -0.0462132 -0.009536171 0.02307775
-0.04313171 -0.03738854 0.092272654 -0.06675398 0.011193109 0.020731926 0.061683644 -0.0930913
-0.0841368 -0.01691562 0.024710894 0.06420803 0.05877329 -0.007131994 0.032308567 0.0063501
-0.07602638 0.014183438 0.06371359 -0.067121744 0.08970811 -0.052650165 0.074690856 -0.044473078
0.09321862 -0.08410247 0.05993526 0.057599343 -0.09481696 -0.02860321 -0.042636264 0.06957233
0.06256139 0.030989004 0.023254562 0.06477952 0.022501504 -0.026875257 -0.07893995 -0.08457929
0.01819315 0.005564642 0.012288856 -0.03061086 0.092285626 0.02521683 -0.092990376 -0.06622442
0.026045918 0.032361772 -0.08352305 -0.047329213 0.08719432 0.06487917 -0.08879449 0.09268339
0.0860308 -0.053353824 -0.03043778 -0.022905326 0.029006649 -0.09153197 0.027556872 -0.03504622
-0.07771665 -0.07954299 -0.028435875 0.020603394 -0.010766518 0.057247162 0.029307162 0.051633444
-0.08072139 0.071354166 0.015131975 -0.09760695 -0.057042625 -0.084875576 -0.05698482 -0.041624643
-0.06306931 -0.06197821 -0.030357098 -0.05893538 -0.0010760546 0.099581264 -0.06555116 0.047088362
0.049300995 -0.09036769 0.07935001 0.05947515 -0.020911193 -0.037623405 -0.051245164 -0.014365494
-0.07190396 -0.0049513103 0.01061014 0.0651436 -0.06409215 -0.008182967 -0.06612493 -0.07358332
-0.031460237 -0.0038983345 -0.08940196 -0.08252183 -0.050162327 0.03991319 0.08543646 0.08071005
-0.09873115 0.023236727 -0.034154154 -0.09722626 -0.0044532777 -0.096071504 -0.096641675 -0.09580087
0.028708696 -0.02881515 0.05738443 0.088124596 0.08548432 0.087507024 0.01775135 -0.011283708
00000000: a6a7 cbbb b754 64bd 4152 8dbc 9a64 2e3c
00000010: 31b9 d3bd f187 cbbb 5d16 16bd 6b43 47bd
00000020: 0050 1a3b 986b a63d e015 123d 7abd a93c
00000030: 1c08 ca3d c697 74bd 4b62 b1bd 0bde 0bbe
00000040: 89ef 6bbc 3ebc f43c 5ec7 0fbd 9d52 ccbd
00000050: c4c8 3a3d 94c1 00be 2286 c8bd cd3c 0f3d
00000060: d2f7 843d e733 a33b d91e c63c b1c2 e33d
00000070: 9500 98bd 6b70 3f3d 29db 11bd 1307 d13c
00000080: afda 82bd ebbd 60bb 005c 92bc 0099 3bbc
00000090: 7741 57bd cc63 c2bc 4b1a 75bd e736 dcbb
000000a0: 5056 e7bd 3b87 903d f305 543d 5366 0bbf
000000b0: 7258 0ebd 7032 6b3d 5045 4abd 0f4d 16bd
000000c0: 5077 223d 9ba9 823d c51c 5dbc 7926 893d
000000d0: d74e bebd c6c0 d2ba 351b 803d 2ff1 02bc
000000e0: 065a 44bd f883 52bd 7c2f 5dbd 1d67 80bd
000000f0: 91d6 6e3c cdd4 33bb 979f cb3d a48b 003e
00000100: 2c66 08be a63c 753c 17d8 8a3c ae36 26be
00000110: ca1e 98bd 9372 843d 2a62 50bd 15f9 b83b
00000120: c0fc 863c e137 2cbe b3c7 8ebc 1e57 d13d
00000130: 506e 31bd ba30 8d3d fafc da3c ca29 a83d
00000140: 823a abbd bcdd b43d 6b45 22be d3ff 2d3d
00000150: 5501 4e3d f25e aebd 6311 04bd 1a8c 36bc
00000160: cde0 8f3b ef3a 07be 0831 0abd 7ede f2bd
00000170: dae3 e13d 9905 a5bc 1a7d 173d cf8c a6bc
00000180: 0bcd b63d e96a f9bc ff75 04be 2f30 a8bd
00000190: d8c6 af3d aa0a a63d 7726 73bd e5f8 9fbd
000001a0: b758 c1bd 0dcc 143c daf2 083d e33d 94bd
000001b0: 3fdc 993d ed7a 523d 6d01 08bd 3396 75bc
000001c0: 9076 58bd c7ba aebc c7b4 87bd dda5 31bd
000001d0: 30fd a3bd 131b c6bd 6dd1 083d 67af ed3b
000001e0: 305c 4f3d 0038 093b 6372 a9bd e32a 8a3d
000001f0: baa5 d2bc 0d4a 3dbd 9a3d 1cbc 8d0d bd3c
00000200: e0aa 30bd ba24 19bd 72f9 bc3d 50b6 88bd
00000210: 4d63 373c 00d6 a93c fda7 7c3d a7a6 bebd
00000220: ea4f acbd a092 8abc 806e ca3c 807f 833d
00000230: 43bc 703d 80b3 e9bb fd55 043d 8014 d03b
00000240: b8b3 9bbd a761 683c 457c 823d 2077 89bd
00000250: e3b8 b73d b3a7 57bd 85f7 983d 6729 36bd
00000260: 67e9 be3d ea3d acbd ad7e 753d 4aed 6b3d
00000270: 652f c2bd 4751 eabc 5da3 2ebd f07b 8e3d
00000280: 3020 803d a7dc fd3c 5a80 be3c 20ab 843d
00000290: 1355 b83c 8029 dcbc 45ab a1bd e837 adbd
000002a0: cd09 953c 9a57 b63b 3357 493c a0c3 fabc
000002b0: 3f00 bd3d 8793 ce3c bd71 bebd aba0 87bd
000002c0: 405e d53c c78d 043d 220e abbd 47dc 41bd
000002d0: f092 b23d 5fdf 843d e3d9 b5bd cad0 bd3d
000002e0: eb30 b03d 8a89 5abd a758 f9bc f3a3 bbbc
000002f0: 5a9f ed3c 1d75 bbbd f3be e13c a08c 0fbd
00000300: e829 9fbd 6fe7 a2bd 5af2 e8bc 73c8 a83c
00000310: 0d66 30bc 007c 6a3d 9315 f03c 977d 533d
00000320: 4251 a5bd 2222 923d 1aec 773c 27e6 c7bd
00000330: 87a5 69bd 3fd3 adbd ea68 69bd 9a7e 2abd
00000340: 7b2a 81bd dddc 7dbd 73af f8bc 3a66 71bd
00000350: 670a 8dba 43f1 cb3d b03f 86bd badf 403d
00000360: d7ef 493d b212 b9bd 4282 a23d 379c 733d
00000370: f34d abbc 001b 1abd 73e6 51bd 405d 6bbc
00000380: 6242 93bd 9a3e a2bb 27d6 2d3c 026a 853d
00000390: bf42 83bd da11 06bc 826c 87bd dab2 96bd
000003a0: 73dc 00bd 337b 7fbb 6018 b7bd 3501 a9bd
000003b0: 0377 4dbd 037c 233d 50f9 ae3d 504b a53d
000003c0: 8f33 cabd f35a be3c 3ae5 0bbd 901e c7bd
000003d0: cdec 91bb 23c1 c4bd 12ec c5bd 3f33 c4bd
000003e0: 802e eb3c c00d ecbc f00b 6b3d ab7a b43d
000003f0: 6712 af3d e236 b33d 476b 913c 4ddf 38bc

linear2.bias f4 [100]
0.1003338 -0.08564013 -0.091759734 -0.07357856 0.08654848 -0.017078066 -0.010087967 0.02313445
-0.08158522 0.031254016 -0.093088984 0.046722043 0.11077781 -0.12814069 0.009084058 -0.123603426
-0.021354068 -0.09489477 -0.08472299 0.0369483 -0.0071409824 -0.05470414 0.08520606 0.091776684
0.04068643 -0.0093497755 -0.07922488 0.12875757 0.1051108 -0.0137103405 -0.02292428 -0.1254227
-0.015182342 0.060239483 -0.10150569 -0.08926219 0.00065490894 0.08618847 0.012653601 -0.04406018
0.06704936 0.12889555 0.046769455 -0.053253934 -0.07140989 -0.06444411 0.10306995 0.03828261
0.03249625 -0.011031545 -0.015770484 0.0063942554 0.011805142 0.06764068 -0.033988673 -0.10036434
-0.08215171 -0.09904772 0.039771527 0.14249331 0.02615188 -0.034542717 0.06647452 0.041326474
-0.012867058 0.037508395 0.07412107 -0.02601174 -0.031966057 0.007527226 0.070492424 -0.1324907
-0.007779932 0.03584462 -0.06438637 0.15941142 -0.07130096 -0.0012731545 0.017721921 -0.034957707
0.060987007 -0.008137511 -0.09935 0.04810436 0.053569306 -0.06817509 -0.06501002 -0.018231774
-0.08857643 -0.15389806 0.028565025 -0.0740633 -0.041392796 0.084985204 0.08841683 -0.028921092
-0.090519704 0.051991023 -0.047384407 -0.09706211
00000000: cf7b cd3d 1864 afbd 87ec bbbd 5bb0 96bd
00000010: 5440 b13d 4de7 8bbc 0048 25bc 7584 bd3c
00000020: 2716 a7bd 3604 003d 70a5 bebd 9d5f 3f3d
00000030: 7adf e23d 5037 03be 4dd5 143c cb23 fdbd
00000040: baee aebc 3058 c2bd 3f83 adbd 1a57 173d
00000050: e7fe e9bb 7311 60bd 8480 ae3d 6af5 bb3d
00000060: d0a6 263d cd2f 19bc a740 a2bd 06d9 033e
00000070: 5544 d73d 56a1 60bc b3cb bbbc cf6e 00be
00000080: 5cbf 78bc adbd 763d 37e2 cfbd 18cf b6bd
00000090: 32ae 2b3a 9583 b03d 0d51 4f3c 7378 34bd
000000a0: 2d51 893d 32fd 033e 5491 3f3d cc20 5abd
000000b0: 593f 92bd 46fb 83bd 5716 d33d 3ace 1c3d
000000c0: ca1a 053d a7bd 34bc 1a31 81bc e786 d13b
000000d0: 5b6a 413c 3287 8a3d b537 0bbd d28b cdbd
000000e0: 283f a8bd 88d9 cabd 78e7 223d c4e9 113e
000000f0: 783c d63c aa7c 0dbd cb23 883d f345 293d
00000100: 5ad0 52bc 67a2 193d cacc 973d 9316 d5bc
00000110: d7ee 02bd f3a6 f63b 555e 903d a4ab 07be
00000120: cdee febb cfd1 123d 00dd 83bd bf3c 233e
00000130: 3d06 92bd fadf a6ba 902d 913c d02f 0fbd
00000140: 83cd 793d 3253 05bc 0378 cbbd 1409 453d
00000150: 7d6b 5b3d 629f 8bbd f923 85bd cd5a 95bc
00000160: 8f67 b5bd 7497 1dbe 3301 ea3c 80ae 97bd
00000170: 7e8b 29bd b90c ae3d e213 b53d edeb ecbc
00000180: 6562 b9bd 8af4 543d 2716 42bd 80c8 c6bd

linear3.weight f4 [2, 100]
-0.051057648 0.00012102592 0.0029885853 -0.0014604864 -0.09789281 -0.0017577463 -0.0023594126 -0.023959318
0.0020480815 0.007220932 0.10793191 -0.18770339 -0.08392216 0.09150852 -0.0027841462 0.07723866
0.026652316 0.0020061 0.0019696814 0.00033103465 -0.00037234533 -0.0021364288 -0.08734508 0.113341145
-0.07656204 -0.002475859 -0.0015848146 -0.18929803 -0.23961349 0.1235796 -0.00065881456 -0.40065378
0.103126176 0.0023377258 0.077390894 -0.0016860241 0.13538699 -0.0018527593 -0.0010598478 -0.0016414075
-0.07484115 -0.18482083 -0.0024376723 0.12323085 -0.0009797454 -0.19851367 -0.24567603 0.0014988384
-0.08428369 -3.904903e-05 -0.0020704672 0.0017219045 0.12772171 0.10507343 -0.00031111288 0.00019782005
0.0010346825 0.0021058714 0.0260315 -0.26487324 -0.07340268 -0.0026701745 -0.0919493 0.00031483197
0.002679793 0.002893461 -0.002533341 -0.07376136 -5.284238e-05 -0.16678578 0.0012276671 0.10498122
-0.0024326628 -0.07015823 0.12141254 -0.082259566 -0.0019126826 0.07348417 0.12742276 0.0025217696
0.0010023075 0.14739093 -0.0015878206 -0.032026097 -0.07174692 0.0016652548 -0.0057451446 -0.00225426
-0.0015625939 0.08788014 8.593548e-05 -0.0007491224 -0.0977877 -0.06087953 0.0020184563 0.0010712289
-0.39181802 -0.00063367473 -0.0024737942 -0.0022412003 -0.041632637 -0.00036145485 -0.00044175304 -0.0011952857
-0.083642334 0.00027938068 0.00045045163 -0.15380765 -0.00069592847 0.07002471 0.14333963 -0.3436314
-0.053270947 0.15500142 0.0026261262 0.0064647254 -0.19706334 0.00089748035 0.00011057031 -0.00029976046
-0.0009460076 0.0005359447 -0.09017886 0.008973094 -0.03624599 0.0015813704 -0.0020729618 -0.3040037
-0.34097397 0.14449045 -0.00047174658 0.10358555 0.15003894 -0.0015647324 0.025507174 0.0029836225
0.13045964 -0.0010510663 0.0019574575 -0.00012851035 -0.06551728 -0.3582166 -0.0002256525 0.14323454
-0.0015913481 0.18632682 -0.27743918 0.0024449036 -0.07226942 -0.0017121106 -0.0019183338 -0.0013120612
0.13068305 0.014484743 -0.010425865 -0.0014724375 -0.0020274096 -0.0021937494 -0.11286763 -0.3020875
-0.06488811 0.0027753725 0.012289626 -0.0028436505 -0.00074264396 -0.0013869836 0.0010038428 -0.030813936
0.0003247912 -0.3403217 -0.0015392397 0.14026506 -0.0018070829 -0.03800235 0.14188391 -0.06568991
0.0022737244 -0.0026710336 0.1354558 0.0022999535 0.0017051453 0.11740714 0.0018903969 0.14091036
-0.05496977 0.0006727792 -0.073324576 0.00050049304 0.00014088035 0.013452667 -0.000115224124 0.0014794217
-0.07062155 -0.06713229 0.0028009766 0.0015797217 0.09287112 -0.0010504285 0.0018428975 -0.002539464
00000000: d321 51bd 4ccf fd38 24dc 433b cb6d bfba
00000010: 077c c8bd 2e64 e6ba 60a0 1abb 5546 c4bc
00000020: 1b39 063b 919d ec3b 680b dd3d 5135 40be
00000030: 62df abbd d268 bb3d 3976 36bb 4d2f 9e3d
00000040: f555 da3c c678 033b c515 013b b88e ad39
00000050: 5837 c3b9 5403 0cbb fae1 b2bd 671f e83d
00000060: 8fcc 9cbd 0542 22bb 8eb9 cfba 58d7 41be
00000070: 3d5d 75be 4d17 fd3d 4cb4 2cba 7e22 cdbe
00000080: d133 d33d 8834 193b 1e7f 9e3d 95fd dcba
00000090: e3a2 0a3e 49d8 f2ba 97ea 8aba 7f24 d7ba
000000a0: 5146 99bd ac41 3dbe 5bc1 1fbb 7560 fc3d
000000b0: cd6a 80ba 2b47 4bbe 7f92 7bbe ac74 c43a
000000c0: ed9c acbd 94c8 23b8 adb0 07bb 87b1 e13a
000000d0: 7bc9 023e bd30 d73d dd1c a3b9 ea6d 4f39
000000e0: 2f9e 873a a902 0a3b 0340 d53c 779d 87be
000000f0: 2554 96bd 18fe 2ebb ea4f bcbd 0810 a539
00000100: 779f 2f3b 38a0 3d3b 6906 26bb 3210 97bd
00000110: 13a3 5db8 e4c9 2abe ace9 a03a 6500 d73d
00000120: 4f6d 1fbb 1eaf 8fbd 23a7 f83d b477 a8bd
00000130: fab2 faba de7e 963d 1d7b 023e 4644 253b
00000140: dc5f 833a a6ed 163e 6b1e d0ba cc2d 03bd
00000150: 0df0 92bd ae44 da3a c441 bcbb 35bc 13bb
00000160: f3cf ccba 81fa b33d 4238 b438 c160 44ba
00000170: eb44 c8bd d05c 79bd 1448 043b 7a68 8c3a
00000180: 5f9c c8be 311d 26ba 611f 22bb 1ae1 12bb
00000190: fc86 2abd a681 bdb9 179b e7b9 22ab 9cba
000001a0: ac4c abbd d779 9239 982a ec39 c17f 1dbe
000001b0: f86e 36ba 1d69 8f3d a0c7 123e 74f0 afbe
000001c0: a332 5abd b1b8 1e3e 161b 2c3b 0cd6 d33b
000001d0: f9ca 49be e344 6b3a fce1 e738 2b29 9db9
000001e0: 7ffd 77ba a47e 0c3a b2af b8bd e203 133c
000001f0: ad76 14bd fc45 cf3a 87da 07bb 5fa6 9bbe
00000200: 2494 aebe 4ef5 133e c154 f7b9 a924 d43d
00000210: cfa3 193e b517 cdba 6cf4 d03c e188 433b
00000220: 3697 053e efc3 89ba b048 003b bcc0 06b9
00000230: ec2d 86bd 2b68 b7be 229d 6cb9 13ac 123e
00000240: c894 d0ba 75cc 3e3e 820c 8ebe ad3a 203b
00000250: fd01 94bd e668 e0ba 9a70 fbba 78f9 abba
00000260: c7d1 053e 6a51 6d3c 3fd1 2abc cefe c0ba
00000270: 4ade 04bb 02c5 0fbb 2527 e7bd 36ab 9abe
00000280: 0fe4 84bd 06e3 353b 6d5a 493c 8a5c 3abb
00000290: fead 42ba 72cb b5ba 6093 833a 826d fcbc
000002a0: bd48 aa39 a53e aebe 50c0 c9ba a5a1 0f3e
000002b0: a4db ecba 5aa8 1bbd 044a 113e 6e88 86bd
000002c0: c402 153b 820c 2fbb edb4 0a3e d1ba 163b
000002d0: 2f7f df3a 2873 f03d 32c7 f73a ce4a 103e
000002e0: fb27 61bd 735d 303a 322b 96bd 8533 033a
000002f0: 48b9 1339 9368 5c3c 7ba4 f1b8 28e9 c13a
00000300: 08a2 90bd a77c 89bd 9790 373b aa0e cf3a
00000310: 3733 be3d 88ae 89ba 618d f13a 236d 26bb

linear3.bias f4 [2]
-0.032921 -0.041508067
00000000: 2cd8 06bd 5d04 2abd
