checkpoints/three-phase/13bus3p/ddpg/policy_net_checkpoint_a2.pth (torch, 45271 bytes, 6 tensors)

linear1.weight f4 [100, 3]
0	0xbf0efa25	-0.5585044
1	0x3dfcd7c9	0.12345845
2	0x3f048686	0.51767766
3	0x3ce8758a	0.02837636
4	0x3e876d21	0.26450446
5	0x3f0d83cc	0.5527923
6	0xbeaa56da	-0.33269387
7	0xbf117d42	-0.56831753
8	0x3d3ec06e	0.046570234
9	0x3f0d4a2c	0.551913
10	0xbe6b0ce3	-0.22954135
11	0xbf0efc52	-0.5585376
12	0x3e477144	0.19476801
13	0x3f1378f3	0.5760643
14	0x3e087845	0.13327129
15	0x3e8ef7e6	0.27923506
16	0x3e548623	0.20754294
17	0x3ef80d1e	0.48447508
18	0xbd6b28ac	-0.057411835
19	0xbe1678fd	-0.14694591
20	0x3da52a3f	0.080646984
21	0x3e9ee25e	0.3103208
22	0xbf14f4ba	-0.58185923
23	0x3e76d078	0.24102962
24	0x3de1634d	0.11005268
25	0x3f326082	0.6967851
26	0xbe9272e3	-0.28603277
27	0xbf09db3a	-0.5385014
28	0x3d5fa003	0.05459596
29	0x3be5e974	0.007016355
30	0xbe83d756	-0.25750226
31	0xbeddbe2b	-0.4330915
32	0xbe311df8	-0.17296588
33	0xbe8400b3	-0.25781783
34	0xbe00d3cc	-0.12580794
35	0xbf0df7f0	-0.5545645
36	0xbe86529c	-0.262349
37	0x3d25c2a6	0.040468834
38	0x3f0690f0	0.5256491
39	0xbd88c596	-0.066783115
40	0xbe4f0d03	-0.20219807
41	0xbf0d471d	-0.55186635
42	0xbf089138	-0.53346586
43	0xbedc55f5	-0.4303433
44	0xbedd9017	-0.43273994
45	0xbebfbefe	-0.37450403
46	0x3e9ce11f	0.30640504
47	0xbf10258c	-0.5630729
48	0x3e40f5f5	0.18843825
49	0x3eced566	0.40397185
50	0xbeda9151	-0.42688993
51	0x3e3bc87e	0.183382
52	0x3dcac5e3	0.09901025
53	0xbf05f09e	-0.5232028
54	0x3f14776c	0.57994723
55	0xbcb8b26d	-0.022546018
56	0x3da76687	0.081738524
57	0xbececc7e	-0.4039039
58	0x3e80013d	0.25000945
59	0x3f059149	0.5217481
60	0x3d11e84b	0.035621922
61	0xbec94b8d	-0.39315453
62	0xbdcfbf07	-0.101438574
63	0x3e693d12	0.22777203
64	0x3eca30aa	0.39490253
65	0x3d14072f	0.036139663
66	0xbeb9907d	-0.36243048
67	0x3e65c7ac	0.2243945
68	0xbee12e56	-0.43980664
69	0x3eb1098b	0.34577593
70	0xbf0f2a7d	-0.55924207
71	0xbedbdd3a	-0.4294222
72	0xbc458cff	-0.012057542
73	0xbf12cc13	-0.5734264
74	0xbeb5e7cd	-0.35528412
75	0x3f02d222	0.5110189
76	0x3e19fb09	0.15037169
77	0x3f1746ef	0.5909261
78	0xbe9d3a85	-0.3070871
79	0xbdb396e4	-0.087690145
80	0xbd9aad9d	-0.07552645
81	0x3eb74af1	0.35799363
82	0xbe9c7d14	-0.30564177
83	0xbe819b00	-0.25313568
84	0xbeb538ef	-0.35395
85	0xbd733a81	-0.059381966
86	0x3eb090a5	0.34485355
87	0x3e4f94cf	0.2027161
88	0x3ef7da76	0.4840886
89	0xbe624b4c	-0.22099036
90	0xbef441c4	-0.47706425
91	0xbdbbf63f	-0.09177827
92	0xbd03424a	-0.03204564
93	0x3f0403da	0.51568377
94	0x3e8ffbf1	0.28121904
95	0xbe46eb4a	-0.19425693
96	0xbe4c291a	-0.19937554
97	0xbd0f6f67	-0.03501835
98	0xbf084108	-0.5322423
99	0xbf0a9ada	-0.54142535
100	0xbe1cb857	-0.15304695
101	0xbf0f99ed	-0.5609425
102	0x3ee9afe9	0.4564202
103	0xbf1fd348	-0.62431765
104	0x3ed29127	0.41126367
105	0xbcabca0e	-0.02097037
106	0x3f005e1e	0.5014361
107	0xbef43604	-0.4769746
108	0xbe5c4776	-0.21511635
109	0x3f03a94c	0.514302
110	0x3f00f954	0.50380445
111	0xbc1bc1d4	-0.009506661
112	0xbedd4ef3	-0.43224296
113	0xbe9eabb4	-0.30990374
114	0x3ee3a634	0.4446274
115	0x3c87882e	0.016544428
116	0xbeaf39ec	-0.34223878
117	0xbed67855	-0.4188868
118	0xbe91f0e7	-0.28504106
119	0xbe28d914	-0.16489059
120	0x3eb50ff7	0.35363743
121	0x3e13dfa9	0.14440788
122	0xbef5fd39	-0.48044756
123	0xbe5b0163	-0.21387248
124	0x3e05d657	0.13070045
125	0x3f28819b	0.6582276
126	0xbebca346	-0.36843318
127	0x3d1ccff5	0.03828426
128	0xbeb9abc7	-0.36263868
129	0xbee22ec6	-0.4417631
130	0xbd0366bc	-0.032080397
131	0xbebea0bd	-0.3723201
132	0x3f195e82	0.5990983
133	0xbda9601b	-0.08270284
134	0x3da9b454	0.08286348
135	0x3e9a90c1	0.30188563
136	0x3e247b2b	0.1606261
137	0x3f0913ce	0.53545845
138	0xbe8a678d	-0.27032128
139	0x3ea8a498	0.32938075
140	0xbe0849bf	-0.13309382
141	0xbed65051	-0.41858152
142	0x3f15d277	0.5852427
143	0xbdfe4d80	-0.12417126
144	0x3e772169	0.24133839
145	0x3d63e211	0.055635516
146	0xbdde51ff	-0.10855483
147	0x3ed25f53	0.41088352
148	0xbf0c7783	-0.5486986
149	0xbe0bfc3d	-0.1367044
150	0x3f08bc0b	0.5341193
151	0xbedc6208	-0.43043542
152	0x3d3164ff	0.043309208
153	0x3eea1950	0.45722437
154	0xbf1052be	-0.56376255
155	0x3e835e91	0.25658086
156	0x3ea7b0eb	0.32752165
157	0x3efd51f2	0.49476582
158	0xbeb151eb	-0.3463281
159	0x3e08a528	0.13344252
160	0x3f2df270	0.67948055
161	0xbe937b4f	-0.28805014
162	0xbef0ce58	-0.47032428
163	0xbe49ed98	-0.19719541
164	0x3ec416fb	0.38298783
165	0x3d1a03af	0.03760117
166	0xbf093c8b	-0.53608006
167	0x3e3ea9f3	0.18619518
168	0xbef22178	-0.4729116
169	0xbe86f0ae	-0.263555
170	0xbed782d5	-0.42092004
171	0xbf0fce3a	-0.5617405
172	0x3e1cf4c3	0.15327744
173	0xbeb72c6d	-0.35776082
174	0xbeaa09a6	-0.33210486
175	0xbc5610ef	-0.013065561
176	0xbe4135ab	-0.18868129
177	0x3e2f80d6	0.17138991
178	0x3d332a01	0.04374123
179	0xbf10f79b	-0.56627816
180	0x3cbd8cb4	0.023138382
181	0x3e3b4fd3	0.1829217
182	0xbe702093	-0.23449926
183	0x3ee4d665	0.4469482
184	0x3eae5c7b	0.34054932
185	0x3e81ad73	0.25327644
186	0xbe315d55	-0.1732076
187	0xbe5fd407	-0.21858226
188	0xbdd2caba	-0.10292573
189	0xbee11444	-0.43960774
190	0xbda78d6f	-0.08181273
191	0x3ec35aa2	0.38155085
192	0xbee882d5	-0.45412317
193	0x3d7ef0cd	0.062241364
194	0x3e8856ca	0.26628715
195	0xbe3fce5b	-0.18731062
196	0x3f102287	0.56302685
197	0x3efff8ad	0.49994412
198	0xbe7a5d12	-0.24449566
199	0x3f1371f4	0.57595754
200	0xbbac8096	-0.005264352
201	0x3e1c8d16	0.15288195
202	0x3f052cbc	0.52021384
203	0xbdca900c	-0.09890756
204	0x3e5866f1	0.21133019
205	0xbb9024c4	-0.004398914
206	0xbed27cd0	-0.4111085
207	0x3cf311e8	0.029671624
208	0xbede44ef	-0.43411967
209	0xbca7acc9	-0.020468133
210	0x3e94efb5	0.29089132
211	0xbeecedd6	-0.46275204
212	0xbde4cae3	-0.1117151
213	0x3ea5ec3b	0.32406792
214	0xbced18a7	-0.02894242
215	0x3eb9d1dd	0.36292925
216	0x3e353f1e	0.17699859
217	0x3f131843	0.57458895
218	0x3db71111	0.08938802
219	0xbc61ae02	-0.013774397
220	0x3ea606fa	0.32427198
221	0x3d4f6887	0.050636794
222	0xbd57dc5f	-0.052700397
223	0x3f0f8c05	0.5607303
224	0xbdb01c45	-0.08599142
225	0xbe9ccc32	-0.3062454
226	0xbe9d8bad	-0.30770627
227	0xbea57d70	-0.32322264
228	0x3f2445b7	0.64168876
229	0xbeac64b0	-0.33670568
230	0x3de76437	0.11298411
231	0xbea7cffd	-0.3277587
232	0xbe372b62	-0.17887643
233	0x3edce832	0.431459
234	0x3dbcb8c7	0.09214931
235	0xbed83969	-0.422313
236	0x3da3100c	0.07962045
237	0xbd3d7486	-0.046253704
238	0xbe9cb448	-0.30606294
239	0xbee46a75	-0.4461247
240	0x3e01f4cc	0.12691039
241	0x3eb4e81f	0.35333344
242	0x3f0ad376	0.54228914
243	0x3ef912c4	0.4864713
244	0xbf12f512	-0.574052
245	0x3eae5fff	0.34057614
246	0xbe9b7bb1	-0.30367807
247	0xbe778f21	-0.24175693
248	0x3e982a07	0.29719564
249	0x3dc08ff8	0.0940246
250	0xbe5e14e4	-0.21687657
251	0xbec6ef1e	-0.38854307
252	0x3dd23e73	0.102658175
253	0xbe95c160	-0.29249096
254	0x3f1c569c	0.61069655
255	0x3e7a620f	0.24451469

linear1.bias f4 [100]
0	0xbec27f86	-0.37987918
1	0xbe96b508	-0.2943499
2	0xbee258cb	-0.4420837
3	0xbe378afc	-0.17924112
4	0xbf164a2a	-0.58706915
5	0xbf28a3b2	-0.6587478
6	0xbf055d29	-0.52095276
7	0x3ee29ae0	0.44258785
8	0xbeae1729	-0.34002045
9	0x3eadfeca	0.3398345
10	0xbee8a236	-0.45436257
11	0xbd92652d	-0.07148204
12	0xbde2cb2a	-0.11073907
13	0x3d24ad8a	0.040204562
14	0xb911da65	-0.00013909636
15	0x3f253de8	0.64547586
16	0x3e2c489c	0.16824573
17	0xbef16092	-0.4714399
18	0xbeb868b9	-0.36017397
19	0xbd6b9697	-0.05751666
20	0x3f0fa823	0.5611593
21	0x3f1aa86a	0.6041323
22	0x3f33aba5	0.70183784
23	0xbead7306	-0.33876818
24	0x3d00d818	0.031456083
25	0x3f04cbe6	0.51873624
26	0x3f1d0c78	0.6134715
27	0x3e9ed2a0	0.3102007
28	0xbda29db2	-0.07940234
29	0xbe1f4830	-0.15554881
30	0xbeb1eb15	-0.34749666
31	0x3ef048e2	0.46930605
32	0x3e76bbf1	0.24095131
33	0xbcd97b9e	-0.026548203
34	0x3db0a358	0.08624905
35	0x3ec2cb05	0.38045517
36	0xbd562725	-0.052283425
37	0x3f0dedd0	0.55441
38	0x3e3542f5	0.17701323
39	0x3e7f38da	0.24924031
40	0x3e8fd979	0.28095606
41	0x3c8803a6	0.016603302
42	0x3e0b5ce4	0.13609654
43	0x3e9d6afa	0.3074568
44	0x3ef4a423	0.47781476
45	0xbebc119e	-0.3673219
46	0xbe9690c3	-0.2940732
47	0x3e70e1a5	0.23523577
48	0xbee840d6	-0.45361966
49	0xbe82d0b2	-0.25549847
50	0x3ebfeb57	0.37484238
51	0xbe5ff7a4	-0.21871811
52	0xbe8c2bc6	-0.27377146
53	0xbeaa171f	-0.33220765
54	0x3f09e230	0.5386076
55	0xbe9f6d12	-0.31137902
56	0x3e91a3af	0.28445193
57	0x3ee3de07	0.4450533
58	0xbe88e844	-0.26739705
59	0xbda503f6	-0.08057396
60	0xbf006476	-0.5015329
61	0x3f1fe279	0.62454945
62	0x3e5dcd7f	0.21660422
63	0x3ecfb012	0.40564018
64	0x3de4f539	0.11179585
65	0xbd914a98	-0.07094306
66	0x3eed186e	0.463077
67	0x3ef76b35	0.4832398
68	0xbe8f0322	-0.27932078
69	0x3f040a9f	0.51578707
70	0x3ee65e25	0.44993702
71	0xbea99274	-0.33119547
72	0xbef82166	-0.4846298
73	0x3ed3f615	0.41398683
74	0xbdefc98f	-0.11708366
75	0xbecf77f0	-0.40521193
76	0xbe631973	-0.22177677
77	0x3f11a1a9	0.568873
78	0xbc23253b	-0.009957607
79	0x3dd5e7fa	0.10444637
80	0x3ebd1e48	0.36937165
81	0xbea87c31	-0.3290725
82	0x3edeaca7	0.43491098
83	0x3d82e298	0.063908756
84	0x3e306083	0.17224316
85	0xbe01f487	-0.12690936
86	0x3f08d58f	0.53450865
87	0x3e43b201	0.19110872
88	0xbe9df430	-0.30850363
89	0xbf089a2f	-0.53360265
90	0xbebb4f89	-0.36584118
91	0xbeb4b55f	-0.35294625
92	0xbe8a5925	-0.27021137
93	0x3e1410e3	0.14459567
94	0xbe464053	-0.19360475
95	0xbe7acffd	-0.24493404
96	0x3e8003f1	0.25003007
97	0x3e855e3f	0.26048467
98	0x3d783ab5	0.060602862
99	0x3cc95004	0.024574287

linear2.weight f4 [100, 100]
0	0xbcdd4400	-0.027009964
1	0x3e4421b3	0.1915348
2	0x3dbd1b32	0.09233703
3	0x3d261927	0.04055133
4	0xbdff662b	-0.12470659
5	0x3e5376d6	0.20650801
6	0xbdc538d7	-0.09629982
7	0x3e332431	0.17494275
8	0xbe19df74	-0.15026647
9	0xbceadd87	-0.028670086
10	0xbdccbd47	-0.09997039
11	0x3d048b7a	0.032359578
12	0x3e8622b6	0.26198357
13	0x3c269327	0.01016692
14	0xbd987023	-0.074432634
15	0xbe36e16c	-0.17859429
16	0xbe51a048	-0.20471299
17	0x3d27d617	0.040975656
18	0xbb40713c	-0.0029364368
19	0x3d87fdfd	0.06640241
20	0xbd5235a4	-0.051320687
21	0xbd838e32	-0.06423606
22	0xbe1b4df2	-0.15166453
23	0x3c5883da	0.01321503
24	0xbcc623f3	-0.024187064
25	0x3df23b9f	0.11827778
26	0x3c1bd434	0.009511042
27	0xbc65e8b1	-0.014032529
28	0x3d1c14fa	0.038105942
29	0xbe205a6a	-0.1565949
30	0xbdbf3a02	-0.09337236
31	0x3d2cdb92	0.042201586
32	0x3d500e0a	0.05079464
33	0x3ca422e0	0.020036161
34	0x3e0b339e	0.13593909
35	0xbe808a67	-0.25105593
36	0x3d1e550a	0.03865532
37	0x3dc5ac4d	0.096520044
38	0x3cc1f8e8	0.023678258
39	0xbc543a0d	-0.0129532935
40	0xbe6f1f8f	-0.23351882
41	0x3de3f312	0.11130346
42	0xbd938e98	-0.07204932
43	0x3d3de2c7	0.04635885
44	0x3dfec8b2	0.12440623
45	0x3c8142f1	0.01577899
46	0xbda57c83	-0.08080389
47	0xbe21a894	-0.15786964
48	0xbd9125d2	-0.07087292
49	0x3ced4fc0	0.028968692
50	0x3dacc696	0.08436315
51	0xbf07dca7	-0.53071064
52	0xbea09a52	-0.31367737
53	0xbe318a7b	-0.17337982
54	0x3e97a102	0.29615027
55	0xbcdd1113	-0.02698568
56	0xbd431cc0	-0.04763484
57	0xbd30c85a	-0.04315982
58	0xbd916825	-0.07099942
59	0x3d5f2107	0.054474857
60	0xbd925f9d	-0.07147143
61	0xbd486fdf	-0.048934814
62	0xbcccd1b3	-0.025002336
63	0x3db2662a	0.087108925
64	0xbe17a846	-0.14810285
65	0xbc6fbef8	-0.014632933
66	0x3d643f05	0.055724163
67	0xbc963b3c	-0.018338792
68	0x3db9c0ad	0.09069953
69	0x3d6ff01b	0.05857859
70	0x3d01b9a7	0.031671192
71	0x3e54fff5	0.20800765
72	0xbd132ce2	-0.035931475
73	0x3bec51b1	0.007211887
74	0xbdf54756	-0.11976497
75	0x3d8ca150	0.068667054
76	0x3e15c4ad	0.14625807
77	0x3e520b42	0.20512107
78	0xbd0efd73	-0.034909677
79	0xbd7e73ca	-0.062122144
80	0x3e0740ba	0.13208285
81	0xbecbbb1b	-0.39791188
82	0x3e5095aa	0.20369592
83	0xbcb53247	-0.0221187
84	0x3e1b1f63	0.15148692
85	0x3cddf1a7	0.027092768
86	0x3e1b39ff	0.15158843
87	0xbd88ad9c	-0.06673738
88	0xbdabbcaf	-0.08385598
89	0x3d222127	0.039582398
90	0xbad28800	-0.001606226
91	0x3e04f1ac	0.12982816
92	0x3da45d48	0.080256045
93	0xbdc0f360	-0.0942142
94	0xbb7f419c	-0.0038949018
95	0x3ee1df6c	0.4411577
96	0xbd107c28	-0.035274655
97	0xbeba622d	-0.36403027
98	0xbd581a3d	-0.052759398
99	0xbd2da140	-0.042390108
100	0x3daa5ca5	0.08318452
101	0x3e0180b4	0.12646753
102	0xbdb2f345	-0.08737806
103	0xbd54f1f0	-0.051988542
104	0x3e0354be	0.12825295
105	0x3e5fb19a	0.21845093
106	0x3d14c667	0.036322024
107	0x3e0bb47b	0.13643067
108	0xbe33f863	-0.17575221
109	0xbd50afab	-0.05094878
110	0x3cc4b0e7	0.024010135
111	0xbcf06b80	-0.029348135
112	0x3ea45c31	0.32101586
113	0x3da25d88	0.07927996
114	0x3dc8e8a3	0.09809997
115	0xbdd59e46	-0.10430579
116	0xbdf04e62	-0.117337
117	0x3d9a05f5	0.075206675
118	0xbc22183f	-0.009893476
119	0x3e3f6988	0.186926
120	0xbd4dc870	-0.05023998
121	0xbb76ac59	-0.0037639348
122	0xbe0b10cc	-0.13580626
123	0x3d266443	0.04062296
124	0xbcb6d4da	-0.022318292
125	0x3d112ba4	0.03544201
126	0xbde6c69c	-0.112683505
127	0xbe6bc6c9	-0.2302505
128	0x3d36da93	0.044642042
129	0xbdc8850b	-0.09791001
130	0xbd16a2ad	-0.036776233
131	0x3a9c8742	0.0011942165
132	0xbce44b67	-0.027867986
133	0xbd4ddbbd	-0.050258387
134	0x3d74c264	0.059755698
135	0xbe63c2c9	-0.22242273
136	0x3d1b054b	0.037846845
137	0xbd9d9deb	-0.07696136
138	0xb9ff053a	-0.00048641284
139	0x3c6bdfcd	0.01439662
140	0xbdae4893	-0.08509936
141	0x3e5842a0	0.21119165
142	0xbd84fcaf	-0.06493508
143	0xbd9b7743	-0.07591107
144	0x3dff030b	0.12451752
145	0x3d2143b1	0.039371196
146	0xbdb04d98	-0.0860855
147	0x3d56ee95	0.052473623
148	0x3dbb8ea0	0.09158063
149	0x3c8d0753	0.017215407
150	0x3e0547dd	0.13015695
151	0xbed0e90f	-0.4080281
152	0xbe83819f	-0.2568483
153	0xbe2fb747	-0.17159759
154	0x3e010ce0	0.12602568
155	0x3b34ca9a	0.002758658
156	0x3c4df10d	0.012569678
157	0x3d6d0ec0	0.057875395
158	0xbbcb87b3	-0.006211245
159	0xbdbed84a	-0.093185976
160	0xbdb46583	-0.08808424
161	0x3dbbb873	0.0916604
162	0x3d8e1e2a	0.06939347
163	0x3e8296f6	0.255058
164	0x3d7a7f95	0.061156828
165	0x3de4bbb6	0.111686155
166	0xbdbd5128	-0.09243995
167	0xbc148044	-0.009063784
168	0x3d6d5853	0.05794556
169	0xbdc5fd80	-0.09667492
170	0x3cf3c985	0.029759178
171	0x3e44cf22	0.1921964
172	0x3bcfee05	0.006345513
173	0x3d224853	0.039619755
174	0xbe0ac688	-0.13552296
175	0x3dc6c25a	0.09705038
176	0xbd418b11	-0.047251765
177	0x3e53a48a	0.20668235
178	0x3c3d0d33	0.0115387915
179	0xbd8f1a8f	-0.069874875
180	0x3af61e83	0.0018777404
181	0xbed5f9ee	-0.41792244
182	0x3eb4c73f	0.35308263
183	0xbdc69098	-0.09695548
184	0x3e2fb41b	0.17158549
185	0x3d45cd4d	0.048291493
186	0x3a95c4be	0.0011426432
187	0xbceee150	-0.029160172
188	0x3d6bc653	0.057562184
189	0xbae9459a	-0.0017797232
190	0x3d238c1d	0.039928544
191	0x3e4e3c0b	0.20140092
192	0x3d1fb173	0.03898759
193	0xbda65d42	-0.08123256
194	0x3cbb0a62	0.0228321
195	0x3ed7331c	0.4203118
196	0xbe27e5b6	-0.16396222
197	0xbea4c289	-0.3217967
198	0xbc5dbb33	-0.013533401
199	0xba0ac400	-0.00052934885
200	0x3d1a643d	0.03769325
201	0xbc18d316	-0.009327671
202	0xbdba1573	-0.09086122
203	0xbd009190	-0.03138882
204	0xbe0a703d	-0.13519378
205	0xbe0ba9ff	-0.13639067
206	0x3cf8b7b3	0.030361032
207	0x3d84be26	0.064815804
208	0xbe1e7eca	-0.15478054
209	0xbd98a4ba	-0.07453294
210	0x3d2fd7dd	0.042930473
211	0x3d9d3a42	0.076771274
212	0xbe58abf9	-0.21159352
213	0xbd14030d	-0.036135722
214	0x3c6ba91a	0.014383579
215	0x3ef4462f	0.47709796
216	0x3dfb5c3f	0.12273454
217	0xbd2b42f0	-0.041811883
218	0x3dc9a465	0.09845809
219	0xbdcbf706	-0.09959225
220	0x3e66e349	0.2254764
221	0x3d11a3c1	0.03555656
222	0x3f2387b8	0.63878965
223	0x3c1d8cda	0.009616101
224	0xbdca44cd	-0.09876404
225	0x3d3a6ded	0.04551499
226	0x3dccc348	0.099981844
227	0x3e5dad47	0.21648131
228	0xbc936d8d	-0.017996574
229	0xbdce9614	-0.10087219
230	0xbdc0f0ba	-0.09420915
231	0x3df987d7	0.121841125
232	0xbd99bcbb	-0.075067006
233	0xbc3006e7	-0.010743833
234	0x3ddd4cb0	0.108056426
235	0x3db3e68e	0.08784209
236	0xbe0bb446	-0.13642988
237	0xbc9d1f40	-0.01917994
238	0x3dc4b827	0.09605437
239	0x3daeee02	0.0854149
240	0x3c8d47eb	0.017246207
241	0x3d22ce38	0.039747447
242	0xbd63fa3a	-0.055658557
243	0xbd86ee9b	-0.06588479
244	0x3d2f5364	0.042804137
245	0xbe0ae7e3	-0.1356502
246	0xbd18f07a	-0.03733871
247	0x3d5cc5c8	0.053899556
248	0xbdb3b98b	-0.08775624
249	0xbd96266f	-0.073315494
250	0xbc8acb51	-0.016942652
251	0xbdd36426	-0.10321836
252	0xbe2cd216	-0.16877016
253	0xbdc39527	-0.09549933
254	0x3e2f5542	0.17122367
255	0xbc97d647	-0.018534793

linear2.bias f4 [100]
0	0x3d8e1557	0.06937664
1	0x3d5aaa20	0.0533849
2	0x3de91456	0.11380832
3	0xbc298235	-0.010345985
4	0xbdc28420	-0.09497857
5	0xbde0469b	-0.10950967
6	0xbbca47f9	-0.0061731306
7	0xbc9140c7	-0.017731084
8	0x3c8082cd	0.01568737
9	0x3e0de44d	0.13856621
10	0xbd45a44d	-0.048252393
11	0xbd6e7fca	-0.058227338
12	0xba8c60f1	-0.0010710043
13	0x3d3c6d9d	0.046002973
14	0x3ddc01d3	0.107425354
15	0x3b6804d7	0.0035403275
16	0x3dbeff8e	0.09326087
17	0xbdfe179e	-0.12406848
18	0x3d17e93d	0.037087668
19	0x3d84191c	0.06450102
20	0x3d6258c4	0.055260435
21	0xbca841ad	-0.02053913
22	0xbc77badf	-0.015120237
23	0xbb4d7d33	-0.0031355142
24	0x3d28e40d	0.04123311
25	0x3e1aea4f	0.15128444
26	0x3c98d61d	0.018656785
27	0x3da01d57	0.07818096
28	0x3e1f3c80	0.15550423
29	0xbd94de43	-0.072689556
30	0x3e2620f0	0.16223502
31	0xbd58d35b	-0.05293594
32	0xbd6f10b7	-0.05836555
33	0x3e25d523	0.16194586
34	0xbe07248d	-0.13197537
35	0xbd9f2612	-0.07770933
36	0x3da6dbdb	0.08147403
37	0xbdc6d803	-0.0970917
38	0xbccf82a0	-0.025330842
39	0x3dbd69b2	0.092486754
40	0x3d9b2c0f	0.07576763
41	0x3dfd2059	0.123596855
42	0x3e241d3e	0.1602678
43	0x3defbcfe	0.11705969
44	0xbb436e9a	-0.0029820562
45	0xbb52ed33	-0.0032184839
46	0x3cd18181	0.025574448
47	0xbdc54d58	-0.09633893
48	0xbce27874	-0.027645327
49	0x3d84ed18	0.064905345
50	0x3d45a894	0.04825647
51	0xbc126840	-0.008935988
52	0xbd868345	-0.065680064
53	0x3c178f39	0.009250456
54	0x3c9b5b25	0.01896436
55	0x3dbe8f35	0.09304658
56	0xbdca7760	-0.0988605
57	0x3e19cdf5	0.15019973
58	0x3d859b6c	0.06523785
59	0xbcf51b04	-0.029920109
60	0xbc2a450b	-0.010392438
61	0xbc8769c6	-0.016529929
62	0xbe02a439	-0.12757958
63	0x3d54e9a5	0.051980633
64	0xbc51c09a	-0.012802267
65	0x3daac8f1	0.08339108
66	0x3de8f1bf	0.113742344
67	0x3dd09aa5	0.10185746
68	0xbdc90ac7	-0.09816509
69	0x3d886e4c	0.066616625
70	0x3ce99e00	0.028517723
71	0xbcafd6e0	-0.021464765
72	0xbdaa121d	-0.08304236
73	0x3dd78123	0.10522678
74	0xbdb26fbb	-0.08712717
75	0x3d569fcd	0.05239849
76	0x3d288f93	0.041152548
77	0xbcd920dc	-0.026504926
78	0x3bd127ec	0.006382933
79	0xbd3ea057	-0.04653963
80	0xbb238ad9	-0.0024954586
81	0x3cfd9ee0	0.030959547
82	0x3d938490	0.07203019
83	0xbc59b76b	-0.013288359
84	0xbdaa5ea5	-0.08318833
85	0x3dffe880	0.12495518
86	0xbd13cbd0	-0.036083043
87	0xbd58f27d	-0.05296563
88	0x3e146198	0.14490354
89	0x3e2d7880	0.16940498
90	0x3e10330e	0.14081976
91	0xbdca8bbb	-0.09889933
92	0x3e210c5a	0.15727368
93	0xbd994260	-0.07483363
94	0x3d9f52f3	0.07779493
95	0xbdb454d5	-0.08805243
96	0x3c2be100	0.010490656
97	0xbd87cea7	-0.06631213
98	0x3d3c86ae	0.046026878
99	0xbbd470b3	-0.0064831614

linear3.weight f4 [3, 100]
0	0xbbf83df1	-0.0075757434
1	0x3cdcb45c	0.02694147
2	0xbdb786bd	-0.08961246
3	0x3b4741c2	0.0030404185
4	0x39fd6f89	0.0004833902
5	0x3cef6f0d	0.029227758
6	0x3d05626d	0.03256457
7	0x3a15aec9	0.0005709944
8	0xbab99038	-0.001415736
9	0xbdb299f3	-0.0872077
10	0x3b40313d	0.0029326223
11	0x3ad5211e	0.001626048
12	0x3de417bf	0.11137342
13	0xbaa00c5e	-0.0012210717
14	0xbcdf67b4	-0.02727113
15	0xba0a18b1	-0.00052679615
16	0xbcf61fe2	-0.0300445
17	0x3db2af96	0.087248966
18	0x3b1edf26	0.0024241894
19	0xbd58d782	-0.0529399
20	0xbd52a093	-0.051422667
21	0x3afe5ff8	0.0019407263
22	0xbdf72419	-0.12067432
23	0x3ae69dc5	0.0017594626
24	0x3adb3e98	0.0016727028
25	0x3c56a150	0.013099983
26	0x3d9ca51e	0.07648681
27	0x3b2ad8d5	0.0026069183
28	0xbdcbe828	-0.0995639
29	0x3acc4fbe	0.001558773
30	0x3c0d43d8	0.008622132
31	0xbe0b99f4	-0.13632947
32	0x3d9a11cf	0.07522928
33	0xbebdf23d	-0.37098876
34	0x3dcdc9da	0.10048266
35	0x3bd0f5cf	0.006376959
36	0xbabc0923	-0.0014345985
37	0xbb429cf5	-0.0029695604
38	0xbaa88cc0	-0.001285933
39	0xbdc160ff	-0.09442329
40	0x3b3a4ba8	0.0028426442
41	0xbd8d931e	-0.06912826
42	0xbdf4a028	-0.1194461
43	0xbd8485e7	-0.06470852
44	0x3a90f573	0.0011059478
45	0xba715adf	-0.0009206961
46	0x3d259ea8	0.04043451
47	0x3a7c3e17	0.0009622289
48	0x3de3d0f7	0.11123841
49	0x3b009bd6	0.0019624135
50	0x3d9921e2	0.07477166
51	0xb7c6bdb2	-2.3691773e-05
52	0x3d389902	0.045067795
53	0x3c1ee4fe	0.009698151
54	0x3dd5cbb1	0.10439242
55	0xbab166bf	-0.0013534649
56	0xbac16c46	-0.0014757
57	0xbd2f77d9	-0.042838905
58	0x3d32da1d	0.04366504
59	0x3ddaeb33	0.10689392
60	0xbd8c87f7	-0.06861871
61	0xbcdcc01c	-0.026947074
62	0x3dd545c7	0.104136996
63	0xba954159	-0.0011387273
64	0xb9aa5f71	-0.00032496036
65	0xbdaef278	-0.08542341
66	0xbd99d7c0	-0.07511854
67	0xbeed5648	-0.4635489
68	0x3d962756	0.073317215
69	0xbe09663c	-0.13417906
70	0xba9c2f5d	-0.0011915971
71	0xbabe81f5	-0.001453458
72	0xbb394c47	-0.0028274225
73	0x3c54803a	0.012970025
74	0x3da8a1bc	0.082339734
75	0x39960d71	0.00028620244
76	0xbaa040e4	-0.001222637
77	0x3d5d7b0c	0.054072425
78	0xbdd66152	-0.10467781
79	0xbb33e666	-0.002745056
80	0x3dad2d8b	0.08455952
81	0xbc859934	-0.016308405
82	0x3b268e0f	0.0025414263
83	0xba106585	-0.00055082917
84	0x3dcb8bf3	0.099388026
85	0xbd176bef	-0.036968168
86	0xbb3825d5	-0.0028098722
87	0xbabe7521	-0.0014530757
88	0x3c01eae5	0.007929538
89	0xbe07f84c	-0.13278311
90	0xbdbd6d1a	-0.09249325
91	0xba4ef1cb	-0.00078943063
92	0xbdb4da31	-0.08830679
93	0x3ec91fe0	0.3928213
94	0xbd7d8cdd	-0.061901916
95	0x3b0eed54	0.002180894
96	0x3a9ac2af	0.0011807288
97	0x3db3bd6b	0.08776363
98	0xbd69bb53	-0.057063412
99	0xbe7b28d9	-0.24527301
100	0xbdfd43bf	-0.12366437
101	0xbe176402	-0.14784244
102	0xbc1d14ba	-0.009587461
103	0x39ca203e	0.00038552465
104	0x3a1576d1	0.0005701604
105	0xbda2f977	-0.07957738
106	0x3daec6c5	0.08534006
107	0xbb1010d1	-0.002198268
108	0xbad76932	-0.0016434549
109	0x3d2fa4b9	0.0428817
110	0xbb43d833	-0.0029883503
111	0xbb10ec25	-0.002211341
112	0x3de4cdf8	0.11172098
113	0xba8f0100	-0.0010910332
114	0x3e31d1de	0.17365214
115	0xbb1e45f2	-0.0024150577
116	0x3e166155	0.14685567
117	0x3cd758cc	0.026287459
118	0xbb3c6589	-0.0028747043
119	0x3e16a6f4	0.14712125
120	0x3d11d4e2	0.03560341
121	0x3984b72b	0.00025313473
122	0x3dd00af6	0.10158341
123	0xbaae167d	-0.0013281849
124	0xbb134bd7	-0.0022475624
125	0x3e1517a4	0.145598
126	0x3dc27ae6	0.09496097
127	0x3b059d74	0.0020388039
128	0xbe0a9996	-0.13535151
129	0xbb23f1be	-0.0025015916
130	0x3e15de3d	0.14635558
131	0x3e0e4f2a	0.13897386
132	0x3d224ab7	0.039622035
133	0x3ed7bf77	0.42138264
134	0x3db46be5	0.08809642
135	0xbe3e7020	-0.1859746
136	0x3ab85851	0.0014064406
137	0xbb05061c	-0.002029783
138	0x3b1d7cec	0.0024030758
139	0xbdee804f	-0.11645567
140	0xba525bae	-0.00080245256
141	0xbd498f1a	-0.049208738
142	0xbe01728a	-0.1264135
143	0xbd9f9b59	-0.07793302
144	0x3a5d9144	0.0008452127
145	0x39bae113	0.00035644378
146	0x3c877d08	0.016539112
147	0xba455a4e	-0.000752841
148	0x3d315019	0.043289278
149	0x3a43f8b6	0.00074757205
150	0x3e089566	0.13338241
151	0xba60f5a8	-0.00085815275
152	0x3d8d42ea	0.068975285
153	0x3e121944	0.1426745
154	0x3c06bc75	0.008223643
155	0x3af3e682	0.0018608125
156	0xbb2dbb98	-0.002650952
157	0x3e1317e7	0.14364587
158	0x3e068e1b	0.13140146
159	0x3e06adeb	0.13152282
160	0x3da3f429	0.08005554
161	0x3e034b0b	0.12821595
162	0x3dc7bf3c	0.09753272
163	0x3870fdf2	5.7456964e-05
164	0x3b0cffb3	0.0021514713
165	0xbe2098bb	-0.15683262
166	0xbd20a396	-0.039218508
167	0x3eed22f4	0.4631573
168	0x3dc7b9db	0.09752246
169	0xbe3a99f7	-0.18222795
170	0xba9e06b3	-0.001205644
171	0xbb15fb32	-0.002288532
172	0xbacba49c	-0.0015536728
173	0xbe25dc15	-0.16197236
174	0x3defe5f2	0.117137805
175	0x3ac6c74c	0.0015165596
176	0x3a636d81	0.000867568
177	0xbda33f3f	-0.079710476
178	0x3d9f6d1f	0.07784485
179	0xbb3ab450	-0.0028488822
180	0x3d5e9cde	0.05434882
181	0xbdf71cf8	-0.12066072
182	0x38ecd71b	0.000112934234
183	0x3996f8e8	0.0002879568
184	0x3dc9371b	0.09824964
185	0xbddd0f62	-0.1079395
186	0x3a3b04c9	0.0007134197
187	0x3a82a2ca	0.0009966728
188	0x3c973cb1	0.018461557
189	0xbe4b5696	-0.19857249
190	0xbdf74d48	-0.12075287
191	0x3a3d4c27	0.00072211254
192	0xbe05833f	-0.13038348
193	0xbeb3554d	-0.35026017
194	0xbdf330a4	-0.11874512
195	0xbb07699b	-0.002066231
196	0x3a4f56b6	0.0007909344
197	0x3e017809	0.12643446
198	0x3d2ea5e1	0.042638663
199	0x3dc4e79a	0.09614487
200	0x3d8ee27c	0.06976792
201	0x3dcae89c	0.09907648
202	0xbda80e7f	-0.0820589
203	0xb91e5eac	-0.00015103322
204	0x3b206d4c	0.0024479209
205	0x3da70f93	0.081572674
206	0x3dd09ccd	0.101861574
207	0xba924c37	-0.001116163
208	0xba795296	-0.00095109025
209	0xbd2cbe3b	-0.042173605
210	0x3991b49c	0.0002779112
211	0x3b0bdf23	0.0021342717
212	0x3e1c4e96	0.15264353
213	0x3b184d72	0.002323952
214	0xbe1bec01	-0.15226747
215	0x39c6a131	0.000378856
216	0xbddbf970	-0.10740936
217	0x3e0ee048	0.13952744
218	0x3b224e05	0.0024765742
219	0xbe1a8e62	-0.15093377
220	0xbe1b9d77	-0.15196787
221	0xbb3d9b18	-0.0028931554
222	0x3ef3d0dc	0.47620285
223	0x3b31c95b	0.0027128074
224	0x3a9cb6c0	0.0011956319
225	0xbe0a6983	-0.13516812
226	0x3e23d08e	0.15997526
227	0x3a0e96ec	0.0005439359
228	0xbe390b90	-0.18070817
229	0x3ac35494	0.0014902526
230	0xbe0e5058	-0.13897836
231	0x3d2d551d	0.0423175
232	0x3e07884d	0.13235588
233	0xbe964eed	-0.2935709
234	0x3e78348c	0.24238795
235	0x3e562782	0.20913509
236	0x3ab668ab	0.0013916692
237	0xbb0e1628	-0.0021680687
238	0xbae87c07	-0.0017737158
239	0xbe400b27	-0.18754254
240	0xbb346489	-0.0027525744
241	0xbe128089	-0.14306845
242	0xbe5ddb1f	-0.2166562
243	0xbe3e1c52	-0.18565491
244	0xba375caa	-0.0006994704
245	0xbb065217	-0.0020495707
246	0xbea9111f	-0.33020875
247	0xb9f6ee08	-0.00047098123
248	0x3e16e824	0.14736992
249	0x3b19f9cb	0.0023494835
250	0xbe03b1c2	-0.12860778
251	0xba02e266	-0.00049928424
252	0x3db1efe7	0.08688336
253	0xbe096ad4	-0.13419658
254	0x3dae19f5	0.08501045
255	0x3b10ff4b	0.0022124823

linear3.bias f4 [3]
0	0xbc97e7f7	-0.018543227
1	0xbc3adefd	-0.011405704
2	0xbcba94c3	-0.022776013
