checkpoints/single-phase/13bus/ddpg/policy_net_checkpoint_a2.pth (torch, 43735 bytes, 5 tensors)

linear1.weight f4 [100, 1]
000000 f2 26 7d 3f a0 b0 0c be de f0 64 bf 0c 32 19 bf
       0.9888755 -0.13739252 -0.89430034 -0.5984199
000010 e8 68 47 bf 64 a3 87 3f 01 9d 17 3f be 25 b7 be
       -0.7789445 1.0596738 0.59223944 -0.35770983
000020 cd a7 c9 be 94 a1 1e bf b9 5c 48 bf 00 a8 90 3e
       -0.39385834 -0.619653 -0.78266484 0.28253174
000030 7d 3c 32 bf f3 63 f4 be 4a 29 03 bf 6e 05 34 3f
       -0.6962355 -0.47732505 -0.5123488 0.70320785
000040 0d 42 10 3f 6a 4b 98 3e aa 08 2c be fc b9 2d bf
       0.56350785 0.29745036 -0.1680018 -0.67861915
000050 66 6a 11 bf f8 a4 1c 3e 11 84 06 bf 78 dc 15 be
       -0.56802976 0.15297306 -0.5254527 -0.14634883
000060 e1 30 43 3f 50 49 76 be 50 86 77 bf 16 c5 8a 3e
       0.7624646 -0.24051404 -0.9668932 0.2710349
000070 98 86 9e be e6 33 86 3e aa ed 83 3f 30 9a 8d 3d
       -0.30962062 0.2621147 1.0306904 0.069141746
000080 52 35 3c bf 04 46 68 bf a2 7f 5d bf a4 be 16 bd
       -0.7351886 -0.90731835 -0.8652288 -0.036802903
000090 74 d2 04 bf d0 38 0a 3e a8 7f 15 3e 04 aa d6 be
       -0.51883626 0.13498235 0.14599478 -0.41926587
0000a0 dc 74 b0 be 97 76 4e 3f 8b 79 c5 3e 1b 42 06 be
       -0.34464157 0.80649704 0.38569292 -0.13111155
0000b0 cc 18 ff be 00 87 3b bf 08 a3 20 be f1 08 80 3f
       -0.49823606 -0.7325287 -0.15687191 1.0002729
0000c0 52 9b 6f bf 0a e3 6c bf 33 d5 71 3f 52 d7 4a bf
       -0.93596375 -0.92533934 0.9446594 -0.792348
0000d0 b0 60 38 3e da d8 0a 3f 3b e0 1a 3f 1c 21 ab be
       0.18005633 0.5423714 0.604984 -0.33423698
0000e0 bb d6 72 3e 28 e3 97 3e 45 e9 f7 3d f0 4e fc be
       0.23714726 0.29665494 0.121050395 -0.49278975
0000f0 05 c6 bd be 14 e2 18 bf a3 dc db 3e bb 2a 55 3f
       -0.3706514 -0.5971997 0.4294177 0.83268327
000100 08 e0 79 bf 4d 30 50 be d8 de 89 3f d8 87 e2 be
       -0.9760747 -0.20330925 1.0771132 -0.44244266
000110 2c 0d 01 bf 4c 6b aa be f8 98 5f bf b8 3f 0b 3e
       -0.50410724 -0.33284986 -0.87342787 0.13598526
000120 48 4c 85 3f d6 a8 0f bf 24 50 ed be cc 3d 05 3f
       1.0413904 -0.56117 -0.46350205 0.5204742
000130 08 c3 45 3f 90 ae f7 be c7 fb 63 3f 07 e8 be 3e
       0.7725072 -0.48375368 0.89056057 0.37286398
000140 70 68 91 be 6c b8 6c 3f 52 99 92 be 32 76 5c 3f
       -0.28399992 0.92468905 -0.286326 0.8611785
000150 f0 ce 37 be e7 bd 39 be f8 45 72 bf 7e 21 3f bf
       -0.17950034 -0.18138848 -0.94638014 -0.7466048
000160 2d 52 95 3e 5e 32 9c 3e 5f 7b 0d bf 44 0e d5 3e
       0.29164258 0.30507177 -0.55266374 0.41612446
000170 a4 0c e6 be cb c0 7f be 74 b2 3a 3f 9c d7 4f 3f
       -0.4493152 -0.24975888 0.7292855 0.8118837
000180 35 5e 2a 3f 70 16 b6 3d b0 19 d5 be a4 15 1e bf
       0.6655 0.08890998 -0.4162116 -0.6175177

linear1.bias f4 [100]
000000 d0 44 19 bf 4c c7 49 bf ca 7d 03 bf 01 bc 44 3f
       -0.59870625 -0.7881973 -0.51363814 0.7684937
000010 a8 94 f5 3e 38 36 65 3f 3c 2d f1 be 61 92 15 3f
       0.47964978 0.89535856 -0.47104824 0.5842648
000020 6e a0 84 3f 80 11 ef 3d 33 e0 6e 3f 24 eb 00 bf
       1.0361459 0.1167326 0.9331085 -0.50358796
000030 22 5e 65 3f 64 b4 19 3f f0 fb 88 bd bd ac 0c bf
       0.8959676 0.6004088 -0.06688678 -0.5495108
000040 b2 9d e5 be 06 97 36 3f d0 3d f5 3e b8 3a fd be
       -0.44846874 0.71324193 0.47898722 -0.4945886
000050 fd 7b 4c 3f ea ce 30 bf f4 da 73 3f a1 5a 87 3e
       0.7987669 -0.69065726 0.9525597 0.26436332
000060 c0 4d 80 3f 00 b2 e3 3c 24 dc 0e 3f 04 6b 16 3f
       1.0023727 0.027794838 0.5580466 0.5875704
000070 7d 42 29 3f 07 3d 7a 3f c2 39 6a 3f 52 ce 64 bf
       0.6611708 0.9774937 0.9149438 -0.8937732
000080 74 4d e7 3e c0 5d bd 3e 00 82 88 bd 77 79 84 3f
       0.4517628 0.36985588 -0.066654205 1.0349568
000090 02 f0 28 bf 64 f8 8e be 40 b8 bc be 20 08 59 3e
       -0.6599122 -0.27923882 -0.36859322 0.21194506
0000a0 23 4a 36 3f 8a 6a 4e 3e e0 93 46 be 38 6d c6 3e
       0.71206874 0.20157829 -0.19392347 0.38755202
0000b0 8c 95 32 bf e0 c2 b5 bd 3f b2 04 3f 2b 3a 4c bf
       -0.6975944 -0.0887506 0.5183448 -0.7977626
0000c0 d8 27 e8 be c8 14 6f be 83 2c 3c bf 00 70 f9 bb
       -0.45342898 -0.23347771 -0.7350542 -0.0076122284
0000d0 96 b3 5c bf 3b ca 2d 3e 68 2f 6d 3e 72 df 44 bf
       -0.86211526 0.16971676 0.23162615 -0.7690345
0000e0 b4 7d 42 3e 75 1f 55 3f 15 45 a4 3e e0 0c c4 bd
       0.18993264 0.83251125 0.32083955 -0.09572768
0000f0 c4 a3 f2 3e 70 52 73 be c1 0b 49 3e c3 d0 33 3f
       0.47390568 -0.23761916 0.1963339 0.7024042
000100 02 51 3d bf 08 e0 ff 3e f2 81 5c bf 68 53 0b bf
       -0.73951733 0.4997561 -0.8613578 -0.5442414
000110 c0 bd c0 3e a0 98 b8 3d e2 31 5a bf d0 50 42 be
       0.37644768 0.09013486 -0.85232365 -0.1897614
000120 19 07 2c 3f 40 43 39 bf be b4 7b bf a5 7a 0a 3f
       0.6719833 -0.7236824 -0.98322666 0.5409339
000130 83 bf 17 bf e0 53 63 3d 9c ce 5d 3f b9 e6 0a 3e
       -0.592766 0.05549991 0.86643386 0.13564576
000140 78 86 09 be 57 0f 39 bf 9c a8 78 3f f7 f5 db be
       -0.13430202 -0.7228903 0.9713228 -0.42961094
000150 50 30 5c bf 4a ff ee 3e 40 43 77 3e 20 5f 98 3e
       -0.8601122 0.46679145 0.24146748 0.29760075
000160 6f 89 d0 3e 12 66 1b 3f f9 e9 36 3f 1c a6 38 bf
       0.40729854 0.6070262 0.71450764 -0.7212846
000170 30 24 80 3d 05 ca c1 3e 62 2e d1 be dc 53 12 bf
       0.06256902 0.3784944 -0.408557 -0.5715921
000180 36 b8 29 3e 36 c5 2c bf 90 86 83 3e 3c 65 9b 3e
       0.16574177 -0.6748842 0.256886 0.30350673

linear2.weight f4 [100, 100]
000000 5a 90 37 3e 83 4e 63 bd 1a 92 8a 3d 11 29 2f be
       0.1792616 -0.055494796 0.06766148 -0.1710551
000010 85 11 b3 bd 12 ba 9f 3d b3 8a 90 3d 24 ec 6f bd
       -0.08743576 0.07799162 0.07057705 -0.05857481
000020 8c 27 d3 bd 20 d1 99 3d d1 95 13 be ab a6 8b 3d
       -0.10310277 0.075105906 -0.14412619 0.06818899
000030 24 1b 55 be f7 33 d0 bd 98 37 bc 3d 22 08 32 3e
       -0.20811135 -0.101661615 0.09190291 0.17385915
000040 42 e2 ab 3d c9 40 77 3d 57 57 cd bd 93 6a c4 3d
       0.08392765 0.06036452 -0.100264244 0.0959064
000050 6c b7 52 be 67 72 e6 ba 53 b2 00 bd 83 bb f3 bd
       -0.20577782 -0.0017581702 -0.031420063 -0.119009994
000060 32 50 5c 3d 33 62 16 3d 00 5e 86 bc d9 f8 82 3d
       0.053787418 0.036714744 -0.016402245 0.0639512
000070 e3 97 3f 3c 0c 7c 58 3d 6c 72 63 bd 0a 10 bd 3d
       0.011693927 0.052852675 -0.055529043 0.09231575
000080 1a ec 22 bd 58 05 91 bd 07 f5 29 bd 36 1d 46 bd
       -0.039775945 -0.07081097 -0.041493442 -0.0483677
000090 c7 d9 9a bc 0d e0 d8 3c c5 a2 85 3d d3 fa 86 3c
       -0.018902672 0.026474023 0.065251864 0.016477024
0000a0 b8 c7 09 be fd 49 a3 bc d6 26 e7 3c 46 c8 35 bc
       -0.13455093 -0.019932741 0.02821676 -0.011095112
0000b0 bd 30 8a bd 38 1d c9 bd 9d 9b b9 bc aa cd 05 3e
       -0.06747577 -0.09820026 -0.02265721 0.13066736
0000c0 c3 ab 58 bd 72 ba a5 bd 8d f0 a7 3d f0 c8 84 3d
       -0.05289818 -0.08092202 0.08200178 0.06483638
0000d0 2a 48 6e bd 1e f4 ad 3d 33 87 82 3d 07 ba ae 3d
       -0.05817429 0.08493827 0.063734435 0.08531576
0000e0 b7 3d 6c 3c fa 90 cf bd 44 ba 29 bd cf 80 b0 bd
       0.014419011 -0.10135074 -0.041437402 -0.08618318
0000f0 e9 e3 da bd e7 39 e7 bb b5 05 dd 3d a5 7b 6e 3d
       -0.10688002 -0.007056463 0.10792104 0.058223385
000100 5b 2a 90 bd 8c cb 1b bd 70 c8 f9 3d 30 e7 6a 3d
       -0.07039329 -0.038035914 0.121964335 0.057349384
000110 0d d2 b7 bc 33 83 52 3d 0d 82 9a bc 7f c8 9c 3d
       -0.022439027 0.051394653 -0.018860841 0.07655429
000120 f1 d3 77 3d da 15 bf bd 37 9e a5 3d 4e d6 58 bd
       0.060504857 -0.0933034 0.08086818 -0.052938752
000130 a5 b3 59 3e ca 0e 4e bd 6d 0b dd 3d e9 ab f7 3d
       0.21259935 -0.050307073 0.10793195 0.12093336
000140 b0 1d ca 3d ab 64 e1 3d 7e 2b d3 bd 35 43 bf 3d
       0.09868944 0.11005529 -0.1031103 0.093389906
000150 23 84 1b bd db e3 c0 bd 33 ed 71 3c cd 89 a8 3c
       -0.037967812 -0.0941846 0.014766025 0.020573521
000160 43 d6 1e 3d 60 41 6b bd b5 46 cd bd cd fd 71 3d
       0.038778555 -0.057435393 -0.10023252 0.059079934
000170 ed 91 d2 bc d2 ce 43 bd 9d 1a 91 3d 07 2a 35 3e
       -0.025704348 -0.04780466 0.07085154 0.17691813
000180 ab 54 99 3d 7d 72 01 bd 9b cf b7 3d 33 6d d6 bb
       0.07486852 -0.031603325 0.089751445 -0.0065437793
000190 55 86 8d bd cd c2 b9 3b 90 06 c9 3d e7 a1 e0 3b
       -0.069103874 0.005668974 0.09815705 0.0068552378
0001a0 9f 8e bd bd 67 8d fb bc 27 a9 b5 bc cd d1 27 3d
       -0.092557184 -0.030707074 -0.022175385 0.040971566
0001b0 af 91 90 bd d3 aa 9e 3c cd bd ff 3b 57 06 6b bd
       -0.07059037 0.019368565 0.0078046084 -0.057379093
0001c0 38 b2 91 bd c0 29 b6 bd 15 45 b8 3d ba 2f 80 3c
       -0.07114071 -0.08894682 0.08997551 0.015647758
0001d0 95 ba 8b 3d 00 78 f6 bc f3 f0 c0 3d 9d 93 53 bd
       0.06822697 -0.030086517 0.094209574 -0.051654447
0001e0 18 54 86 bd 40 da 1f 3c 40 60 c5 3c 88 0e bc 3d
       -0.06559008 0.009756625 0.024093747 0.09182459
0001f0 c7 7c 91 3c 65 57 9d bd 4a 9c 21 3d 33 f8 28 3b
       0.017759694 -0.07682685 0.03945569 0.0025782704
000200 8f 1f b9 bd a0 02 ea 3c b3 05 90 3d 80 44 d7 bc
       -0.090392224 0.028565705 0.07032337 -0.02627778
000210 8a 21 54 3d 2a ca 9c bd 68 12 aa 3d 58 16 95 3d
       0.051789798 -0.07655747 0.08304292 0.07279652
000220 80 b1 9d 3b 0d 9a c4 bd d0 e8 18 bd 43 b7 aa bd
       0.0048124194 -0.09599695 -0.037331402 -0.08335736
000230 33 d3 69 3c 92 f3 96 bd 93 e5 a4 3d 78 74 b1 bd
       0.014271545 -0.07370676 0.080516 -0.08664793
000240 67 b4 75 3d 7d e9 63 3d 1a 6e 40 bd 8b af c2 3d
       0.0599865 0.055642594 -0.04698 0.095061384
000250 1d 78 0c bd b7 65 7c 3d 9a da e0 3b 73 7d c1 bc
       -0.034294236 0.06162044 0.006861997 -0.02361939
000260 1a 83 bf 3d 03 e3 5c bd 1a 04 b4 3b 03 1a 36 3d
       0.093511775 -0.053927433 0.005493653 0.0444584
000270 9a b4 b5 3d 1d 6f 6a bd 50 da 0b bd 7f 7e 82 3d
       0.08872338 -0.057234872 -0.034143746 0.063717835
000280 13 60 5b 3d 4d 9c 3d bd 33 76 a9 3c 60 02 b7 3c
       0.05355842 -0.04629164 0.020686245 0.02234
000290 0a 17 aa bd b3 1f 7b 3c 90 66 61 3d 4d 8d f0 bb
       -0.083051756 0.015327382 0.05502945 -0.007341063
0002a0 fa 01 93 bd 8d b3 ff 3c 63 01 8d bd b0 8b a2 bd
       -0.071781114 0.031213546 -0.0688503 -0.079367995
0002b0 83 61 38 bd 8d 12 00 bd cd 38 ee 3a 87 76 ba bc
       -0.04501487 -0.03126769 0.0018174887 -0.022761596
0002c0 2a 84 0f 3d 40 a1 11 bc 37 99 67 3d fd 6b 12 3d
       0.03503815 -0.008888543 0.0565426 0.035747517
0002d0 13 2a 86 3c 47 03 96 bc d3 fc 2d bd 6d 3b a5 3c
       0.016377484 -0.01831211 -0.04247744 0.020169938
0002e0 80 4f 3c 3c 9a c5 0e bb 4d 62 97 3b 7d 30 c7 3d
       0.011493564 -0.002178526 0.0046198727 0.09726045
0002f0 33 1b 22 bd 2d 28 12 bd 00 8d 31 bc 0d f4 b1 3c
       -0.03957672 -0.035682846 -0.01083684 0.021722818
000300 43 aa ba bd 7a a2 ec 3c 95 33 be bd 8d c9 bc bc
       -0.09114506 0.028886069 -0.09287182 -0.023045326
000310 a0 c3 99 bd 8f fd a8 bd b3 45 6f bd 95 94 a9 bd
       -0.07508016 -0.082514875 -0.05841608 -0.08280293
000320 05 f4 c9 3d 33 d8 04 bc 9d 41 16 bd 49 1d 20 be
       0.09860996 -0.008108187 -0.036683667 -0.15636171
000330 b3 47 e5 bc 0f 9f 27 3d 6e 22 ab 3d 55 4e bb bd
       -0.02798829 0.040923174 0.08356176 -0.091458
000340 28 fa bd bd 13 25 c1 3c 19 1c 01 be 2d 8d ac bd
       -0.09276229 0.023577249 -0.12608375 -0.08425365
000350 82 58 4f be db d0 26 be 0a 7d c0 bd fa 09 3c 3e
       -0.20248607 -0.1629061 -0.09398849 0.18363181
000360 eb 0a 66 3e 1c 67 86 bd 0e 86 b1 bd 47 b2 e4 bc
       0.22465102 -0.06562635 -0.08668147 -0.02791704
000370 a3 5f ea bb 80 6a 6a 3c 79 74 d7 ba 05 e8 82 bd
       -0.007152514 0.014307618 -0.001643791 -0.063919105
000380 75 6c 2b 3d b3 f4 28 bc b3 00 5b bc 3f 40 76 bc
       0.04185148 -0.010312247 -0.013366866 -0.015029966
000390 88 21 8d bd 3f 62 87 3d 24 9f 29 3d 12 b3 8f 3d
       -0.06891161 0.06610536 0.041411534 0.07016577
0003a0 62 ce c1 3d cd 37 a4 bc 9a a5 11 3d d2 9a 2a 3d
       0.094631925 -0.02004614 0.03555832 0.041651554
0003b0 80 e9 17 bd e3 8d 0c bd 7a 0c a9 bd 97 91 89 bd
       -0.037087917 -0.034315 -0.08254333 -0.06717222
0003c0 46 76 17 be 3b f0 a2 3d 56 61 21 3d c9 35 d6 bd
       -0.14791211 0.079559766 0.039399467 -0.104594775
0003d0 2a f1 0d 3d 67 50 47 3c ea 08 bc bd 1f 08 5f 3e
       0.03465382 0.0121651655 -0.09181388 0.21780442
0003e0 80 d6 eb bc fa 70 a2 bc c5 b0 4a 3e 0d fd 00 bd
       -0.028788805 -0.019829262 0.19793995 -0.031491328
0003f0 67 53 80 bc d2 97 a7 3d e1 a3 eb bb 40 8d b2 3d
       -0.01566477 0.08183254 -0.0071911667 0.087183475

linear2.bias f4 [100]
000000 7a 07 8f bd a5 7a 91 bd 8e 4c 4e bd b7 1e d9 3c
       -0.06983848 -0.07103471 -0.050365977 0.026503904
000010 50 45 b5 bd dc 9e 9a bd 92 4c 7a 3d ca 69 8d bc
       -0.08851111 -0.07549831 0.06110818 -0.017262358
000020 4f d1 35 3d 84 83 5b 3d f2 ec 92 3d fd 68 ed 3c
       0.044389065 0.05359222 0.071741 0.028980726
000030 03 e3 09 3d 00 6c 81 3d f6 59 41 bc 38 f1 47 bc
       0.03366376 0.063194275 -0.0118012335 -0.012203507
000040 3a 29 ce bc 75 8f 82 bd f7 fe a7 bd ed 33 93 3d
       -0.025166143 -0.063750185 -0.082029276 0.071876384
000050 7a a4 f1 bd 6d 31 61 3d ad 89 a8 3d 8d 65 12 3c
       -0.117989495 0.054978777 0.082293846 0.008935344
000060 33 93 d8 3a 6a 15 91 3d da 7e 2a bc 00 dc 0d bb
       0.0016523361 0.070841625 -0.01040622 -0.0021646023
000070 2f 9a 60 3d af e6 97 bd 8a 37 0d 3d 17 2f 01 be
       0.05483454 -0.07417046 0.034476794 -0.1261562
000080 1c 9f a8 3d 87 76 5e 3d d0 cb 58 3d a5 ad c0 bd
       0.08233473 0.054312255 0.052928746 -0.0940812
000090 6f 29 2f 3d ef ee f5 bc dd af c0 bd 77 16 96 3d
       0.042764124 -0.030021159 -0.09408543 0.073285036
0000a0 b0 3d aa 3c 39 6d 49 3d ed 1c 12 bd da 05 60 3d
       0.020781368 0.04917643 -0.035672117 0.05469308
0000b0 8d 7f 88 bc b9 b7 76 3d 85 ac 85 bd 94 dc ad 3b
       -0.016662383 0.060233805 -0.06527046 0.005305836
0000c0 d8 4b 8a bd 85 2e c8 3d 48 58 80 3d b2 6b e2 bb
       -0.06752747 0.09774498 0.06266838 -0.006909811
0000d0 6a 6b fb 3c c0 42 05 3d d0 00 8c bd 2d a2 ef 3c
       0.030690867 0.03253436 -0.068360925 0.029252136
0000e0 7f b4 c6 bd 6c a2 ac bc 57 bd 90 3d 3d 8a 44 bd
       -0.09702396 -0.021073543 0.07067364 -0.047983397
0000f0 5c e5 23 3e 11 73 f3 3d 65 98 fc bd 5a ec 0b 3d
       0.16005462 0.118871816 -0.123337545 0.03416095
000100 27 8a 0d 3c 80 52 79 bc 5a f9 71 bc 8d ca bf bd
       0.008638895 -0.015217423 -0.014768923 -0.09364805
000110 cd fc 16 3d 26 8d f6 3d e0 8a 9d 3c 8d d5 6d 3c
       0.036862183 0.12038641 0.01923126 0.0145162465
000120 a6 8f f0 3c 4d 9c 84 bb 23 ba 45 bd 7e 1b 64 3d
       0.029365372 -0.004046953 -0.048273217 0.05569028
000130 e9 74 ea bd 5e f7 73 3b 93 b5 77 bd 19 7b 2c 3d
       -0.1144808 0.00372263 -0.060475897 0.042109583
000140 3c b7 d6 bd cd 9e 3c 3d 7f fd 93 3d 1d df 2c 3d
       -0.10484168 0.04604988 0.07226085 0.042204965
000150 80 15 73 b9 12 a6 bd bd 0a 4e 39 3e 8d 17 53 3d
       -0.00023182295 -0.09260191 0.18096176 0.05153613
000160 20 ad b1 bd 95 da a0 3d c7 5a 8b bc c5 17 91 bd
       -0.08675599 0.07854191 -0.01701106 -0.07084612
000170 b0 15 a8 bd dd 8b 94 bd 9f 9d 4e 3d f0 a7 df 3b
       -0.082072616 -0.07253239 0.050443288 0.0068254396
000180 80 51 3f bd 30 0a 40 bd 40 5d 04 bd ff 2c 18 3c
       -0.046708584 -0.046884716 -0.032315493 0.009288072

linear3.weight f4 [1, 100]
000000 30 de ab 3d 05 5c a7 ba 53 76 bb 3d 1b 9d b0 3d
       0.08391988 -0.0012768513 0.09153428 0.086237155
000010 5b 42 c2 3d c9 15 9a 3d 93 88 b8 3d 33 82 14 3d
       0.094853126 0.075236864 0.090104245 0.03625698
000020 28 b6 ef bd 13 ac b6 3d e9 80 e3 3a 3a 2c 21 3d
       -0.117046654 0.08919539 0.0017357144 0.03934882
000030 5c 2c 31 3b 92 18 54 3a 50 76 4d bd 7c 0f a8 3d
       0.0027034497 0.00080908195 -0.05016166 0.082060784
000040 3e 94 d1 3a 4e e6 01 b9 3e 68 a9 3d ac 27 bd 3d
       0.0015989614 -0.00012388194 0.08271836 0.092360824
000050 90 10 6d 3d 3c 0f 9a 3d 6e 27 32 bb 1a d9 d9 3a
       0.057877123 0.07522437 -0.0027184146 0.0016620487
000060 9c 7b 3e 3a 6c e2 a4 3d 56 6f e4 ba 60 b6 3a 3a
       0.0007266344 0.08050999 -0.00174282 0.0007122513
000070 71 5a a0 3d 54 1f 91 3a 6c 9d e9 ba 30 2e 62 3d
       0.0782975 0.0011071959 -0.0017823405 0.05521983
000080 ba d6 4c 39 60 0c 18 3b e2 d7 2d 3b c1 0e cc 3d
       0.00019534948 0.0023200735 0.0026526381 0.099637516
000090 a5 b4 e7 3c 2d be f2 3d 48 d1 17 bb af e4 e1 3d
       0.02828438 0.118526794 -0.0023165513 0.11029946
0000a0 3e 41 92 3d 93 eb ae 3d df 3d 8a 39 56 44 44 3b
       0.0714135 0.08541026 0.0002636751 0.0029947958
0000b0 1a 99 cb ba 43 84 6e 3d 6d e2 a3 ba 6c 11 87 3d
       -0.0015533299 0.058231603 -0.0012503393 0.0659512
0000c0 13 3a 86 3d 98 a2 01 3b 1b 92 b1 3d a2 e8 e2 3d
       0.065540455 0.0019780751 0.086704455 0.110795274
0000d0 46 b8 ef b9 c8 ec f1 ba 1b ed b2 39 5e 7e 78 3d
       -0.00045722927 -0.0018457407 0.00034127463 0.06066739
0000e0 29 cc 86 ba 31 b4 c7 3d fb 33 91 3a e7 78 e0 3d
       -0.0010284233 0.09751166 0.0011078113 0.1096056
0000f0 52 34 d8 bd 22 c2 0d be bb 6c b0 3d c4 77 c5 ba
       -0.10556854 -0.13843587 0.08614489 -0.00150656
000100 bc 99 00 3b cd 6f 26 bb 02 a2 58 3d 09 e0 0b 3b
       0.0019622883 -0.0025396228 0.052888878 0.0021343252
000110 d2 16 82 3a 4c 64 03 be 7b 1d 00 3b 87 8b 9e 3d
       0.0009925014 -0.12831229 0.0019548822 0.077414565
000120 d0 2d b0 3d 54 2f ae ba 69 72 22 ba fe e7 0f be
       0.08602488 -0.0013289251 -0.0006196858 -0.14053342
000130 08 d1 a6 3d bb 83 79 b9 cc e1 76 3d b8 94 4a 3d
       0.08145338 -0.00023795564 0.06027393 0.049458236
000140 82 85 b3 3d b6 a9 0b ba 40 d1 b1 3d 93 9e b1 3d
       0.08765699 -0.0005327718 0.086824894 0.08672824
000150 d9 c9 a7 3a 32 50 ea 3a df cb 0c be 26 04 35 3b
       0.0012801244 0.0017876683 -0.13749646 0.002762088
000160 f8 ef 5d b9 c3 b2 35 ba 62 8b 72 3a 19 be 9b 39
       -0.00021165598 -0.00069312396 0.0009252337 0.00029705538
000170 3c 7d e5 3d fb 01 ce 3d b8 f2 ab 3d 92 2c c1 3a
       0.11205527 0.100589715 0.08395904 0.0014738014
000180 24 ed 0b bb 37 77 fa 3a 59 0d a1 3a 72 a1 b3 3d
       -0.0021351064 0.0019109015 0.0012287303 0.087710276
