checkpoints/single-phase/123bus/ddpg/policy_net_checkpoint_a4.pth (torch, 43735 bytes, 5 tensors)

linear1.weight f4 [100, 1]
00000000: a14d db3e 0165 56bf b668 12bf 50e4 a0be
00000010: e0e8 4bbf 1500 233f d07c 34be e07e 6c3e
00000020: e5c0 273f e01c 7fbe 21cd e63e a6ce 6f3f
00000030: f445 7c3d c087 c7bc b8cf 2fbe 4415 76bf
00000040: 3249 263f 867e dfbb ce72 1cbf e0cb 02bf
00000050: 1ede de3e 8cfe bbbe bd19 8c3f 38fc 51be
00000060: b26f a7be da69 363f 5e93 01bf ccf5 ecbe
00000070: cc46 1dbf 7faa 0a3f 0ec4 1abf 71dd 4ebf
00000080: a0aa 68bf 90d3 8c3e 044f 0dbf 2492 2b3e
00000090: 5e38 af3e d451 de3e 9d25 263e 3ed5 d6bd
000000a0: a8df 16be c64b ef3e dea2 70bf 303d febd
000000b0: f0c1 3fbf e0f5 df3e a834 493f 7ca9 2c3f
000000c0: 2efa 123f dc25 87be c617 66bf c01d 09bd
000000d0: 7033 66be bc3b 50bf 50f3 d7be deb4 06bf
000000e0: a028 e33d ca08 7fbf c505 ecbb e89d b4be
000000f0: a5fa 0fbd 8054 2abf 740c b3be 26bf 193f
00000100: c203 f53d d6bf 0b3f 189c 4abf 6008 74bf
00000110: 396c 163f 8849 66bf c818 72bf 8359 debc
00000120: d410 bcbe 0c48 c63e 223d 5dbe 5e54 09bf
00000130: 8749 05bf 989a 3fbf a5ac fa3e e0e5 c8bd
00000140: c8cc 3fbe ddbe f7be 670d 383f a3de be3d
00000150: 3039 c3bd bce4 c3be 2734 e7be 8c97 1ebf
00000160: da89 08bf e04d 313e 7a80 373f bded 923e
00000170: e3be f0be 00fd c4be 9c55 d43e 204d e43e
00000180: d87d 0fbf 2e5a 3a3f c877 71bf 9682 60bf
0.42832664 -0.8374787 -0.57191026 -0.3142419 -0.79652214 0.63672 -0.17625737 0.23095274
0.6552871 -0.24913359 0.45078376 0.93674695 0.06159015 -0.024356723 -0.17169082 -0.961262
0.6495544 -0.0068205027 -0.6111268 -0.5109234 0.43528837 -0.3671764 1.0945355 -0.2050637
-0.32702404 0.71255267 -0.5061549 -0.46281278 -0.6143615 0.54166406 -0.60455406 -0.8080664
-0.90885353 0.2750516 -0.55198693 0.16754967 0.34222692 0.43421805 0.16225286 -0.104898915
-0.14733756 0.46737498 -0.93998516 -0.12414014 -0.749053 0.43742275 0.7859597 0.6744611
0.57412994 -0.26396072 -0.89880025 -0.033475637 -0.2248056 -0.8134115 -0.4217782 -0.5261973
0.11091733 -0.99622786 -0.007202836 -0.35276723 -0.035151143 -0.66535187 -0.34970438 0.60057294
0.11963607 0.54589593 -0.7914443 -0.9532528 0.58758885 -0.8995595 -0.94569063 -0.027142292
-0.3673159 0.38726842 -0.21605352 -0.5364436 -0.5206532 -0.74845266 0.48959842 -0.0980947
-0.18730462 -0.48387805 0.7189545 0.09319808 -0.09532392 -0.38260448 -0.45156977 -0.6194999
-0.53335345 0.17314863 0.71680415 0.28697005 -0.47020635 -0.38474274 0.41471565 0.44590092
-0.560514 0.72793853 -0.94323397 -0.8769926

linear1.bias f4 [100]
00000000: 8202 9bbe 987e 763f f2f7 39bf d0e5 6bbf
00000010: 68d5 7cbe ec42 f4bd ee9e 4cbf bce7 eabe
00000020: 80de d2be 5cdf d0be 433e a7be c268 4fbf
00000030: 305e 0b3f 2055 8fbd 101b bdbe 98b2 2cbf
00000040: 34ec 71bf 30cf 593f 2879 11bf 1c32 31bf
00000050: 50a5 53be 90a5 183e 4e3e 6ebf bc3f adbe
00000060: 8ee1 c03e 6f9c 3c3f c11e 153f 80a6 133d
00000070: 6433 08bf c9b4 373e fefe 7dbf e5ed 6d3f
00000080: c89d 853f 145c 01bf 10d5 2ebf 404b ed3c
00000090: 577b 77be 0bd3 b7be ac0f 40be a342 f93d
000000a0: c617 22bf a0a5 c7be 6083 03bf b092 c7be
000000b0: d459 0bbf 664b 06bf 845e 293e d983 80be
000000c0: bb2d 33be c039 043f 74a5 90be b86d 38bf
000000d0: 0c9b 8dbe e89d 72bf 50c2 543e f837 00be
000000e0: 484c 0ebf 48d0 efbe 4bf5 013f 404b 8c3c
000000f0: a561 f93c 82f7 07bf a008 98bd 4cf7 6cbf
00000100: 6b51 3f3e 3210 64bf 9c18 10bf a034 5cbf
00000110: 7287 f23e b6c5 2ebf d8ac 00be 8c8d bf3c
00000120: d091 92bd 4c02 a4be 31e1 7e3e a88b 233f
00000130: 6b37 193f 6853 94be 41f3 c23c c061 bebe
00000140: 856d 4c3f 8c0a 353f 4541 4e3f cda8 64bd
00000150: 007e 263c dc9b 30bf 796f 363f 507c dc3e
00000160: e068 c8bd ac19 553e c60c 60bf 1b1a b23e
00000170: 5e57 0a3f ae12 52bf 20b1 0dbf 1b96 babe
00000180: 85b8 033f 0ee5 e3be c026 85bc f429 e0be
-0.3027535 0.96286917 -0.7264396 -0.9214754 -0.24690783 -0.11926827 -0.7993001 -0.45879924
-0.4118538 -0.4079541 -0.3266469 -0.8101922 0.54440594 -0.06998658 -0.3693471 -0.6746001
-0.9450104 0.8508177 -0.56825495 -0.69217086 -0.2066853 0.14906907 -0.9306382 -0.33837688
0.37672085 0.736762 0.5825005 0.03604746 -0.53203416 0.17940058 -0.9921721 0.92941123
1.0438776 -0.50531125 -0.6829386 0.028966546 -0.24168144 -0.359032 -0.18755978 0.12170913
-0.63317525 -0.3899355 -0.5137234 -0.389791 -0.5443394 -0.524588 0.16539961 -0.25100592
-0.17497914 0.5165062 -0.2825123 -0.7204242 -0.27657354 -0.94772196 0.2077725 -0.1252135
-0.55585146 -0.46838593 0.5076491 0.017125726 0.030442068 -0.5311204 -0.0742352 -0.92564845
0.18683402 -0.8908721 -0.5628755 -0.860178 0.47368962 -0.6827043 -0.12565935 0.023382924
-0.07156718 -0.32033002 0.24890591 0.63884974 0.59850186 -0.28969884 0.023797633 -0.37183952
0.79854614 0.7071922 0.80568343 -0.055825043 0.010161877 -0.6898782 0.71263844 0.43063593
-0.09785628 0.20810574 -0.8751949 0.34785542 0.5403956 -0.8205975 -0.55348396 -0.36442646
0.5145343 -0.44510692 -0.016253829 -0.43782008

linear2.weight f4 [100, 100]
00000000: efcf e4bc 36bf 98bd b3c7 4b3c 3ac4 45bd
00000010: 7da9 553d 2b62 bb3c 0a72 5cbd c010 b83d
00000020: e143 93bd 671e c23d 58ff 6b3d 2080 4a3d
00000030: 7f80 8e3d 0a66 9f3d 3377 b3bb cffd 993d
00000040: 00f0 70b9 a8a5 c2bd 9a09 72ba 73ef 5bbc
00000050: 51ca b23c c014 733d 3a4a a4bc d087 59bd
00000060: 0f7a c73a 1912 053d 7641 433c aa68 cbbd
00000070: 0d4e 74bd 82e3 47bd 32a9 b13d 9f75 0dbc
00000080: fc16 adbd c063 4dbc 17a7 953d 4f04 b93d
00000090: c918 e93c 7d16 913d 8e75 47bd 9765 39bc
000000a0: 704c 22bd 8136 34bd f719 00bd 00b8 b1ba
000000b0: cb24 a3bd 27b4 bd3d 6552 8ebc ead3 a7bd
000000c0: 3ba7 fd3c eff9 27bd 7a66 c7bd 0f27 aa3d
000000d0: 3a21 34bd 320e 8c3d e3fb b33d 131b d53c
000000e0: 33e1 02bc 0750 fe3c 001c a03c 073e eebc
000000f0: 53d9 54bd 67ae 243c 0de6 c3bc 18ac 89bd
00000100: 7e6f d53b f0df 17bd c384 95bd 73ca 563c
00000110: a434 ba3c 40c4 0e3d 335e be3b d3d8 86bd
00000120: 1780 8cbd 89a6 26bc 7c8d a2bd 5c10 91bd
00000130: 65ac 8cbc 5a4f edbc 0bd6 473d da09 7bbc
00000140: 7eaf 3c3d b8ea cebb 057e 203d 1b58 413d
00000150: a0e2 6fbd 7a30 6abd 5aeb 993d fa11 65bd
00000160: da32 c03d 0407 003c c308 9c3d 5597 67bd
00000170: 0f41 abbd 5dcb 6d3d 5ae0 373c 7b2b 30bd
00000180: 0a8b 923c 6517 bcbd a025 11bd 0065 5f3d
00000190: 021e c2bd 73b3 b9bd da1a 33bd 076e 6dbd
000001a0: 9373 8abc 33e5 bebd 1a97 d13c 22a7 8bbd
000001b0: 33fb 403b dd26 60bd 9b17 9cbd 0006 e13a
000001c0: 6d2d febc da48 6abc 5a22 cabd f0a0 773d
000001d0: ea22 753d cd96 faba 2f11 bfbd d779 6a3d
000001e0: 15ff 8d3d 80b5 4bbc 9339 393d b3bf 45bc
000001f0: 4de0 933d 4f1c aabd 5ffd b53d 3541 8cbd
00000200: c708 ab3d cd3a eabc 6a55 033d 4ad1 363d
00000210: faf9 893d 63f2 68bd 2dd4 9c3d 0ffe 893d
00000220: 13b9 f33c 2b0e c9bd da67 36bd 3858 9fbd
00000230: ba4f adbc 33b6 eebb b3c1 a2bc f7ec a9bd
00000240: 3333 b537 936d 81bd b3a0 5abc 82b0 8fbd
00000250: 6f27 c43d 0f93 ab3d e7e7 b5bd a363 323d
00000260: 40b9 72bd 9a5b bb3d 83f9 383d 2237 8dbd
00000270: bd09 2dbd e7e2 f53c fa71 d3bc 3338 123c
00000280: dac4 3cbd 5749 a0bd 6d8a 6d3d 67d6 e03a
00000290: e091 aa3c 60f3 8e3c 15ed 863d 67bf 5c3c
000002a0: 8d8d 73bc d77d 003d 3305 a9ba 1d71 273d
000002b0: d8d2 9cbd fa4e f53c 6a6f 183d 2721 25bc
000002c0: 1d27 2dbd 8ae9 07bd 806c 5d3d 9347 bd3c
000002d0: e706 b63b aaca 35bd 13fb cebc 8fa7 81bd
000002e0: f727 5a3d 53c7 40bd a52c a4bd 8d6b 2e3c
000002f0: 3d73 54bd fa25 583d 40af cabc 3394 e33c
00000300: 9a04 85bd 1a0b be3b 43af 41bd bb84 9e3d
00000310: 83ab 4cbd 1ad6 963c 20bc 923c a575 8a3d
00000320: 0a60 39bd 9d8f aabc 2aaf 0d3d fa49 693d
00000330: 62ce 84bd d8a9 95bd 107b 3ebd 20c3 d2bc
00000340: a1de 06bd 10f0 893d b6af 8abd 59f7 dac0
00000350: ec10 963d 9532 833d ad4b 723d 20af 453d
00000360: ad5f c9bc f074 973d 3323 19bd bdc3 4bbd
00000370: cebd 343d 8746 c53d 82f8 633f 9818 a7bd
00000380: 8ade 2e3e 8753 c73d 59f0 623d e3ba 0ebd
00000390: bae0 e7bc c0dd 61bd fda5 adbd 6dda c13d
000003a0: e81b 163e 67b9 37bc 88b6 c4bd 9a2f 243d
000003b0: 634d 51bd fcad 01be 580e 873f 68e6 3c3e
000003c0: 7792 413d d205 50be b3f4 a2bc 2d51 39bd
000003d0: 0039 02bd 731e 58bc 1a28 1dbd 0546 4f3d
000003e0: 928f e4bd b72e 423d c720 8bbd 7adc 08bd
000003f0: dd90 933d 7329 5abd 3343 523b 5a3e 69bd
-0.027931182 -0.074583456 0.012437749 -0.04828284 0.05216359 0.022873959 -0.053819694 0.0898757
-0.07190681 0.09478455 0.05761656 0.049438596 0.069581024 0.07783134 -0.005476856 0.07519113
-0.0002297759 -0.09504253 -0.0009232998 -0.013423788 0.021824988 0.05934596 -0.020054925 -0.053108037
0.0015218871 0.032487962 0.011917463 -0.099320725 -0.059644748 -0.048800953 0.086748496 -0.008634
-0.084516495 -0.012535989 0.073072605 0.09034025 0.028454201 0.070843674 -0.048696093 -0.011315725
-0.039623678 -0.04399729 -0.031274762 -0.0013558865 -0.07966002 0.09262877 -0.017373273 -0.08194716
0.03096353 -0.04100984 -0.09736343 0.08308231 -0.043977 0.06838645 0.08788278 0.026013887
-0.007988262 0.03104402 0.019544601 -0.029082311 -0.05196507 0.010051346 -0.023913408 -0.067222774
0.006513535 -0.037078798 -0.07300713 0.013109791 0.02273018 0.034855127 0.0058095693 -0.06584325
-0.06860369 -0.010171541 -0.07937142 -0.070831984 -0.017172048 -0.028968502 0.04878811 -0.015322173
0.0460658 -0.0063146017 0.03918268 0.047203165 -0.058565736 -0.057175137 0.07515593 -0.055925347
0.09384699 0.007814173 0.07618859 -0.056540806 -0.08362018 0.05805527 0.011222923 -0.043010216
0.017888565 -0.0918415 -0.035436273 0.05453968 -0.0947838 -0.0906743 -0.04372678 -0.05796626
-0.016900813 -0.0932106 0.025584746 -0.068189874 0.0029446601 -0.054724563 -0.0762169 0.0017167926
-0.03102752 -0.014299596 -0.09869833 0.060456216 0.05984775 -0.0019118428 -0.093294494 0.0572451
0.06933419 -0.01243341 0.045220923 -0.01206963 0.07220516 -0.08306181 0.08886217 -0.06848375
0.083512835 -0.028592492 0.03206388 0.044633187 0.06737132 -0.056871783 0.07657657 0.06737911
0.029751336 -0.098171555 -0.044532634 -0.07780498 -0.02115618 -0.0072849034 -0.019867754 -0.082971506
2.1600723e-05 -0.06319728 -0.013343978 -0.07016088 0.09577834 0.083776586 -0.088821225 0.043552052
-0.0592587 0.09148331 0.045159828 -0.068952814 -0.042245615 0.030015422 -0.025811184 0.008924532
-0.04608617 -0.078264885 0.05799334 0.0017153741 0.020821512 0.017450035 0.065881886 0.013473368
-0.014865291 0.03137001 -0.0012895226 0.040879358 -0.07657403 0.029944886 0.037215628 -0.010078705
-0.04227363 -0.033181705 0.05405855 0.023105418 0.005555022 -0.04438273 -0.025266206 -0.063307874
0.05326077 -0.04706509 -0.08016328 0.010645759 -0.051867712 0.052770592 -0.024741769 0.027780628
-0.06495018 0.0057996633 -0.047286283 0.0774016 -0.049968254 0.018412638 0.01791197 0.0676072
-0.045257606 -0.020820433 0.034590878 0.056955315 -0.06484677 -0.07307786 -0.04650408 -0.025727808
-0.03292716 0.067352414 -0.067717955 -6.842694 0.07327446 0.06406132 0.0591542 0.048262715
-0.024581755 0.07395351 -0.037387084 -0.049747217 0.044126324 0.09632593 0.8905107 -0.08158988
0.1707708 0.097327285 0.055404995 -0.034846198 -0.0283054 -0.055143118 -0.084789254 0.094654895
0.14659083 -0.011213637 -0.096051276 0.04008446 -0.051099192 -0.12664026 1.0551252 0.18447268
0.04725882 -0.2031472 -0.019892072 -0.04524343 -0.03179264 -0.013190853 -0.038368322 0.050603885
-0.11160196 0.047407832 -0.06793361 -0.033413388 0.07205365 -0.053262185 0.003208351 -0.05694423

linear2.bias f4 [100]
00000000: 30cc adbd 3333 143c 01e3 49bd afbe 4ebe
00000010: 322a 2b3d a082 a6bd f297 a33d 2949 06bd
00000020: 393a e3bd 8777 98bd 2ea4 9c3d 3ee8 38bd
00000030: 06de f8bc 697b c93d 3312 7dbc f003 46bd
00000040: 1f86 0abe 3b28 b9bd 60d4 903d a7bb 5cbd
00000050: 77fa a4bd 6a21 653d 17d5 c4bd 14b3 cfbd
00000060: a779 873d f7d0 913d 7a47 d33d edb9 1fbd
00000070: 607d f4bc 7aaf 0b3e 031c 8cbd e55b 1bbd
00000080: da89 73bc 603b 8e3d d461 5e3d 535c 49bb
00000090: 2107 b43d 0d4c 9cbc 9457 fabd e70b fd3b
000000a0: 3ec7 a5bb 6b36 83bd 13dc b43d 93c5 b93d
000000b0: 3a4a 8abc cd3c 9fbb b5c2 bc3d 8322 ad3d
000000c0: 1395 f1bc 1ced 1abe ba48 d8bb a728 e23d
000000d0: ea55 873d f0af e03d d902 5ebd 87b4 64bd
000000e0: b29b 813d 703d 26bd 81a9 be3a 8e1a c93d
000000f0: a483 17be 1b09 e8bc 9933 92bd 16cd e03c
00000100: a385 61bd 3f16 a5bd e7e6 bdbc 514e 4a3c
00000110: dfd0 8b3d 1ad5 1c3d efde 59bd c95b d83c
00000120: 18b5 b53d 427c 03be ca37 73bd d36c 333d
00000130: 585d 993d ce79 603d b6b4 b93d 330f af3c
00000140: cf72 033d a4b2 943c 6ee4 96bc 5e39 ab3d
00000150: 622b a8bd 9794 bbbc 52e5 b0bd 6bbc 963d
00000160: 5bdd afbd 4ab2 d63c 1a1b c03b d08e b5bd
00000170: 9b47 523d b722 1ebd 920a a1bd 9acf 063d
00000180: e31a c63d 582b 91bd 9f68 cb3b 71e1 623b
-0.08486211 0.00904541 -0.049288753 -0.20189928 0.041788287 -0.081303835 0.07987966 -0.032784615
-0.110950895 -0.07444673 0.07648502 -0.04514336 -0.030379307 0.09837992 -0.015446234 -0.0483436
-0.13527726 -0.090408765 0.07071757 -0.053889897 -0.08055585 0.05594007 -0.09610956 -0.10141578
0.06615 0.07119935 0.103163674 -0.038995672 -0.02984494 0.13641158 -0.0684128 -0.037929434
-0.014864409 0.06944919 0.054292515 -0.0030725196 0.08790422 -0.019079233 -0.122237355 0.007722366
-0.005059152 -0.06406864 0.08831038 0.090708874 -0.016881097 -0.004859543 0.09216825 0.08453848
-0.02949003 -0.15129513 -0.0066004666 0.1104291 0.06608184 0.109710574 -0.054201934 -0.055836227
0.06328525 -0.040585935 0.0014546366 0.09819518 -0.1479631 -0.028324654 -0.07138748 0.027441543
-0.055059087 -0.08060884 -0.023181392 0.012347774 0.068269484 0.038289167 -0.05319112 0.026410954
0.088724315 -0.1284037 -0.059379376 0.043804955 0.07488507 0.054803662 0.09067671 0.021369552
0.032091912 0.018151589 -0.01841947 0.08360551 -0.082113996 -0.022898002 -0.086374894 0.073601566
-0.08587142 0.026208062 0.0058626058 -0.0886513 0.05133782 -0.038607325 -0.07863344 0.032912828
0.09673097 -0.07088345 0.00620754 0.0034619237

linear3.weight f4 [1, 100]
00000000: d923 74ba 9669 1bbb 6ac9 32bf fd02 8d3f
00000010: be10 2ebf e2c0 433b 8f1f 43bb cf1a d53f
00000020: e1ce 05be 5400 433e f52d c43e 6f26 263b
00000030: 5de8 f5ba 6576 36bf 985d 30ba 254e f9b9
00000040: bcea dc3f 7ce4 723a ef1a 25bf d60d e53e
00000050: c51f 07bb 7e27 24bf a14f b5ba bc9b 483a
00000060: ec5f 38bf 1db8 d9ba 2c84 22bf f11a f63a
00000070: d512 543a 63de 1d3e fbd5 633e bd9a ce3f
00000080: 1167 8aba d981 15bf 73ba e539 5442 0f3b
00000090: 1b7d 4cbb 924e 28bb 20bc d53f 3b50 30bf
000000a0: 0278 e13c 9277 2ebf 39bf 34bf 6f0a 69ba
000000b0: 4b6b 99ba 54b6 0cbb 941f 36bf 520a 55bf
000000c0: 85c3 1539 f61d e03c 0332 a4bd 1035 26bf
000000d0: a8e7 03be a795 69bf e4fd 3fc0 cbb6 12bb
000000e0: f754 29bf c1ad 073b d7d1 57bf 78ba 2ebf
000000f0: 267c 403d 573c 3bbb 4096 58bf 8de6 8cba
00000100: 62aa a3ba ba1c 22bb 30c2 213b 7232 1cbf
00000110: 1098 0f3b a1e5 893e cf2b a2ba 75db 2cbf
00000120: 7abf 053b 848d da3f e349 83ba d32e a7b9
00000130: 6c54 8a3e 61bc 27bf 6a89 a9ba d6f3 be3a
00000140: 5621 fdbd 26ff 02be 862f 64bf f044 66be
00000150: 6398 c13c 372b 8b3f 3357 6eba 6131 e33a
00000160: 2ab4 373b 38fd 2dbf 3316 d23a b57a 263b
00000170: 5109 caba 3198 403b ddd6 80bc f526 a4ba
00000180: 3f89 26be 3ac5 29bf 5994 913e 98d1 cbbc
-0.0009313203 -0.0023714057 -0.69838583 1.1016537 -0.67994297 0.0029869606 -0.002977345 1.6648806
-0.130672 0.19043094 0.38316312 0.0025352498 -0.0018761266 -0.71274406 -0.0006727814 -0.00047551203
1.7259135 0.0009265614 -0.6449422 0.44737118 -0.0020618301 -0.6412276 -0.0013832935 0.0007652601
-0.72021365 -0.0016610656 -0.6348293 0.001877634 0.00080899644 0.15416865 0.22249596 1.6140972
-0.0010559281 -0.58401257 0.000438172 0.0021859603 -0.0031202498 -0.0025681597 1.6698036 -0.6887242
0.027523044 -0.681512 -0.7060428 -0.00088897994 -0.001170495 -0.002147098 -0.71141934 -0.8321887
0.00014282584 0.027358036 -0.080173515 -0.64924717 -0.12881339 -0.91243976 -2.9998713 -0.0022386785
-0.6614527 0.002070293 -0.84304565 -0.6825328 0.046993397 -0.00285699 -0.84604263 -0.0010749862
-0.0012486691 -0.002473636 0.0024682395 -0.61014473 0.0021910705 0.26933005 -0.0012372675 -0.67522365
0.0020408318 1.7074437 -0.0010016527 -0.0003188761 0.27017534 -0.6552182 -0.0012934629 0.0014568518
-0.12359874 -0.12792644 -0.89135015 -0.22487235 0.023632234 1.0872563 -0.0009091973 0.0017333442
0.002803097 -0.67964506 0.0016028344 0.002540273 -0.0015414153 0.0029387588 -0.015727455 -0.0012523817
-0.16263293 -0.6631657 0.28433493 -0.024880216
