checkpoints/single-phase/123bus/ddpg/policy_net_checkpoint_a7.pth (torch, 43735 bytes, 5 tensors)

linear1.weight f4 [100, 1]
000000 bc 5c 2f bf cc e1 60 bf 13 e3 e5 3e 82 99 24 3f
       -0.68500876 -0.8784454 0.44899806 0.64296734
000010 53 ca 3b be b0 26 a6 3e 9a c6 10 3f c1 1d 4e 3f
       -0.183389 0.3245139 0.5655304 0.8051415
000020 45 b6 1c 3f de 45 33 3f 7e 15 53 bf 68 d7 a5 be
       0.6121562 0.70028484 -0.8245467 -0.32390904
000030 e1 4b 47 3e c4 b5 ea be c9 69 74 3f 92 3b 55 3f
       0.1946254 -0.458418 0.95473915 0.8329402
000040 66 d8 7a bf b0 fa 14 be 22 59 4e bf fd 28 08 3f
       -0.9798645 -0.14548755 -0.80604756 0.53187543
000050 50 d0 57 be 21 c9 0b be 22 21 3d 3f d4 92 26 bf
       -0.21075559 -0.13650943 0.7387868 -0.6506779
000060 d2 9d 13 bf bc 5b 07 3f 2a a0 54 bd 40 db e9 bd
       -0.5766269 0.5287435 -0.051910557 -0.11418772
000070 58 bc 70 bf ba 92 61 bf 8c 38 ec 3d 77 4f 3b 3f
       -0.9403739 -0.8811451 0.11534223 0.7316813
000080 7a af 9a 3e e0 0b 35 be fa 0b 1c 3e f0 df c5 3e
       0.30212003 -0.17680311 0.15238944 0.38647413
000090 f8 2d 5e bf 55 eb cd 3e 64 2d 23 3f 38 05 84 be
       -0.8678889 0.40218607 0.63741136 -0.25785232
0000a0 13 b9 34 3f 2c 15 c1 3e 7a f9 33 bf 70 23 0b be
       0.705949 0.37711465 -0.70302546 -0.13587737
0000b0 6c 37 1f 3f a8 da e3 be b6 41 4a bf 3e d5 6a bf
       0.6219394 -0.4450276 -0.79006517 -0.9173163
0000c0 02 17 c9 bb 88 11 61 bf 14 ff be be e8 69 46 3e
       -0.006136776 -0.87917376 -0.37303984 0.19376338
0000d0 bd 63 67 3e 40 d3 64 be d0 d9 84 3e fe 71 0b bf
       0.22596641 -0.2234621 0.25947428 -0.54470813
0000e0 a9 94 62 be 79 56 12 3f cd 64 4e bf d8 03 2f bf
       -0.22127022 0.57163197 -0.8062256 -0.6836524
0000f0 51 1c 9e 3c 28 4e 25 3f a0 91 47 bf fe ca 0c 3f
       0.019300612 0.6457238 -0.7795658 0.5499724
000100 98 bd 4d 3e 2a 0c 24 3f a6 a5 78 3f f2 7e 85 3e
       0.20091856 0.6408106 0.9712776 0.26073414
000110 c2 07 60 3f 70 9d d2 be f4 f1 a5 be d0 a8 ff bd
       0.8751184 -0.4113574 -0.32411158 -0.1248337
000120 10 f6 b8 3e 64 7c 6c bf f0 30 10 3e 48 52 2d be
       0.3612523 -0.92377305 0.14081168 -0.16925919
000130 fb f7 53 be 03 95 37 3e a6 8f 1c bf d3 ac 00 3e
       -0.20700066 0.17927937 -0.6115669 0.12565927
000140 e4 f0 37 bf a0 ff ad 3e 80 75 14 be ea 7a c6 3e
       -0.71851945 0.3398409 -0.14497948 0.3876565
000150 94 32 38 bf 38 12 13 be 96 b3 3b 3f 82 31 3b 3f
       -0.71952176 -0.14362419 0.733209 0.7312242
000160 52 f9 12 3f ec 08 38 3e f9 56 d6 bd 08 2c 08 3e
       0.5741168 0.17972153 -0.104658075 0.13298047
000170 ba d3 67 bc 85 f1 89 3e 68 1f 45 bf 60 ff dd 3e
       -0.014149601 0.26942077 -0.7700105 0.43358898
000180 18 e2 0b 3f 5c 99 8c 3e a0 ec 10 3f 48 f3 8b bd
       0.54641867 0.27460754 0.5661106 -0.068335116

linear1.bias f4 [100]
000000 50 42 50 be 6e 57 0a bf 07 e2 ac be ce 28 23 bf
       -0.20337796 -0.5403966 -0.33766195 -0.6373414
000010 10 c2 43 3e e4 09 cc be 27 47 88 3e 6e 73 c8 be
       0.19116998 -0.39851296 0.26616785 -0.39150566
000020 a3 02 f8 be 08 23 53 bf 58 15 e0 be 90 05 b9 3d
       -0.48439512 -0.8247533 -0.43766284 0.09034264
000030 61 fa 37 be c0 a2 4e bf ff 95 88 be 59 7c 3c 3f
       -0.17966606 -0.80717087 -0.26676938 0.7362724
000040 c4 ca 14 bf be f9 3b bf e4 45 e2 3e 23 58 9f be
       -0.58121896 -0.7342795 0.44193947 -0.3112193
000050 64 ba af be bc 66 11 3e 8a 7c c4 be 80 2f ea 3c
       -0.34321892 0.14199346 -0.38376266 0.028587103
000060 b4 83 7e bf 1b 4c b5 be b6 78 e5 3e 10 80 07 be
       -0.99419713 -0.35409626 0.44818658 -0.13232446
000070 c4 d8 1b 3f e6 2d 6b bf ba 74 e1 bd 73 b2 bc 3d
       0.60877633 -0.9186691 -0.11008592 0.09213724
000080 c1 05 fc 3e 42 8e 09 bf d7 ed 0f be 40 b8 b0 be
       0.4922314 -0.53732693 -0.14055572 -0.34515572
000090 60 4c 8d 3d 5f 61 21 3e c8 09 4f bf 68 9a 1b 3e
       0.06899333 0.157598 -0.808743 0.1519562
0000a0 7f 69 43 bf 75 7e aa be 08 f4 de 3e 9a af 52 bf
       -0.7633285 -0.33299604 0.43545556 -0.82299197
0000b0 ca 30 e6 be 08 c8 be be 80 a8 0c 3d 38 93 ee be
       -0.44959098 -0.37261987 0.03434038 -0.46596694
0000c0 f5 e2 2c 3f 00 0d 4f bc 58 1b 2e 3e 34 24 4b bf
       0.6753381 -0.012637377 0.17002618 -0.79352117
0000d0 ad dc 25 3f 74 55 81 be 4c e7 c8 be 8a 5e 0d 3f
       0.6478985 -0.25260508 -0.39238966 0.5522238
0000e0 55 dd 7e 3e ba 18 10 bf 4d 5d 81 3f c0 52 d9 3d
       0.24889119 -0.5628773 1.0106598 0.106114864
0000f0 de 92 b4 bc c3 c1 90 be 68 da 17 be be 57 48 bf
       -0.022042688 -0.28272828 -0.14829409 -0.78258884
000100 4c 18 82 be 75 09 f4 3e 26 5d 86 bf d4 05 64 3f
       -0.25409162 0.47663465 -1.0497177 0.89071393
000110 ae 0d 7b bf 96 51 25 3f 8e 53 40 3f b8 fe 37 bf
       -0.9806775 0.64577615 0.75127494 -0.71873045
000120 3f d9 dc 3d d6 72 38 bf 70 cd 6d bf c0 81 83 3c
       0.10783624 -0.72050226 -0.928916 0.01605308
000130 81 04 c1 3e 41 49 29 3f 08 26 44 3e 8f 4a 87 3e
       0.3769875 0.661274 0.19155133 0.2642407
000140 14 31 6d bf 76 fe 7a bf ec c1 21 bf ef 2f e3 3e
       -0.9265301 -0.98044527 -0.63186526 0.44372508
000150 40 75 bc 3e 42 ce 50 bf b8 63 8c be 50 80 1a bf
       0.36808205 -0.81564724 -0.2741983 -0.6035204
000160 80 dd 56 bf 37 61 26 be 18 02 54 3f d2 c5 27 bf
       -0.8393173 -0.16248022 0.82815695 -0.65536225
000170 46 39 70 3d 24 74 a2 3e f8 b3 19 3f b8 bf 67 bf
       0.05864837 0.31729233 0.60040236 -0.90526915
000180 0a 84 25 bf 18 ef 0e bf eb f6 b9 be 4c 58 91 3d
       -0.646546 -0.5583358 -0.36321196 0.070969194

linear2.weight f4 [100, 100]
000000 d2 2d 9a 3d a2 89 b7 bd c6 83 9b 3c 94 7c cc 3d
       0.07528271 -0.08961798 0.018983733 0.09984699
000010 2d 7c 85 bd d7 85 a4 bd 25 3d ce 3c bf bd e6 bc
       -0.06517825 -0.080333404 0.02517564 -0.02816665
000020 3f 63 5c bd 8d bc 5b bd b7 2f 2d bd a0 7f c0 3c
       -0.053805586 -0.053646613 -0.042281833 0.023498356
000030 9e 6a 12 bd 13 08 c7 3d 77 38 c3 bd 05 ce d7 3c
       -0.03574621 0.09718337 -0.09532254 0.026343355
000040 33 60 6d 3b 3a 19 dc 3c ba 8f 5d bd 0a 8c 30 bd
       0.003622067 0.026867498 -0.054092146 -0.0431023
000050 cd 54 79 3a 8c 53 73 3d ef 97 80 3d 3d 41 33 3d
       0.00095112325 0.05940585 0.06278979 0.043763388
000060 d8 8f b1 bd 9b ec 18 3d 93 67 28 3d 33 37 b0 3b
       -0.08670014 0.03733502 0.0411144 0.005377674
000070 d2 fd 88 bd 4d 24 b9 bc d4 14 b7 bc 25 1e 31 bd
       -0.066890374 -0.022600317 -0.022348799 -0.04324164
000080 c6 e6 89 3d b3 1a fc 3c 6b 46 a4 3d e8 a6 46 bd
       0.0673347 0.03077445 0.08021244 -0.048499018
000090 7a 5e a7 3d 06 ee 4e 3d 30 e1 2c 3d cd 49 69 bd
       0.08172317 0.050519966 0.042206943 -0.056955148
0000a0 4c 6a 0a bd 96 46 c7 bd 07 76 54 3d 1a ef b1 3b
       -0.03379278 -0.0973026 0.051870372 0.0054301145
0000b0 5d cf a3 3b 98 8c a3 3d 7d fe 64 3d bb 23 86 bd
       0.004999085 0.079858005 0.05590676 -0.06549784
0000c0 ca d5 85 bd ca e5 64 3d 83 3e b4 3d cd 87 e2 bb
       -0.06534918 0.055883206 0.08800986 -0.0069131614
0000d0 16 b2 67 3d 13 8e 5b bd cd a1 c8 3c 52 40 fe 3e
       0.05656632 -0.05360229 0.024491215 0.49658448
0000e0 b4 cd 53 3d dc 84 ee 3d e8 b1 28 bd 2a cc 5f bd
       0.051709846 0.11646435 -0.04118529 -0.054638065
0000f0 a7 94 d6 bd d0 54 71 3b b3 e3 8d 3c 60 eb df bc
       -0.10477572 0.0036824234 0.01732049 -0.027333915
000100 90 5d 69 3d 1e ed f7 bc 63 87 70 3d 04 58 18 3d
       0.056973994 -0.030264433 0.058722865 0.037193313
000110 83 f0 7b bd 39 27 0d bd 56 e8 d4 bd d3 3a 76 bd
       -0.061508667 -0.034461234 -0.10395877 -0.060114693
000120 0f 9c b9 bd 0d 31 3d 3c b7 fe 8a 3d 23 68 19 bd
       -0.09062969 0.011547339 0.06786864 -0.03745283
000130 f5 c2 ba bc fd b5 81 3d f7 61 38 3d 6b 25 b5 3c
       -0.02279804 0.0633354 0.0450153 0.022112569
000140 1d 9f bd bd df ac a3 3d 5d 80 b3 bd 17 f4 3e 3d
       -0.09258864 0.07991957 -0.08764718 0.0466195
000150 f7 e9 0d bd 90 83 39 bd c4 fa 3e 3c 21 c2 95 bd
       -0.034646954 -0.045291483 0.011656467 -0.07312418
000160 47 96 ee bc a8 4d cc bd 8a 25 b2 bd 9b a6 c7 bd
       -0.029124392 -0.09975749 -0.08698566 -0.09748574
000170 9a d8 58 3c a2 de 05 bd 00 a3 cd bb ca d8 82 bd
       0.013235236 -0.032683022 -0.0062755346 -0.063890055
000180 25 5d cc 3d cd b0 0d 3c c4 31 09 bd 8b 7d a2 3d
       0.099787034 0.00864811 -0.033494726 0.07934102
000190 4a e6 38 bd 18 d3 9a 3d c0 a1 11 3c 57 7f 7f 3d
       -0.045141496 0.07559794 0.008888662 0.0623773
0001a0 17 cc 59 3d 33 25 cb bc 70 ae 2f bd 00 52 b2 bb
       0.05317315 -0.024798011 -0.042890966 -0.005441904
0001b0 4b 9a b3 bd c0 3d 82 3c 5f ab a1 3d b0 a0 44 bd
       -0.087696634 0.015898585 0.078940146 -0.048004806
0001c0 3a 76 29 3d 15 b1 af bd 3d d2 12 3d e2 79 bd bd
       0.041372515 -0.085786976 0.03584503 -0.09251763
0001d0 da f7 72 3d da 81 b2 3c e0 fe 91 bc 63 be 8c bd
       0.0593184 0.021790434 -0.01782173 -0.06872251
0001e0 cd ef 06 bd 33 b5 49 bc 1f 43 b4 bd ba 22 4e 3d
       -0.032943536 -0.012311268 -0.08801865 0.050326087
0001f0 6b 6a 9f bd c3 68 ac bd d7 fd 66 3d 4a f6 a9 3d
       -0.077839695 -0.08418419 0.056394424 0.08298929
000200 ed 2f 8b bd 33 5a d4 bc 8f 9b af bd cb b0 cb bd
       -0.067962505 -0.025921917 -0.08574592 -0.0994583
000210 82 2c 8d bd aa 00 30 bd 47 7a a1 bd eb 21 be 3d
       -0.06893255 -0.042969383 -0.07884651 0.09283813
000220 a7 d6 16 3d 27 34 30 3d 0a c6 1e 3d 9a 37 9a bb
       0.036825802 0.043018486 0.038763084 -0.0047063353
000230 48 57 9e bd 20 1e 08 bd a7 90 8b 3c c0 47 01 3d
       -0.07731491 -0.033231854 0.017036749 0.031562567
000240 37 ed 9d 3d 4f 14 a4 3d 2d 5b 69 3d 22 49 82 3d
       0.07711261 0.08011686 0.056971718 0.06361605
000250 e0 0a 8f bc 25 d0 8f 3d d0 5f 03 bd 6a a4 7b bd
       -0.01746124 0.07022122 -0.032073796 -0.061436094
000260 ed f4 99 bd 33 6c bc 3c 67 92 f3 ba 1a a3 c3 3b
       -0.07517419 0.023000812 -0.001858306 0.005970371
000270 cf cb ba bd f0 4c 62 bd a7 ce 89 3d 4d d7 32 3c
       -0.09120905 -0.055249155 0.06728869 0.0109155895
000280 9f 50 a2 3d 05 aa a1 bd 4d d1 3b 3d 67 b2 ed bc
       0.079255335 -0.07893757 0.0458539 -0.029015733
000290 43 84 aa bd b3 f9 98 3b 6f ff cb bd b7 38 0b 3d
       -0.08326008 0.0046684383 -0.099608295 0.033989634
0002a0 33 6f 7d 3d 33 53 1b bd 33 de 70 3b 90 19 79 bd
       0.061873626 -0.03792114 0.0036753535 -0.060815394
0002b0 00 f2 3c 3c da dd a2 bc cd a2 f2 bc 4d 37 da 3c
       0.011532307 -0.019881178 -0.029618645 0.026637698
0002c0 13 7d 9f 3d 17 33 8c 3d 48 4c 8f bd 1a 00 24 3c
       0.07787528 0.06845682 -0.06996971 0.01000979
0002d0 8d 69 65 3d bd ed 35 bd 67 34 48 3b f7 9f 34 3d
       0.056008864 -0.044416178 0.0030548812 0.044097867
0002e0 c0 29 67 3c ad d4 49 bd 1d db ac bd bd 82 5d bd
       0.014109075 -0.04927509 -0.0844023 -0.05407976
0002f0 c0 4c ea 3c c0 a9 50 bc 5a 51 a6 3d 33 1b 9e bb
       0.02860105 -0.012735784 0.08120985 -0.0048250197
000300 4b 61 94 3d c7 ca ba 3c e7 4c c5 bb d0 77 6f bd
       0.0724512 0.02280177 -0.0060211304 -0.05846387
000310 07 f9 cb 3d e5 dc 94 bd 8d 93 d1 bc a5 57 bd bd
       0.099596076 -0.07268695 -0.025583053 -0.092452325
000320 d3 17 86 3d cf a5 a3 bd 20 30 ac 3d 53 e8 8b 3d
       0.06547513 -0.0799061 0.084076166 0.06831422
000330 bd 41 4c 3d 38 e2 88 3d 9b 3b 9a bd 87 2b 92 bc
       0.04986738 0.06683773 -0.075309 -0.017843021
000340 ed 4a 59 3d 40 86 5b bc 82 f8 99 3d dd 81 38 3d
       0.05304997 -0.013398707 0.07518102 0.045045722
000350 4d 61 27 3d 0d 6a 36 bd ad 9a cd bc 13 7a f8 3c
       0.040864278 -0.04453473 -0.02509817 0.030331647
000360 7d 38 bf bd 20 38 0b bd b3 54 78 3c ba f3 90 bd
       -0.09336946 -0.03398907 0.015156913 -0.07077737
000370 d3 42 31 3d 60 ab 18 3d 33 94 9d bb a7 69 3c bd
       0.04327662 0.03727281 -0.0048089265 -0.045999195
000380 cf 3f c9 3d 77 0f c8 3d 53 0d 6b bd fd ff 54 bd
       0.09826624 0.09768575 -0.057385754 -0.052001942
000390 d0 c2 04 bd 80 81 ae bd 2d 9d bb bd ad 5a 35 bd
       -0.03241235 -0.08520794 -0.09160838 -0.04427593
0003a0 70 e4 54 3d c2 90 ca bd ab dd b6 bd 43 38 14 bd
       0.051975667 -0.098908916 -0.089289986 -0.036186468
0003b0 e3 f6 2d bd ea f5 46 bd ba c6 59 bd 80 4a d9 3c
       -0.042471778 -0.048574366 -0.053168036 0.026524782
0003c0 e0 aa 8c 3c 33 c6 8d bd 80 93 cb 3c a0 7e 2b 3d
       0.017171323 -0.06922569 0.024850607 0.041868806
0003d0 4d b2 18 3d 8d cf c4 bd 9d 74 c8 bd 33 a7 d6 3b
       0.037279416 -0.096099 -0.09787867 0.0065506934
0003e0 50 a1 73 3d 7a a1 55 bd 1a 10 8a 3b 1d ad 95 3d
       0.05948001 -0.05215595 0.0042133452 0.07308409
0003f0 80 2c 4c 3d e3 0f 99 bd 93 cb 8b 3c 90 a2 61 3d
       0.049847126 -0.07473733 0.017064845 0.055086672

linear2.bias f4 [100]
000000 e3 07 0b bd 6d fa bc 3c e8 71 9b 3d bb e7 90 3d
       -0.03394307 0.023068631 0.07590085 0.07075449
000010 41 02 10 be 1a e0 09 3d 76 29 2e bd 68 f6 90 3c
       -0.1406336 0.033660986 -0.04252001 0.01769562
000020 37 a3 e1 bd 07 83 bb 3d ea 16 5a bd 1a 57 7e bd
       -0.11017459 0.09155851 -0.05324451 -0.062094785
000030 4c ea 30 bc c9 e6 39 bd da a6 e8 3c 17 14 24 bd
       -0.010798048 -0.04538611 0.028399874 -0.04005822
000040 50 f8 19 bd 69 34 0b 3b 37 a8 76 bd b7 fb 41 3d
       -0.037590325 0.0021240956 -0.060219016 0.047359195
000050 68 9f 08 3e 47 43 a6 bc 00 12 c7 bd 30 1b b1 3d
       0.13342059 -0.020295752 -0.0972023 0.08647764
000060 13 46 c1 bd c7 f2 5d 3d 26 14 81 bd 4d d8 78 bc
       -0.09437194 0.05418661 -0.06302671 -0.015188289
000070 60 4f 02 3d fc 60 b9 bd 67 1a d2 bc aa d0 2d bd
       0.03181398 -0.090517014 -0.025647355 -0.042435326
000080 f0 a1 3b bd 5f d0 d1 3c 67 e2 67 3c 85 9a d5 bc
       -0.045808733 0.025612054 0.0141531 -0.026074657
000090 a4 98 a6 3d b9 5b aa 3d 34 1e e4 bd 79 5e 80 3d
       0.08134583 0.08318276 -0.11138573 0.06268019
0000a0 00 de 59 bb 63 37 b0 bd 9e 8d ae 3c fd 1b ca 3d
       -0.0033243895 -0.08604314 0.021307763 0.098686196
0000b0 8d 27 2e 3c 76 74 04 be ed 19 dd bc 9a 45 f9 3a
       0.010629547 -0.12935051 -0.026989901 0.0019017935
0000c0 7f aa c1 3d ba ee 50 bd 5d 23 09 3e 90 23 87 bd
       0.09456348 -0.051008917 0.13392396 -0.0659858
0000d0 8d 96 8d bc 40 fd ca bd 00 53 90 3d bc 62 8f bd
       -0.017283702 -0.09911585 0.07047081 -0.07001254
0000e0 71 39 93 bd ef 32 fc 3d fd c0 90 bd 44 73 de 3d
       -0.071886905 0.12314402 -0.070680596 0.10861829
0000f0 06 cb b3 3d ed 7a 4c 3d 10 e7 09 bd 16 60 8b 3d
       0.08778958 0.04992192 -0.033667624 0.06805436
000100 9f 5e 9f bd f0 ea 98 bd c2 1f af bd b5 74 ad bd
       -0.077817194 -0.07466686 -0.08550979 -0.08469526
000110 af ce 69 3d 33 fe 44 bb 7a de 3a 3d 8a a8 1c bd
       0.057081874 -0.003005874 0.045622326 -0.03824667
000120 ea a1 b6 bd 55 95 b7 3d cf e1 d9 bd 1a eb 99 bc
       -0.089176014 0.0896403 -0.10638773 -0.018788863
000130 e3 0d 38 3d 0c 78 86 3d 4c 4c a1 3d ae aa 2e 3d
       0.04493512 0.06565866 0.078758806 0.04264324
000140 3d 3b 3f bd b2 04 00 be 1a 06 bb bb d9 21 97 3d
       -0.046687353 -0.12501791 -0.0057075145 0.07379503
000150 ea 04 a1 3d d8 e4 0c bc 00 91 fd bb 47 65 90 bd
       0.078622654 -0.0085994825 -0.0077382326 -0.07050567
000160 27 e6 6c bd f5 55 83 bd 8b 14 98 bd c3 1e 9f bd
       -0.057836678 -0.064128794 -0.07425793 -0.07769539
000170 72 d0 fd bc 28 34 cc bd 6c ab 83 3d 5e 11 06 3d
       -0.030983184 -0.099708855 0.064291805 0.032731406
000180 f5 1f eb bb 48 04 aa 3d 6b db 64 bd cd d3 e4 3c
       -0.0071754404 0.08301598 -0.055873316 0.027933026

linear3.weight f4 [1, 100]
000000 ee ab 62 ba 2b a3 8c b9 85 60 4e 3a 8b 5b ca 3a
       -0.00086468353 -0.0002682445 0.0007872659 0.0015438659
000010 4a 70 4b 3d d5 ec 5e b9 19 6e 08 3d b7 c7 44 3b
       0.049667634 -0.00021259797 0.033308122 0.0030026266
000020 d7 7d ca 3d 7f 33 1a bd b2 90 79 be 3a 90 00 3b
       0.09887283 -0.037646767 -0.24371603 0.0019617216
000030 78 d8 aa 3d 20 9d 05 bb f2 02 30 bb 48 9f 2d 3a
       0.083420694 -0.0020387843 -0.0026857224 0.0006623161
000040 1c f4 1e bb 62 01 3c bd cf ae 09 3b 99 9e 0f bc
       -0.0024254387 -0.045899756 0.0021008735 -0.00876584
000050 87 b3 74 bd 08 28 73 b9 2c 5e 13 3b 1b cd 49 ba
       -0.059741523 -0.00023189199 0.002248655 -0.00076981046
000060 ea 20 21 3b e3 81 23 bd d8 ac de 3d ca 72 3f bb
       0.0024586269 -0.03991879 0.10872811 -0.0029212707
000070 73 77 40 3b 52 1e 3a 3d a8 dd cb 3a 02 af 5e 39
       0.0029368072 0.045439072 0.001555373 0.00021236765
000080 2f a5 69 3e 78 59 75 3e 1b 25 2e bb ab fa 34 3b
       0.22816919 0.23959911 -0.002657241 0.002761523
000090 a8 7f 95 3e 1b 94 89 bd fd 61 c1 3d 48 b3 13 bf
       0.29198956 -0.06717702 0.09442518 -0.57695436
0000a0 07 c7 04 bb 25 4f ab 3c 84 d4 7b bd 52 71 2f bb
       -0.002026023 0.020911762 -0.061481968 -0.0026770425
0000b0 96 ba f1 3a b0 b1 be 3d 56 4e 87 ba a5 43 cc 3a
       0.0018442448 0.09311235 -0.0010323029 0.0015584124
0000c0 ef 01 e5 3d 6d 93 ca 3a b5 97 5c bd c1 42 35 3b
       0.111820094 0.0015455313 -0.053855617 0.0027658197
0000d0 4d 62 c1 3a 49 7a 8f 3a ae 70 50 3a 22 21 52 39
       0.0014754027 0.0010946478 0.0007951361 0.00020039504
0000e0 ec 57 a0 3d f4 f3 61 bd c8 95 79 3f ea bd 78 bd
       0.0782927 -0.055164292 0.97494173 -0.06072799
0000f0 34 09 f4 3a c7 db 4d 39 2a 69 07 3f df 49 8e 3f
       0.0018618465 0.00019632197 0.5289484 1.1116294
000100 38 20 b4 3a 9c 37 29 3c ba 35 11 bb ac 94 9e 39
       0.0013742512 0.0103282 -0.0022157268 0.00030246878
000110 fe 9e b4 3c 4a 3e c4 39 7a 26 ef 3b 74 9b 43 bb
       0.02204847 0.00037430442 0.007298288 -0.0029847296
000120 21 f9 67 3d 29 c3 83 bd dd b4 40 3e 1b 75 2f 3b
       0.056634072 -0.06433708 0.18818994 0.002677268
000130 e5 a5 31 bb 60 14 89 bd 04 04 fd 3a d8 2f 38 3e
       -0.0027106937 -0.06693339 0.0019303565 0.17987001
000140 a6 8c e5 3a 22 4d 7c 3d c9 13 1a 3a 13 5e 1b 3b
       0.001751323 0.061596997 0.0005877582 0.0023707196
000150 5f 8f e5 3a cb 83 0c 3e 6f a9 3a bb 07 7e 91 3e
       0.0017514041 0.1372215 -0.0028482338 0.28416464
000160 fc 05 df ba 5d c6 cb ba f5 40 8d ba cb 3d 18 3b
       -0.0017015333 -0.0015546788 -0.0010776805 0.002323019
000170 47 cf b2 3d 7f 56 25 3b fb 4f 63 bd 20 44 d9 ba
       0.08730941 0.0025228558 -0.055496197 -0.0016576089
000180 fa dc 6b 3d 4a 7c 86 ba 0f 2e 51 3d e2 46 93 3a
       0.057583787 -0.001026043 0.051069316 0.0011236335
