checkpoints/single-phase/123bus/ddpg/policy_net_checkpoint_a8.pth (torch, 43735 bytes, 5 tensors)

linear1.weight f4 [100, 1]
0	0x3f243d51	0.6415606
1	0xbf6023d1	-0.8755465
2	0xbf5d50c2	-0.8645135
3	0xbed08bac	-0.4073156
4	0xbf6b58f8	-0.9193263
5	0xbf41038b	-0.7539603
6	0x3e41c005	0.18920906
7	0xbf18f261	-0.5974484
8	0xbf4fcd58	-0.81172705
9	0xbf69aa58	-0.9127555
10	0xbe0cf8e8	-0.13766825
11	0x3e5f62d8	0.2181505
12	0x3de478ea	0.11155875
13	0xbea8ac9b	-0.32944188
14	0x3e1d12f0	0.15339255
15	0xbf742024	-0.9536154
16	0xbd41530b	-0.047198337
17	0xbf2556c6	-0.6458553
18	0xbea6eefe	-0.32604212
19	0x3f2c9f31	0.67430407
20	0xbf5b0b84	-0.85564446
21	0x3e8609e8	0.26179433
22	0x3f5465a0	0.8296757
23	0x3f3df7be	0.7420615
24	0x3e0e9353	0.13923387
25	0xbea8ec86	-0.32992953
26	0x3e6611e3	0.2246776
27	0xbe34b973	-0.17648868
28	0x3ee98b36	0.45614022
29	0x3f3a7239	0.7283054
30	0x3f30b955	0.69032794
31	0xbecfe1c6	-0.4060194
32	0xbe7710a8	-0.24127448
33	0xbe429961	-0.19003822
34	0x3f24f87a	0.64441645
35	0x3ead7891	0.33881047
36	0x3f209823	0.6273214
37	0x3d09fa34	0.033685878
38	0x3f58996d	0.8460911
39	0xbebd8c1e	-0.37020963
40	0x3f4d0008	0.8007817
41	0xbf21569e	-0.6302279
42	0xbf4946fc	-0.7862394
43	0x3dc29129	0.09500343
44	0x3e948774	0.29009593
45	0x3edcd4e4	0.43131173
46	0xbe947690	-0.28996706
47	0x3e89d98b	0.26923785
48	0xbf35f33d	-0.7107428
49	0x3f2dd58d	0.6790398
50	0x3f567823	0.83777064
51	0xbdb28fa0	-0.087188005
52	0xbdaca54a	-0.08429964
53	0xbe00810a	-0.12549224
54	0x3e690ea8	0.22759497
55	0x3ee3759e	0.44425672
56	0x3effaf9e	0.49938673
57	0xbebe6204	-0.37184155
58	0x3efb4987	0.49079534
59	0xbd7f56c3	-0.0623386
60	0x3f4da85c	0.8033502
61	0x3f1eda29	0.62051636
62	0xbf09004c	-0.5351608
63	0xbf797c86	-0.9745563
64	0xbf7602b4	-0.96097875
65	0x3f17df32	0.59324944
66	0x3f03c13a	0.51466715
67	0xbefdea25	-0.495927
68	0xbed01e87	-0.4064829
69	0xbf5f0e9a	-0.87131655
70	0xbea07120	-0.31336308
71	0x3f121d40	0.5707588
72	0xbf4b1d92	-0.79341996
73	0x3ed52181	0.41627124
74	0xbe02862d	-0.12746496
75	0xbcf990c0	-0.03046453
76	0x3e8802e1	0.26564696
77	0x3f310fbc	0.69164634
78	0xbeec2340	-0.46120644
79	0xbf056283	-0.5210344
80	0xbf741cac	-0.9535625
81	0x3c28d380	0.010304332
82	0x3e075790	0.13216996
83	0x3e47ff74	0.19531041
84	0x3e853de1	0.26023772
85	0x3f3e723a	0.74393046
86	0x3f442390	0.76616764
87	0x3f042450	0.5161791
88	0x3e8da128	0.27662015
89	0x3eb50568	0.35355687
90	0x3dac312b	0.084078155
91	0xbecfd43e	-0.40591615
92	0xbf0d2374	-0.5513222
93	0xbdd96346	-0.10614638
94	0x3e6b0ec3	0.2295485
95	0xbf782650	-0.9693346
96	0xbf4404ea	-0.7657
97	0xbe36a010	-0.17834496
98	0x3d8dca50	0.06923354
99	0xbe0944af	-0.13405107

linear1.bias f4 [100]
0	0xbe9ba9dd	-0.30403033
1	0x3f70b96d	0.9403294
2	0xbe4726c0	-0.19448376
3	0xbe90b2b0	-0.28261328
4	0x3f7cc9bf	0.9874534
5	0x3f5c5cf8	0.8607936
6	0x3f27259d	0.6529177
7	0x3f413b0c	0.75480723
8	0xbf5c59e0	-0.8607464
9	0xbee341c8	-0.44386125
10	0xbf41edac	-0.75753284
11	0xbf4fd8e0	-0.811903
12	0xbe00e2ae	-0.12586471
13	0x3f2a4be6	0.6652206
14	0xbead18a4	-0.33807862
15	0x3f07c6ea	0.53037894
16	0x3d23661c	0.0398923
17	0x3e61dd28	0.2205702
18	0x3eb5af05	0.35485092
19	0xbeed8ad1	-0.4639497
20	0x3f71c450	0.94440174
21	0xbf6932aa	-0.9109293
22	0x3f39b2ad	0.7253826
23	0xbf2a8160	-0.6660366
24	0x3e9d5bd2	0.30734116
25	0x3eaf9de7	0.34300157
26	0x3ed0e9cc	0.40803373
27	0x3e3e2573	0.18568973
28	0x3f4df04f	0.80444807
29	0xbf257dd8	-0.6464515
30	0x3f360ded	0.71115
31	0x3ee18ebc	0.4405421
32	0x3e8422a8	0.2580769
33	0x3e4cb322	0.19990209
34	0xbf537ece	-0.82615364
35	0xbe9c5794	-0.30535567
36	0x3e746221	0.23865558
37	0xbd238312	-0.03991992
38	0xbf3dcc32	-0.741397
39	0x3f1371aa	0.5759531
40	0xbf380108	-0.71876574
41	0xbe656878	-0.22403133
42	0x3f58718a	0.84548247
43	0xbdc06f93	-0.09396281
44	0xbf1554e4	-0.5833266
45	0xbf1473e6	-0.57989347
46	0xbf3a23da	-0.72710955
47	0x3f3e36ff	0.7430267
48	0x3f22a19e	0.6352786
49	0x3ef9a906	0.48761767
50	0x3f2a1703	0.66441363
51	0xbda44180	-0.08020306
52	0x3e23420f	0.15943168
53	0x3ea7547a	0.32681638
54	0xbeacfa7c	-0.33784854
55	0xbecc6d06	-0.39926928
56	0xbedaad54	-0.42710364
57	0x3e7884d0	0.24269414
58	0x3ea3a197	0.3195922
59	0x3e8e9807	0.27850363
60	0xbf38b306	-0.7214817
61	0xbd3ac301	-0.045596126
62	0xbe9695c8	-0.2941115
63	0x3f1a4578	0.6026225
64	0xbec0cc64	-0.37655938
65	0x3ecd4516	0.4009177
66	0xbdbf2c9e	-0.09334682
67	0x3f08f728	0.5350213
68	0x3ee08837	0.43853924
69	0xbf551c88	-0.8324666
70	0xbf137ace	-0.5760926
71	0xbf21663d	-0.6304663
72	0x3f603278	0.8757701
73	0x3e660838	0.22464073
74	0x3df25355	0.118323006
75	0xbf6e5d5a	-0.93111193
76	0x3ce74212	0.028229747
77	0x3e75a1dc	0.23987526
78	0x3efdfbf9	0.49606302
79	0x3f4540f4	0.77052236
80	0xbebfa7c4	-0.37432683
81	0xbf7bf8ba	-0.984264
82	0xbeb2a270	-0.34889555
83	0xbe447dad	-0.19188567
84	0xbe73cdf0	-0.23809028
85	0xbf50053a	-0.81257975
86	0x3f4c50e7	0.7981095
87	0xbf519144	-0.8186228
88	0xbf0646ca	-0.52451766
89	0xbf732bcc	-0.94988704
90	0xbdc99a25	-0.09843854
91	0x3f0d01af	0.55080694
92	0xbec5cf90	-0.3863492
93	0x3f13151f	0.57454103
94	0x3e1302fc	0.14356607
95	0x3f3aba80	0.72940826
96	0xbf02a192	-0.51027787
97	0xbf649138	-0.89284086
98	0xbf2a3f42	-0.66502774
99	0x3e0a16d6	0.13485274

linear2.weight f4 [100, 100]
0	0xbcc58483	-0.024111038
1	0xbf40d575	-0.7532571
2	0xbd95d8df	-0.073167555
3	0xbccaccfa	-0.024755944
4	0xbf17b207	-0.59256023
5	0x3dc0ad0d	0.09408007
6	0xbd1d7d64	-0.03844966
7	0x3d8d10d9	0.06887979
8	0x3dcc1082	0.09964086
9	0xbd2b2807	-0.04178622
10	0xbd4a9717	-0.049460497
11	0x3d0b915a	0.034074165
12	0x3eb28bbb	0.3487223
13	0x3d89377d	0.06700037
14	0xbb944900	-0.004525304
15	0xbdb7f41d	-0.08982108
16	0xbb8e8c98	-0.004350256
17	0xbc05395a	-0.008131349
18	0xbca9e4c7	-0.020738972
19	0x3c636371	0.013878689
20	0x3f1500f7	0.582046
21	0xbd594d60	-0.053052306
22	0xbd8c0d4b	-0.06838473
23	0xbe12d411	-0.1433871
24	0xbd10b050	-0.035324395
25	0x3d2db4e6	0.042408846
26	0x3d655423	0.055988442
27	0x3f6f12c8	0.9338803
28	0x3d6dd7e0	0.058067203
29	0xbad8c345	-0.0016537687
30	0xbcc4a2b2	-0.02400336
31	0x3dcac42b	0.09900697
32	0x3dad3c74	0.08458796
33	0x3f4b6779	0.7945476
34	0x3d31b31a	0.043383695
35	0x3d79339b	0.06084023
36	0x3bab1d62	0.0052220086
37	0x3d95c8b4	0.07313672
38	0xbde5e8f9	-0.11226077
39	0xbd113a98	-0.03545627
40	0xbe35105f	-0.17682026
41	0x3dc11c1a	0.09429188
42	0xbdfb8f79	-0.122832246
43	0xbef8c01b	-0.48584065
44	0x3dc4bbdd	0.096061446
45	0xbd22b6e0	-0.039725184
46	0xbd2dfd8d	-0.042478133
47	0x3de284f1	0.11060513
48	0xc00cb1f5	-2.1983616
49	0x3d91e90f	0.071245305
50	0xbcac5b8c	-0.021039747
51	0xbd2f5357	-0.04280409
52	0x3d322353	0.04349072
53	0xbd37ffa9	-0.04492155
54	0x3dbe8fdb	0.09304782
55	0xbdfa5a41	-0.12224246
56	0x3d8b1170	0.06790435
57	0x3c225c1a	0.009909654
58	0xbd89acb7	-0.06722396
59	0x3db146f3	0.086561106
60	0x3cd4b7e6	0.025966596
61	0xbdaedb1f	-0.08537888
62	0xbda85daf	-0.08220994
63	0x3dc9d300	0.09854698
64	0x3d808743	0.06275799
65	0xbda553fc	-0.080726594
66	0xbd513d16	-0.051083647
67	0xbd1269f3	-0.035745572
68	0x3e23335a	0.15937558
69	0x3d99603b	0.07489058
70	0x3d57eda7	0.052716877
71	0x405f1256	3.4854941
72	0x3f114a95	0.5675443
73	0xbd1561ea	-0.03647033
74	0x3f12a045	0.572758
75	0x3d1fe43a	0.039036013
76	0x3db18429	0.08667786
77	0x3d4106d2	0.047125645
78	0xbe0807e6	-0.13284263
79	0x3deb0c1a	0.114769176
80	0xbdc327e5	-0.09529094
81	0xbcdaf2ad	-0.026727045
82	0x3d85e732	0.06538238
83	0xbf332250	-0.6997423
84	0x3cf1b67d	0.029505963
85	0x406272e4	3.5382624
86	0x3d13000d	0.03588872
87	0xbdbd533f	-0.092443936
88	0x3d0183b7	0.031619754
89	0x3d688327	0.0567657
90	0x3f1edb6b	0.62053555
91	0xbd08509a	-0.033279993
92	0xbd4eba47	-0.050470617
93	0xbc8230f0	-0.015892476
94	0x3dcff5e1	0.101543196
95	0xbc6faae7	-0.014628149
96	0x3d81e4fa	0.06342502
97	0x3c3a7673	0.01138078
98	0xbdc7bfea	-0.097534016
99	0x3dbffa86	0.093739554
100	0xbd2723e7	-0.040805724
101	0xbbb9d31a	-0.005670917
102	0x3d714bba	0.05891011
103	0xbc733567	-0.014844275
104	0x3dba693d	0.09102104
105	0xbdb70782	-0.08936979
106	0xbd74dc5d	-0.059780467
107	0x3daca9aa	0.08430798
108	0x3d4d3d0d	0.05010705
109	0xbd2a172a	-0.041525997
110	0xbda43453	-0.080177926
111	0x3ccd3a1a	0.025052119
112	0x3cdcb0ad	0.026939714
113	0xbccd66e7	-0.025073482
114	0x3d89d7b3	0.067305945
115	0xbd5b7040	-0.053573847
116	0x3c4c3627	0.012464083
117	0x3d61ceb3	0.055128764
118	0xbc9bb91a	-0.019009162
119	0x3d52024d	0.051271725
120	0x3cb3fe4d	0.021971846
121	0xbce0e667	-0.027453614
122	0x3d213d80	0.03936529
123	0x3d3a8ec7	0.04554632
124	0x3d0b0bf7	0.033946957
125	0x3dc286a7	0.09498339
126	0x3cab736d	0.020929063
127	0xbcdd8b5a	-0.027043987
128	0xbab3e6cd	-0.00137254
129	0x3d3279aa	0.04357306
130	0xbd04745d	-0.032337535
131	0x3d267d50	0.04064685
132	0xbd86069d	-0.0654423
133	0xbdbfa047	-0.09356742
134	0x3d8707e5	0.06593303
135	0x3dc93a55	0.09825579
136	0xbca1ec07	-0.019765867
137	0x3d6144fd	0.054997433
138	0xbd246ecd	-0.04014473
139	0xbd85f8fd	-0.06541631
140	0x3d376770	0.04477638
141	0x3cb36b00	0.021901608
142	0x3c16a9e7	0.009195781
143	0xbd321333	-0.04347534
144	0xbd80c5f2	-0.06287755
145	0x3d8825f3	0.06647863
146	0x3d01ddfa	0.031705834
147	0x3b764767	0.003757918
148	0x3d806e2d	0.06271014
149	0x3cd68027	0.026184155
150	0xbda8855a	-0.0822856
151	0xbd9745d3	-0.07386365
152	0x3dc06355	0.09393946
153	0xbd2efb03	-0.042719852
154	0x3d7102f0	0.058840692
155	0x3d0d89a7	0.034555104
156	0xbd269e0a	-0.04067806
157	0x3dafc0dd	0.085817076
158	0xbcd2d400	-0.025735855
159	0xbd8e0c72	-0.069359675
160	0xbdcac55b	-0.09900924
161	0xbbbdba9a	-0.005790067
162	0xbcf4990d	-0.029858137
163	0x3dbc5a5a	0.09196921
164	0x3d0ffd03	0.0351534
165	0x3ba79c33	0.005115056
166	0x3da3eec7	0.080045275
167	0xbd2ffed3	-0.04296763
168	0x3dc4f953	0.09617867
169	0xbc2b81f3	-0.010467994
170	0x3dafb3ed	0.0857924
171	0x3c25431a	0.010086799
172	0xbb13be67	-0.0022543909
173	0x3d265f3d	0.04061817
174	0x3cf24a9a	0.029576588
175	0x3d88e75d	0.06684754
176	0xbd89aa3b	-0.06721922
177	0x3d8e2500	0.06940651
178	0x3ce4eeb3	0.027945852
179	0xbd68213d	-0.056672323
180	0x3daf2d27	0.08553534
181	0xbd53898d	-0.05164485
182	0x3d6e87a3	0.058234822
183	0x3d91cc6f	0.07119071
184	0xbda62437	-0.08112376
185	0xbc885a9a	-0.016644765
186	0x3cb39060	0.02191943
187	0x3dbd8ce3	0.09255388
188	0x3db55212	0.08853544
189	0x3d6e6e13	0.058210444
190	0xbda184b2	-0.07886638
191	0xbbb197b3	-0.0054196953
192	0xbc3da927	-0.011575974
193	0x3cb40aa0	0.021977723
194	0xbd02571a	-0.031821348
195	0x3db9c95d	0.0907161
196	0xbad9de67	-0.0016622067
197	0x3d135b4a	0.035975732
198	0x3c91005a	0.017700363
199	0xbc21c25a	-0.009872997
200	0xbd925d87	-0.07146745
201	0xbf8a05a3	-1.078297
202	0xbd08b43d	-0.033375014
203	0xbd07006a	-0.03295938
204	0xbf8ccc17	-1.0999783
205	0x3c1ac74a	0.009446928
206	0x3cfec0a7	0.031097723
207	0xbd8f58eb	-0.06999382
208	0xbcf644c0	-0.03006208
209	0xbc10894d	-0.008821798
210	0x3dc80c1d	0.097679354
211	0x3d106490	0.035252154
212	0x3e3d5649	0.18489946
213	0x3a0a30a5	0.0005271531
214	0x3b539e9a	0.0032290579
215	0x3bcf119a	0.006319237
216	0xbd219646	-0.039449953
217	0x3ceb0273	0.028687691
218	0xbdc31e23	-0.095272325
219	0x3c3ab184	0.011394862
220	0x3e6cd759	0.23129024
221	0x3d88c772	0.06678666
222	0x3c861a25	0.016369889
223	0xbcf1fa5a	-0.029538322
224	0xbc53efef	-0.012935623
225	0x3c9741fe	0.018464085
226	0x3db32ee7	0.0874918
227	0x3f31c2c6	0.69437826
228	0xbd38b0ba	-0.045090415
229	0x3d111c97	0.035427656
230	0x3dbe5e9f	0.09295391
231	0xbd9d980c	-0.07695016
232	0xbd4216ea	-0.047385134
233	0x3efbd4d4	0.49185812
234	0xbd8ebd8d	-0.06969748
235	0xbd18727a	-0.03721855
236	0x3d8e1c3c	0.06938979
237	0x3a8b4dd1	0.001062805
238	0x3d8ef598	0.06980437
239	0x3c4dd25b	0.01256236
240	0x3d141520	0.03615296
241	0x3d9d56e7	0.07682591
242	0xbea4223e	-0.32057375
243	0xbec2964b	-0.3800529
244	0x3d222e53	0.03959496
245	0x3db7430d	0.08948336
246	0x3d3b8c57	0.045788135
247	0xbd8eb1ef	-0.06967532
248	0xbfe32d7d	-1.7748257
249	0xbca9e37a	-0.020738352
250	0x3d7b47f1	0.061347906
251	0x3dbe9b65	0.09306983
252	0x3d1fbf11	0.039000574
253	0x3d98c330	0.07459104
254	0xbc7a7a4d	-0.015287948
255	0x3d06247e	0.032749645

linear2.bias f4 [100]
0	0x3d661444	0.05617167
1	0xbb388767	-0.0028156878
2	0xbc9ee009	-0.019393938
3	0xbc5068de	-0.012720315
4	0xbd8ae4bb	-0.06781908
5	0x3cdd2467	0.026994897
6	0xbcf8aac0	-0.030354857
7	0xbda3e31d	-0.08002303
8	0xbd945447	-0.07242637
9	0x3ae3dfde	0.0017385443
10	0xbb870100	-0.0041199923
11	0xbd90e776	-0.07075398
12	0x3cac2a3a	0.021016229
13	0xbd9a501a	-0.075348094
14	0x3c2d40c0	0.01057452
15	0x3d115675	0.035482842
16	0xbd8ce39b	-0.0687935
17	0x3d98c9e6	0.07460384
18	0xbd0a0f64	-0.033706084
19	0x3cacc9a7	0.02109225
20	0xbc8b8387	-0.01703049
21	0x3d47e1d6	0.04879936
22	0xbd47cc77	-0.048778977
23	0x3da13b28	0.07872611
24	0x3d427e88	0.04748395
25	0xbdb0b1bd	-0.08627651
26	0xbd359cba	-0.04433892
27	0x3b9a09a9	0.0047008586
28	0x3daadd28	0.083429635
29	0x3ca07a2b	0.019589504
30	0xbd64d1b7	-0.055864062
31	0xbcb84b60	-0.02249688
32	0xbc54fe8d	-0.013000143
33	0xbdce47ff	-0.10072326
34	0xb85a37e8	-5.2027317e-05
35	0x3d721f23	0.059111726
36	0xbd39a6a8	-0.04532495
37	0x3daba527	0.0838111
38	0xbd0c6105	-0.034272213
39	0x3db45d30	0.088068366
40	0x3d9a6223	0.07538249
41	0x3d554eae	0.052076988
42	0x3dc1508d	0.09439192
43	0xbd0c4cd0	-0.03425294
44	0xbdb0d1ca	-0.08633764
45	0x3c5e5af3	0.013571489
46	0x3d942174	0.07232943
47	0x3d80fb67	0.06297951
48	0x3c44ad5c	0.012004223
49	0xbc2853fa	-0.010273928
50	0xbc23cbb3	-0.009997296
51	0xbbe28bee	-0.0069136536
52	0x3c292161	0.0103229
53	0x3d6fe80e	0.058570914
54	0xbdb3cfaf	-0.08779847
55	0xbdddbbff	-0.10826873
56	0x3cace7da	0.02110665
57	0xbbd2aa4d	-0.006428993
58	0xbd87fd73	-0.066401385
59	0x3d4a20fc	0.049347863
60	0xbd913108	-0.0708943
61	0xbc3bf596	-0.0114721265
62	0xbdc8a578	-0.09797186
63	0x3c0df0a3	0.008663329
64	0x3d8cb60a	0.06870659
65	0xbdc8b7cd	-0.09800682
66	0xbc1977da	-0.009366954
67	0xbdc8a4e5	-0.09797076
68	0x3cac7e0a	0.021056194
69	0x3b8130f3	0.003942603
70	0x3cbec2ad	0.023286188
71	0xbd6c9bd3	-0.057765793
72	0x3db0bd57	0.08629864
73	0xbd309bb2	-0.043117233
74	0x3d892c32	0.06697883
75	0x3db558f8	0.0885486
76	0xbdcf5612	-0.101238385
77	0x3ca79a5f	0.020459352
78	0x3d8d3478	0.06894773
79	0xbdc7dbe2	-0.09758736
80	0x3d8061f6	0.062686846
81	0x3d3315bd	0.043721903
82	0xbd8a99f1	-0.06767643
83	0xbd4056d7	-0.046957817
84	0x3d8f3c6f	0.06993949
85	0x3d625f7e	0.05526685
86	0x3bc4f5f0	0.0060107633
87	0x3d7921da	0.0608233
88	0xbdcb212f	-0.09918439
89	0x3d757733	0.05992813
90	0x3cb1b9d5	0.021695057
91	0xbd5af42d	-0.05345552
92	0x3d449102	0.047989853
93	0xbd294820	-0.04132855
94	0x3cd35a32	0.025799844
95	0x3d415087	0.047195937
96	0xba01b22c	-0.0004947509
97	0xbd008bdc	-0.03138338
98	0xbdc6276f	-0.0967549
99	0xbcf0874d	-0.029361391

linear3.weight f4 [1, 100]
0	0x3eed41a3	0.4633914
1	0xba240e39	-0.0006258223
2	0x3f22f912	0.636613
3	0x3aa70c84	0.0012744819
4	0xbb385cf9	-0.0028131588
5	0xba914e15	-0.0011085892
6	0x3aa7e803	0.0012810234
7	0xbe11aec0	-0.14226818
8	0xbb3e1fb2	-0.002901059
9	0x3b0afaa2	0.0021206518
10	0x3ad9e14c	0.001662293
11	0xbb06b9a6	-0.0020557432
12	0x3ad5c5c9	0.0016309555
13	0x3a178ad3	0.00057808793
14	0xbb195d23	-0.002340146
15	0x3a05bc50	0.0005101608
16	0xbaf7d4ed	-0.0018908061
17	0xbdf45fab	-0.1193231
18	0xbe805e18	-0.25071788
19	0x3a8d3210	0.0010772366
20	0xb89dc052	-7.522166e-05
21	0x3e39e70c	0.18154544
22	0x3e132d73	0.14372806
23	0xbb0af298	-0.0021201726
24	0x3ed3eaf6	0.41390198
25	0xba7f8673	-0.00097475125
26	0x3a7c094a	0.0009614421
27	0xbdd1c5cf	-0.10242807
28	0x3e4337a7	0.19064198
29	0x3e0ac1a4	0.1355043
30	0x3ae42695	0.0017406518
31	0xb77a5fbf	-1.4923454e-05
32	0x3ac1b3c2	0.0014778303
33	0xbe32b00b	-0.17449968
34	0x3e3b0098	0.18261945
35	0x38bf2891	9.115146e-05
36	0x3e4a03a3	0.1972795
37	0x3ab44ecb	0.0013756392
38	0x3a22edcb	0.00062152435
39	0x3e4251a0	0.1897645
40	0xbb29e662	-0.0025924672
41	0xbde4eb82	-0.11177732
42	0x3ad2a71a	0.0016071529
43	0x3e50e619	0.20400275
44	0x3b25d3aa	0.0025303164
45	0x3adbf37b	0.0016780937
46	0x3e7b59ad	0.24545927
47	0x3e914448	0.28372407
48	0x3e303750	0.172086
49	0x3ea54405	0.32278457
50	0xbad7417a	-0.0016422712
51	0x3b8e826f	0.004349045
52	0xbef545b3	-0.4790474
53	0xbe5a4f20	-0.21319246
54	0xbafd44ac	-0.0019322834
55	0xbe9e89b2	-0.30964428
56	0xb98f6e18	-0.00027357112
57	0xbb35e90b	-0.0027757313
58	0x3e97e041	0.2966328
59	0x3e3575f7	0.17720781
60	0xba8b3e5c	-0.0010623443
61	0x3e0e9106	0.1392251
62	0xbefd68ae	-0.49493927
63	0xbe43fbca	-0.19139019
64	0xba0e5121	-0.0005428959
65	0x3a8b4bb3	0.0010627419
66	0xb92cad37	-0.00016467726
67	0x38f57cac	0.00011705732
68	0xba3cd08d	-0.00072027073
69	0x3e1ec7fc	0.15505975
70	0x3a8c7641	0.0010716395
71	0xbb22bbb4	-0.0024831118
72	0x39471948	0.00018987537
73	0x3dd597eb	0.10429367
74	0x3b3d5592	0.0028890115
75	0xbe149b31	-0.14512326
76	0x3e3ad638	0.1824578
77	0xbf0135b6	-0.5047258
78	0x3b188add	0.0023276128
79	0xbb320abe	-0.0027167047
80	0xbae4e699	-0.0017463743
81	0xbe11132a	-0.14167467
82	0x3e3f5842	0.18686011
83	0x3b109599	0.0022061823
84	0x3a7b251f	0.00095804216
85	0x3f87c770	1.0607738
86	0xbe30e94e	-0.17276499
87	0x3a83be59	0.0010051235
88	0xbb2eedc9	-0.0026692024
89	0xbe14b7ff	-0.14523314
90	0x3e3b50f7	0.18292604
91	0x3ad2dfec	0.0016088462
92	0xbe2a4a87	-0.16629992
93	0xbaf71205	-0.0018849975
94	0x3ef6ca7d	0.4820136
95	0xbe3cfc97	-0.1845573
96	0xbdc74ce1	-0.0973146
97	0x3e3456bc	0.17611212
98	0x3b3702ca	0.0027925246
99	0x3aecfebb	0.0018081287
