checkpoints/single-phase/123bus/ddpg/policy_net_checkpoint_a0.pth (torch, 43735 bytes, 5 tensors)

linear1.weight f4 [100, 1]
000000 e2 ed 30 bf b4 8f e7 3e a0 a5 b4 bd 0a 99 29 bf
       -0.6911298 0.45226824 -0.08820653 -0.66249144
000010 9c eb 8e be 94 a5 6d 3e d2 8a 7b be 8a 6b 4b bf
       -0.2791413 0.23207694 -0.24564674 -0.79460967
000020 8f 14 83 be 4a 54 e4 be e8 11 67 3f 76 62 4d 3f
       -0.25601622 -0.44595557 0.902617 0.80228364
000030 b1 48 3c 3f 78 bc 50 3e 47 4a ec be d8 61 05 3f
       0.7354842 0.20384395 -0.4615042 0.5210242
000040 a0 d5 3e bd cc d3 e5 3e d0 54 4f be d8 07 9f 3e
       -0.046590447 0.4488815 -0.20247197 0.31060672
000050 b8 12 b3 be ec 0c 58 3f 94 15 d8 be 3a be 1d 3f
       -0.3497522 0.8439472 -0.42203963 0.6161839
000060 b1 5e 72 bb ea 98 0c 3f 79 dd 9c bd bc 48 1a bf
       -0.003698271 0.5492083 -0.0765943 -0.60267234
000070 38 01 fd 3e a9 27 46 3f b0 92 80 be c6 ae 0e be
       0.49414992 0.77404267 -0.25111914 -0.13933858
000080 f7 8f b4 be 62 c6 3d 3e ef 8a 55 bf f8 d8 82 3e
       -0.35266086 0.18532708 -0.8341512 0.2555616
000090 c6 d4 41 3f 56 f3 12 3f b8 8a 2e bf ef 19 21 bf
       0.7571529 0.5740255 -0.6818042 -0.62930197
0000a0 d0 1c 49 be 6b 85 05 be a0 5f 30 3f d0 26 03 bf
       -0.19639897 -0.13039176 0.6889591 -0.512311
0000b0 22 e7 6a 3f f0 2d d9 be e2 29 7f bf 74 dd b8 3e
       0.9175893 -0.4241786 -0.99673283 0.36106455
0000c0 3c 4e cb be 00 c4 df bc 80 e1 e0 be 3a 22 44 bf
       -0.39708126 -0.02731514 -0.43922043 -0.76614726
0000d0 4d 2d d2 bc 6c 21 55 3f 70 c5 a6 be 0f 5f 3d 3f
       -0.025656367 0.8325412 -0.32572508 0.7397317
0000e0 f0 fa 6f 3f 16 27 b2 be 34 5f ec be 4f ca 53 3f
       0.93742275 -0.34795445 -0.46166384 0.82730573
0000f0 47 1d 55 bf b8 58 4c bf 83 37 b0 be 86 5b c7 be
       -0.832478 -0.79822874 -0.34417352 -0.38937014
000100 c1 74 46 3f 02 31 73 bf 60 61 4a bd 07 08 e1 3e
       0.775219 -0.94996655 -0.04940927 0.43951437
000110 76 ee 59 bf dc c0 34 3f 88 85 28 bf 4c bf 39 bf
       -0.8512949 0.7060678 -0.6582875 -0.7255752
000120 14 c5 5f 3d 88 73 e4 3e a0 93 0d bf ed 5a 8a 3e
       0.054631308 0.44619393 -0.5530338 0.27022496
000130 e2 04 d9 3e 95 6b 49 3f 9c ca 28 bf ac 97 6b 3f
       0.42386538 0.7867978 -0.6593416 0.9202831
000140 59 5d bc be ae 13 45 3f 9e 2b 1f 3f f8 0d e2 3e
       -0.3678997 0.76983154 0.6217593 0.44151282
000150 30 ff 47 bf 75 44 3d 3b 00 26 34 bc c1 43 9f 3e
       -0.7812376 0.0028879915 -0.010995388 0.3110638
000160 3f a9 d6 3e c8 91 a2 3e 92 d8 2b bf 36 71 01 bf
       0.41926 0.31751847 -0.67127335 -0.5056337
000170 68 dc da be 4f d8 00 3f 10 4f cb 3d 61 b1 39 bf
       -0.42746282 0.5033006 0.09927189 -0.72536284
000180 e3 0a 53 3f 30 66 31 3e 0c 97 3d bf a7 6c 3c bf
       0.82438487 0.17324138 -0.74058604 -0.7360329

linear1.bias f4 [100]
000000 1c 3f 93 be 7c 98 77 bf 20 73 a0 be 08 ab 11 bf
       -0.28759086 -0.9671705 -0.31337833 -0.569016
000010 bc 7f 6b bf b8 59 72 be 2d 96 a7 3e 9e 5d 08 bf
       -0.9199178 -0.23667037 0.32731763 -0.5326785
000020 33 b5 ba 3e 02 42 5e 3f df cb 5f 3f 81 11 a6 ba
       0.3646637 0.8681947 0.8742046 -0.0012670011
000030 e7 02 08 bf 62 4a 0b 3e 82 96 cf 3e 24 4a e9 3e
       -0.5312943 0.13602594 0.40544516 0.45564377
000040 ac 05 4b bf cd a7 16 3f 40 84 02 bd 24 bb f8 be
       -0.7930553 0.58849794 -0.031864405 -0.48580277
000050 ac ee 85 3e 5b d8 5a 3d d4 01 dc be f4 b1 33 3a
       0.26158655 0.05342899 -0.42970145 0.0006854825
000060 0b 9d 2f 3f 4e 4d 31 bf cd a0 3d 3e 30 1a de 3e
       0.68599004 -0.6925858 0.18518372 0.43379354
000070 8e f9 2a 3f a8 78 32 3f ed 6e dd 3e 5f 01 61 3f
       0.6678704 0.69715357 0.43248692 0.8789272
000080 6a cf de 3e 21 05 71 3e b7 cf 67 3f f5 3f bb 3e
       0.4351762 0.23537113 0.9055132 0.36572233
000090 c8 d0 bc be bc ed 3e 3d c6 08 52 3f f4 ab 46 3f
       -0.36878037 0.04661344 0.8204464 0.7760613
0000a0 e0 e6 0f be 53 3e 9e 3e d6 f9 ec bd 48 aa c7 be
       -0.14052916 0.30906925 -0.1157109 -0.38997102
0000b0 86 44 08 3f 98 b8 be 3e 48 a7 ec be 8c 17 0c 3e
       0.5322956 0.3725021 -0.46221375 0.13680857
0000c0 20 a0 03 3d c0 09 20 bf c0 20 49 bd c8 6a 01 3f
       0.03213513 -0.6251488 -0.0491035 0.5055356
0000d0 3b 8e 6b 3f 1f 89 cd 3b 3c 81 ba be 9b b5 82 be
       0.920139 0.0062724496 -0.36426723 -0.2552918
0000e0 ef 4e 64 bf e8 b2 c1 3e 6b 0a 42 3f 19 5a e9 bc
       -0.89182943 0.37831807 0.75797147 -0.028485345
0000f0 b9 e3 68 3f e0 e0 47 3d 77 22 23 3f 08 a5 1e 3f
       0.9097248 0.048798442 0.63724464 0.6197057
000100 b1 dc 32 3f 38 54 6c 3e b8 24 50 bf 00 3e e0 3e
       0.69868 0.23079002 -0.8130603 0.43797302
000110 82 69 45 bf ee 28 56 3d a8 48 77 3e 34 21 7c bf
       -0.7711412 0.052285127 0.2414881 -0.98488164
000120 2c ec c7 3e 7e 88 74 bf c0 77 6c 3f 98 f7 49 3e
       0.39047372 -0.9552077 0.92370224 0.19723356
000130 d7 88 06 3f d0 1d 23 be fe 74 72 bf bf 5e 5d bf
       0.5255255 -0.15929341 -0.94709766 -0.86472696
000140 61 63 19 3f ad 78 30 bf 4b 0d 9a be 64 f3 65 3f
       0.59917265 -0.68934137 -0.30088267 0.8982451
000150 d9 1a 59 3f 90 aa 64 3e 10 e1 0d be 68 7b 2f 3f
       0.8480659 0.2233069 -0.13855386 0.6854768
000160 af 07 c7 be a5 32 41 3f d8 7d db 3e 44 53 c7 3e
       -0.3887305 0.754679 0.4286945 0.38930714
000170 e0 92 14 be 58 d0 82 3e 4c df f6 be cd 70 23 3f
       -0.14509153 0.2554958 -0.48217237 0.63843995
000180 5a 1d 43 bf d2 e9 6c bf 98 f5 10 3e fc f2 32 3f
       -0.7621666 -0.9254428 0.14156187 0.69902015

linear2.weight f4 [100, 100]
000000 27 e1 86 bc b3 31 cf 3b 43 b7 13 bd 4d 5c 66 3d
       -0.016464783 0.0063230633 -0.036063444 0.05624037
000010 30 50 19 bd 5a fd 6c 3d 9a 3e 92 bb a3 fb 9b 3d
       -0.03742999 0.057858802 -0.004463029 0.07616355
000020 87 a2 fe bc 20 76 d0 3c 7b 52 b0 bd c0 8e a6 3d
       -0.031083358 0.025446951 -0.08609482 0.08132696
000030 2d af c3 3c 67 1c a0 3b f0 9a 87 bd 30 60 a3 3d
       0.023887241 0.0048861983 -0.06621349 0.07977331
000040 73 22 aa bc 47 98 30 3d ba a3 f8 3c 9d c9 a5 3d
       -0.02076838 0.043113973 0.030351508 0.08095095
000050 2d 58 8f 3d 9a b6 01 bd 95 7c a7 3d 0d 7c 73 bd
       0.0699924 -0.031668283 0.08178059 -0.059444476
000060 6a 6b 99 bd 8f 3a a2 3d a0 cd a3 bd da 26 1e 3d
       -0.07491191 0.079213254 -0.07998204 0.03861127
000070 4d ec 4d bc 02 44 ac bd dd c7 73 bd 23 2c 2f 3d
       -0.0125685455 -0.08411409 -0.059516776 0.0427667
000080 9a 83 96 3a b3 2e c1 bb 33 b0 67 3d 4a 4f c7 bd
       0.0011483312 -0.0058954596 0.05656452 -0.0973192
000090 43 4f 75 3d d3 36 b4 3d e0 c6 18 3d b3 77 1e 3c
       0.059890043 0.087995194 0.037299037 0.009672093
0000a0 33 0d fb 3a 00 2d 07 bb ea 66 60 bd 60 c0 37 bd
       0.0019153714 -0.0020626187 -0.054785646 -0.044861197
0000b0 1a 36 bd bd e5 ec c3 3d 33 54 ea bb b3 e3 85 bd
       -0.09238835 0.095666684 -0.0071511506 -0.06537571
0000c0 a7 8d 27 3c aa 41 51 3d 3a 79 2a bd 33 84 64 3b
       0.010226644 0.051088013 -0.041619517 0.0034868836
0000d0 f3 58 09 3d 40 c0 b3 bc 87 3f a4 3d b0 49 54 bd
       0.033532094 -0.021942258 0.080199294 -0.051828086
0000e0 13 c0 af bc 93 ed a4 3d e7 77 4c 3c 45 a1 ca 3d
       -0.021453893 0.08053126 0.012479759 0.09894041
0000f0 c7 95 8a 3d 9a c9 62 3a 7a 03 c9 bc 37 c3 1e 3d
       0.06766849 0.0008651257 -0.02453779 0.03876039
000100 b0 ad 1c bd fb f7 96 bd 93 5e e4 bc f3 9d 74 bd
       -0.03825158 -0.07371517 -0.027877128 -0.059720945
000110 d3 63 74 3d 07 8e f8 bc f7 07 b1 bd 5f fe b9 3d
       0.059665512 -0.030341161 -0.08644097 0.090817206
000120 23 f8 36 bd 4d 01 da 3b 63 0a b4 bd 00 6e 70 3d
       -0.044670235 0.006652987 -0.087910436 0.058698654
000130 33 b3 c3 37 97 01 5d bd ba 85 d6 bc 20 2d 0e bd
       2.3329258e-05 -0.053956594 -0.026186813 -0.034711003
000140 1a 26 5e bd 3d 29 23 bd d0 20 af bd 5a 5b 17 bc
       -0.054235555 -0.03983425 -0.0855118 -0.0092380885
000150 73 72 4b 3d cd 52 a6 bc fd 84 ac bd 1a b3 3a bd
       0.049669694 -0.020303154 -0.08423803 -0.04558096
000160 9d a0 13 bd 73 99 c1 bc 5a 60 4f bc 0d cf 2d bc
       -0.036041845 -0.02363274 -0.012657249 -0.010608447
000170 97 2f 94 3d 9a e5 00 bd da 84 a4 bd 42 a7 94 3d
       0.072356395 -0.031468965 -0.08033152 0.072584644
000180 73 d6 ad 3c 8d f6 6e 3c 33 24 b9 3d cd 8d cc bc
       0.021220421 0.0145851495 0.090401076 -0.02496996
000190 67 35 54 bd 73 d1 8d bd d2 fc 80 bd 45 40 96 3d
       -0.05180874 -0.06924715 -0.06298222 0.07336477
0001a0 3a a5 39 3d 52 98 1c be 36 22 1c 3e e7 62 dc bb
       0.045323588 -0.1529248 0.15247425 -0.0067256573
0001b0 16 a3 06 3e c1 e2 c8 3d 94 44 8e bc d6 5a 8c 3d
       0.1314815 0.09808875 -0.017366685 0.06853263
0001c0 4e 59 ee bd fb eb cb bc f0 51 2e 3d fe ca be 3d
       -0.11638127 -0.024892798 0.04255861 0.093160614
0001d0 73 3e 95 3d 4f 5f df 3c ea 93 4e 3d 4d 3d 31 bc
       0.07287302 0.027267126 0.05043403 -0.010817838
0001e0 b3 6a b9 bb 3f c4 ba bd b3 04 db bb 51 f0 99 3d
       -0.0056584715 -0.09119462 -0.00668391 0.0751654
0001f0 a8 64 55 3d 77 8e 3a bd 73 0c 3a bd d3 bf 98 3c
       0.052097946 -0.04554602 -0.04542203 0.018646156
000200 22 68 1b 3d e7 c6 8d 3d 76 b3 ef 3d f3 d6 87 3d
       0.037941106 0.06922703 0.11704151 0.06632795
000210 cd 2b 66 3d 34 53 af bd e3 60 7f 3e 13 2e 99 bb
       0.056194115 -0.085607916 0.24939303 -0.004674682
000220 7e 9c e7 bd de 56 6e 3d 42 f3 ca 3d d4 b4 0e 3e
       -0.113091454 0.05818831 0.09909679 0.13936168
000230 6a eb 28 3d 21 42 a7 bd a2 57 ce bd 00 62 e6 3a
       0.041240133 -0.0816691 -0.100753084 0.0017576814
000240 6b ef 6b bd c3 ff 7f 3d cd c3 bf 3c c9 de 52 3c
       -0.057601374 0.062499773 0.023408795 0.012870499
000250 9a 54 1f 3c 57 21 c6 3d 4a 95 2d bd e7 12 08 bc
       0.00972476 0.09674328 -0.0423787 -0.008305288
000260 6e 40 46 3d e7 aa e6 3c ed 23 58 3d 7a 83 5f bd
       0.04840129 0.028157664 0.052768636 -0.054568745
000270 fc bc 9c be db ce 2f 3e e8 ad 08 3d de 56 f4 bc
       -0.30612934 0.17168753 0.033368975 -0.029826578
000280 9e 6b 36 3e 00 59 9a bc 11 da c9 3d 1d 0e e5 bc
       0.1781449 -0.018841267 0.09856046 -0.027960831
000290 4c 94 90 bd d5 8d bc 3d 0d d9 81 3d 97 15 43 3d
       -0.070595354 0.0920674 0.06340227 0.04762801
0002a0 13 94 e3 bc ff 24 d7 bd 90 42 0e bd ab de 9d bd
       -0.027780568 -0.10505103 -0.034731448 -0.07708486
0002b0 be cd 89 bd 60 86 a9 3d ee 5f a2 3d 3a 91 a5 bd
       -0.06728695 0.08277583 0.079284534 -0.080843404
0002c0 c1 30 5f 3b bf 62 38 3c aa 98 45 3d 69 04 60 be
       0.003405616 0.011254012 0.048241295 -0.21876682
0002d0 03 02 9c 3d 5b 09 7a be 62 0a c6 3c 00 90 82 bc
       0.07617571 -0.24417631 0.024174873 -0.015937805
0002e0 29 ed 96 3e a0 4e 7e bd a7 03 cf 3c d8 00 d2 3d
       0.29477814 -0.0620867 0.025270296 0.10254067
0002f0 ca d6 f2 bd 1e bb 6b 3d 9f 1e 9a 3d 20 a9 3b 3d
       -0.11857374 0.057551496 0.07525372 0.045815587
000300 c3 5b 08 bd cd 0c 95 3d 27 2d 92 3d bc 0b a0 bd
       -0.033290636 0.07277832 0.071375184 -0.07814738
000310 c0 be 86 be 8b 33 b3 bd df 61 ac 3d cf 90 40 bf
       -0.26317406 -0.087500654 0.08417105 -0.7522096
000320 00 1e ab bd a7 b5 b4 bc da dd cb bd 6a dc 03 3d
       -0.083553314 -0.022059275 -0.09954424 0.032192625
000330 2b bb 83 bd 77 97 04 3d 00 c8 b8 3b 73 40 a0 3d
       -0.06432184 0.03237101 0.0056390762 0.07824793
000340 c5 a8 83 3d 40 e9 97 3c e7 09 72 3d 8d bc 60 bd
       0.064286746 0.01854384 0.059091475 -0.054867316
000350 1d 5a 32 bd b0 be ad bd 27 f2 ee 3c 50 4f 68 bd
       -0.04354297 -0.084836364 0.029168202 -0.056716263
000360 48 63 8c 3d ba be c3 bd 6a 3e 73 3d a8 42 93 3d
       0.06854874 -0.095578626 0.059385695 0.07190448
000370 f3 09 24 bd ad c1 a1 bd 0b 09 9d 3d 27 aa 21 3c
       -0.04004855 -0.07898269 0.076677404 0.009867228
000380 9a b5 27 ba ed ff 05 bd d3 43 a4 3d a5 80 b5 3d
       -0.0006397605 -0.032714773 0.08020749 0.088624276
000390 73 87 6c bd 67 1b 5a 3d c7 39 b6 3c 6b 28 c1 bd
       -0.057746362 0.05324879 0.022244347 -0.09431537
0003a0 9a 4a 18 bc 80 f0 95 3c c0 53 ee bc 80 4d 16 3c
       -0.00929513 0.018303156 -0.02909267 0.009173751
0003b0 45 fc 8b bd 5a fb 4f 3d 83 34 6d 3d 80 80 55 3c
       -0.06835226 0.050776817 0.057911407 0.013031125
0003c0 8d 9b 34 3c 27 f2 af bc da c7 8b bc 7d b3 c2 3d
       0.011023414 -0.021477772 -0.01706307 0.09506891
0003d0 6b 4a 8d bd 10 f3 44 bd ed 41 5d bd c3 a5 0f 3d
       -0.0689896 -0.048083365 -0.05401795 0.035070192
0003e0 5a 60 b9 3c f7 c0 4c bd a7 82 9a 3c f0 51 37 3d
       0.022628952 -0.049988713 0.018861128 0.044755876
0003f0 f7 c5 22 3d 9a ff 9f 3d 13 8b a2 3d f8 58 c5 bd
       0.039739575 0.07812424 0.079366826 -0.0963611

linear2.bias f4 [100]
000000 1a e6 20 bd f4 d6 f5 bc 73 9d 1d bd 13 68 d5 3b
       -0.039281942 -0.030009724 -0.038480233 0.0065126508
000010 20 5c 84 bd 27 e9 b5 bd d2 0d 15 bd 5b f6 d0 3d
       -0.06462884 -0.08882361 -0.036390133 0.102032386
000020 60 eb dd 3c 73 30 47 bc da e8 54 3c 1a bb 98 3b
       0.027089775 -0.012157547 0.012994969 0.004660976
000030 46 39 d3 3c 96 b6 bc 3c ca 35 84 3d 75 4c ae 3c
       0.025784146 0.023036283 0.06455572 0.021276692
000040 d4 0a c3 3d 97 0a c6 bd a5 4b fd bb a7 4f 47 3c
       0.0952355 -0.096699886 -0.007729965 0.012164987
000050 d7 a7 a8 3d cd 5a fe bc cd 1e 86 3b 70 33 d1 3a
       0.08235138 -0.031049157 0.004093027 0.0015960764
000060 67 b9 39 3d c8 54 d0 3c b4 21 9d bd 43 82 cd bc
       0.04534283 0.025431052 -0.07672444 -0.025086528
000070 90 eb c9 3d f0 4c 38 3d f1 75 a2 bc 2d 7c 8e bd
       0.09859383 0.04499525 -0.01983163 -0.069572784
000080 79 fe a0 3d c7 72 33 bd d7 43 c6 3d 9d 36 6f 3d
       0.07861037 -0.043810632 0.09680908 0.058401693
000090 c5 71 b2 3d 9a 36 0d bd c3 f7 c0 3d e4 95 07 3b
       0.08713106 -0.0344759 0.09422257 0.0020688707
0000a0 42 0d bb bd 2f d7 05 3d 3a 40 b8 bc e1 3e d0 3d
       -0.09133388 0.03267592 -0.022491563 0.10168243
0000b0 6f 15 f6 3c 6b ca 06 3e bb ff 99 3d 69 d3 96 bd
       0.030039517 0.13163154 0.0751948 -0.07364542
0000c0 2a fd be 3d 40 42 c4 3d fc 90 87 3d 0a 7a 24 3d
       0.09325631 0.09582949 0.066194504 0.040155448
0000d0 21 61 46 3d ec 9c db 3d 1d 66 5a 3d 44 f0 26 bd
       0.048432473 0.1072329 0.05332004 -0.04075648
0000e0 da 1d c7 3c 7d 3c 7a bd 1f 91 f1 3c a3 a0 39 3d
       0.024306227 -0.061092842 0.029488144 0.04531921
0000f0 73 f1 a9 3d 49 ac bf 3d 0a 7b 73 3d 33 d1 59 3d
       0.08298006 0.09359033 0.05944351 0.053178024
000100 1a 91 02 3c e9 2c 6a 3d 99 3b d4 3d 57 93 0f 3d
       0.007969165 0.057171736 0.1036293 0.035052624
000110 67 9b ab 3c c9 36 28 3d b2 3e 1c bd 33 22 08 bd
       0.020948125 0.041067872 -0.03814573 -0.03323574
000120 b0 af a2 bb a6 6c a4 3d cb 7f c4 bc 71 f1 9c 3d
       -0.0049647912 0.080285355 -0.023986718 0.07663239
000130 0e 6b 42 bd 4d 16 78 3d f7 a6 aa 3d 08 61 9a 3d
       -0.047465377 0.060568143 0.08332627 0.075380385
000140 00 64 c6 3b fe 18 b8 bc 90 c5 18 bd cf 1d b6 bd
       0.0060544014 -0.022472855 -0.037297785 -0.08892404
000150 37 b9 34 bd fa 89 ce bc 30 9f 8c bd b7 9a 0a 3d
       -0.044121947 -0.025212277 -0.068663 0.033838954
000160 90 57 39 3d ff 62 41 bc cd 6f 81 3c cd 54 03 3b
       0.04524952 -0.011803388 0.015800381 0.002003956
000170 7f 0e 19 bc ee 96 81 3d 8a 3e 13 bd cd de f3 bc
       -0.009341835 0.06327616 -0.035948314 -0.029769326
000180 ca de 4e 3d cd db 99 3b 7d fb bf 3d 53 bf 05 3d
       0.050505437 0.0046953917 0.093741395 0.032653164

linear3.weight f4 [1, 100]
000000 9b 32 b4 ba cf d1 08 3d 22 eb 1f bb 73 a5 cc 3c
       -0.0013747992 0.033403214 -0.0024401625 0.024981236
000010 60 72 19 3d db 0f bf ba 76 98 12 bf 77 34 16 bf
       0.037462592 -0.0014576869 -0.57263887 -0.58673805
000020 f8 23 75 3a ca d9 1a bb 7e 4a 94 3a f2 22 40 3a
       0.0009351368 -0.0023628348 0.0011313704 0.0007329426
000030 72 54 98 3d 47 a6 04 3e 52 76 66 3e 53 e2 17 bf
       0.07437982 0.12954055 0.22506073 -0.5932972
000040 60 e5 7b 3c 82 43 d0 ba 57 c5 96 3d 54 72 18 ba
       0.0153745115 -0.001588926 0.07361858 -0.0005815376
000050 4e 92 ea 3a fc 58 dd 3a 31 6e 14 bb c4 b7 aa 3c
       0.0017896385 0.0016887481 -0.0022648687 0.02083958
000060 11 06 9d bd 49 59 45 3a fe f2 4e be c9 91 3c 3b
       -0.07667173 0.0007528258 -0.20209882 0.0028773418
000070 33 8d 16 bb 62 92 b5 b9 1e 35 f2 be 9a 39 cc b8
       -0.0022972345 -0.00034632074 -0.4730615 -9.738207e-05
000080 24 28 c6 3c b8 17 11 ba 32 f3 03 bf a6 9b d6 35
       0.024189062 -0.00055348454 -0.5154296 1.5989542e-06
000090 48 88 be ba ce c8 97 ba 5e 23 29 3b 43 01 20 bf
       -0.0014536465 -0.001158023 0.0025808434 -0.62501925
0000a0 9d be 9c 3a 2b 46 e4 3c 01 6f d1 3a fb 2b e4 3c
       0.0011958663 0.02786549 0.0015978516 0.027853003
0000b0 36 4b 5d 3d 4b 87 f8 3d 97 75 b4 3e ad 34 78 be
       0.054026805 0.1213518 0.35245964 -0.24238844
0000c0 64 78 83 3c ba 67 15 3b ee ae e3 be 48 75 7b b9
       0.016048618 0.0022797422 -0.44469398 -0.00023980916
0000d0 9c 30 1c bf a9 31 82 3b 6f c0 52 ba 0f 52 ee 3c
       -0.6101167 0.003973205 -0.0008039539 0.029091863
0000e0 8d 9b 9a 39 13 14 7a ba e8 ee db 3d 1b 6b 78 b9
       0.00029489063 -0.00095397345 0.10738927 -0.00023691023
0000f0 15 3c e2 b9 45 37 08 bf a5 0a 43 3c 0e 73 01 ba
       -0.00043150844 -0.53209335 0.011904393 -0.0004938104
000100 84 4c bf ba b6 5c 16 3e 94 af b7 3e 46 ef ed be
       -0.0014594947 0.14683804 0.35876143 -0.46471614
000110 d9 62 42 3b 28 e1 f0 be 9a b5 ba be fc 88 01 bb
       0.0029660969 -0.4704678 -0.36466676 -0.0019765487
000120 68 d3 79 ba 53 ea 17 bf ab eb 30 bb 52 7b 8b 39
       -0.0009530098 -0.59341925 -0.0026995938 0.00026604027
000130 8c f8 04 be b3 00 06 3b e3 97 02 3d a7 04 fd 3a
       -0.12985438 0.0020447194 0.03188313 0.0019303755
000140 97 f9 d8 3a 22 b6 15 bf 0b 5f 33 3b b8 7e ae 37
       0.0016553876 -0.5848104 0.0027369882 2.0801424e-05
000150 82 0f 11 3b 74 89 d4 3a 21 c9 0c bb a1 33 68 be
       0.0022134488 0.0016215281 -0.0021482187 -0.22675945
000160 96 a7 7e 39 97 09 9a bd f1 94 29 3b 00 9c 49 39
       0.00024285758 -0.0752136 0.002587613 0.00019226968
000170 07 c0 b5 3c 37 fd e1 be ba 53 41 bb ae a3 42 bb
       0.022186292 -0.441385 -0.0029499368 -0.0029699611
000180 11 60 da 3c cc 2b 09 3b 86 b7 20 3b 81 d2 06 bb
       0.026657136 0.0020930646 0.002452345 -0.0020572247
