checkpoints/single-phase/123bus/ddpg/policy_net_checkpoint_a1.pth (torch, 43735 bytes, 5 tensors)

linear1.weight f4 [100, 1]
0	0x3f02ff3f	0.51170725
1	0xbf7d214a	-0.9887892
2	0x3d9fae42	0.07796909
3	0xbf4a509a	-0.7902924
4	0xbe907168	-0.28211522
5	0x3f881fa8	1.0634661
6	0x3f3d8fd3	0.74047583
7	0x3eb12580	0.34598923
8	0xbf4a04be	-0.78913486
9	0xbf350702	-0.7071382
10	0xbf13b886	-0.57703435
11	0x3d65bbd1	0.05608732
12	0x3f3e2d8a	0.7428824
13	0x3e194b8f	0.1497023
14	0xbf40014e	-0.7500199
15	0x3f57b43d	0.84259397
16	0x3f1a7b79	0.60344654
17	0x3f44a722	0.76817524
18	0xbdae40f1	-0.0850848
19	0xbf7a16aa	-0.9769083
20	0x3f5abbce	0.8544282
21	0xbec4b54a	-0.38419563
22	0xbf07d7ee	-0.5306386
23	0x3f1209b5	0.5704606
24	0x3f1629f8	0.5865779
25	0x3ed76144	0.42066395
26	0x3eb1f7c0	0.3475933
27	0x3e19e350	0.15028119
28	0xbf5e6a74	-0.86881185
29	0x3f4ddf88	0.80419207
30	0x3f07476e	0.5284337
31	0x3f4a29ef	0.78970236
32	0xbee6b745	-0.450617
33	0xbd893230	-0.06699026
34	0xbeec9604	-0.46208203
35	0x3ed9a555	0.4250895
36	0xbf5e6cc0	-0.8688469
37	0xbda052c0	-0.07828283
38	0xbe70d450	-0.23518491
39	0xbe774c58	-0.24150217
40	0x3f057b29	0.5214105
41	0xbe5f8f88	-0.21832097
42	0x3f64ff3d	0.8945196
43	0x3f2c1d86	0.6723255
44	0xbeb401d8	-0.35157657
45	0x3f0fab2b	0.56120557
46	0xbd797baa	-0.06090895
47	0x3dcc0c52	0.099632874
48	0xbf49a372	-0.7876502
49	0x3e997508	0.299721
50	0x3f43588c	0.76306987
51	0x3f2928d9	0.66077954
52	0x3eee9710	0.46599627
53	0xbf25a30e	-0.64701927
54	0x3ecfa7d1	0.4055772
55	0xbf09ae56	-0.5378164
56	0xbf410890	-0.7540369
57	0x3f1ae8ba	0.6051136
58	0x3dba68ca	0.09102018
59	0xbf0db235	-0.5535005
60	0xbf3d8b1e	-0.740404
61	0xbed61a68	-0.4181702
62	0x3e50c65e	0.20388171
63	0xbe6d3f50	-0.23168683
64	0x3eb545ed	0.35404912
65	0x3f22e7fc	0.6363523
66	0xbf115250	-0.56766224
67	0x3f611b6c	0.8793247
68	0x3ed62e10	0.41832018
69	0x3e7b1ac8	0.24521935
70	0x3e911eec	0.28343904
71	0xbe017638	-0.12642753
72	0xbf2763e4	-0.65386796
73	0x3d88b636	0.06675379
74	0x3f0ee4af	0.55817693
75	0x3f573bfd	0.8407591
76	0xbf7d88d0	-0.99036884
77	0xbf194269	-0.5986696
78	0xbf4f3026	-0.80932844
79	0xbe5d63e0	-0.2162013
80	0x3f33b2f8	0.7019496
81	0x3e102513	0.14076643
82	0x3f28de88	0.65964556
83	0x3f42b403	0.76055926
84	0xbed32c8e	-0.4124493
85	0xbf3733d6	-0.7156347
86	0xbef65794	-0.48113692
87	0x3dd0b596	0.10190885
88	0xbef0df22	-0.47045237
89	0xbeb6b15b	-0.35682186
90	0xbe3795f8	-0.17928302
91	0x3ec8d8cc	0.39227903
92	0x3ef4670c	0.4773487
93	0xbf7198c6	-0.9437374
94	0xbf40db32	-0.75334466
95	0xbf7da20e	-0.990754
96	0x3ec695c8	0.3878615
97	0x3eea508f	0.45764586
98	0x3f44462f	0.7666959
99	0xbf1be5cb	-0.6089751

linear1.bias f4 [100]
0	0xbed6968b	-0.4191173
1	0xbf6cba50	-0.9247179
2	0xbd8b2aa3	-0.06795242
3	0xbdc2d3c0	-0.09513044
4	0xbeaec040	-0.3413105
5	0xbf71c7c1	-0.94445425
6	0x3e06c121	0.1315961
7	0xbf26c1d0	-0.65139484
8	0x3f7387ba	0.9512898
9	0xbf681772	-0.90660775
10	0x3d7995c0	0.06093383
11	0x3ea40f98	0.32043147
12	0x3ee11e86	0.439686
13	0x3f15e386	0.585503
14	0x3ec6555c	0.38737
15	0xbe9d7816	-0.3075568
16	0x3d9531a6	0.0728486
17	0xbf294d29	-0.6613336
18	0x3e9febc2	0.31234556
19	0x3eb38fac	0.3507055
20	0xbf0ec084	-0.55762506
21	0x3ef9635f	0.48708627
22	0x3ee6af58	0.45055652
23	0xbf1f61a4	-0.6225836
24	0x3e97550a	0.29557067
25	0xbf2cc430	-0.6748686
26	0xbf2e9c5a	-0.68207324
27	0xbf3420a8	-0.7036233
28	0x3f29a32e	0.6626462
29	0xbef44c61	-0.47714522
30	0x3ee5271f	0.4475641
31	0x3ec67726	0.38762778
32	0x3f403411	0.7507945
33	0xbf0066ea	-0.50157034
34	0xbe2928f0	-0.16519523
35	0xbe38e256	-0.1805509
36	0x3d661e20	0.056181073
37	0xbf0dda96	-0.5541166
38	0xbf4377c0	-0.763546
39	0xbea42fc0	-0.3206768
40	0x3f3e9319	0.74443203
41	0xbf7bcfee	-0.9836415
42	0xbf50e5d5	-0.81600696
43	0x3eccaa45	0.39973655
44	0x3f6326d6	0.88731134
45	0x3ec664aa	0.38748676
46	0x3d5cd06a	0.053909697
47	0xbdc4896d	-0.095965244
48	0xbe9bf09c	-0.30457008
49	0xbf1d4996	-0.6144041
50	0xbf6e235e	-0.93022716
51	0x3f724d9d	0.9464968
52	0x3f379491	0.7171107
53	0x3f48d5e0	0.7845135
54	0xbed000c5	-0.40625587
55	0x3e285110	0.16437173
56	0x3e9b6228	0.30348325
57	0xbf09638b	-0.53667516
58	0xbdb856c4	-0.09000924
59	0x3f5c71fc	0.86111426
60	0x3f1036ba	0.56333506
61	0x3c735480	0.014851689
62	0x3ec009d0	0.37507486
63	0xbf32f51a	-0.69905245
64	0xbec0b782	-0.37640005
65	0xbef3eb43	-0.47640428
66	0xbf62c4aa	-0.88581336
67	0xbf22a978	-0.6353984
68	0xbf373fea	-0.715819
69	0xbe9df838	-0.30853438
70	0xbf5b0160	-0.85548973
71	0xbf7b0f64	-0.9807036
72	0x3e587818	0.21139562
73	0xbd9539ba	-0.07286401
74	0xbefd528f	-0.4947705
75	0xbf237043	-0.6384317
76	0xbee0cec4	-0.4390775
77	0x3f603f58	0.87596655
78	0x3e47e8c0	0.19522381
79	0xbe810eec	-0.25206697
80	0x3f29a56f	0.66268057
81	0xbe18acd1	-0.14909674
82	0x3e5cf24d	0.21576805
83	0xbd79b06a	-0.060959257
84	0x3f603a03	0.8758852
85	0x3c696b80	0.014246821
86	0xbf5941a2	-0.8486577
87	0x3ec25696	0.37956685
88	0x3f84542e	1.033819
89	0x3f6fc2aa	0.9365641
90	0xbdb0fb80	-0.0864172
91	0xbf01cde0	-0.50704765
92	0x3e3727b0	0.17886233
93	0xbf5eebf4	-0.87078786
94	0xbf4ffcca	-0.812451
95	0xbf743dda	-0.9540688
96	0xbf773832	-0.9657012
97	0xbcc7dfea	-0.024398763
98	0x3e8be579	0.2732351
99	0x3f700f2e	0.9377316

linear2.weight f4 [100, 100]
0	0x3dbbb788	0.09165865
1	0xbdc32347	-0.09528213
2	0xbd9f7008	-0.0778504
3	0x3dc285a0	0.09498143
4	0xbdc7e83b	-0.09761091
5	0x3da8c6e7	0.082410626
6	0x3d6e228a	0.058138408
7	0x3c517567	0.012784339
8	0x3db98375	0.090582766
9	0xbda46460	-0.080269575
10	0x3dc03c87	0.09386545
11	0xbdcb1322	-0.09915759
12	0x3cac8a2d	0.021061981
13	0x3b12c733	0.0022396564
14	0x3cf8fcf3	0.030394053
15	0x3d629e3d	0.05532669
16	0x3cc68d5a	0.024237324
17	0x3d5f926d	0.054583002
18	0xbc99854d	-0.01874032
19	0xbd8d60da	-0.069032386
20	0x3dca0fe7	0.098663144
21	0x3d9f80bf	0.07788228
22	0xbcaa6e4d	-0.020804549
23	0xbd8ed632	-0.06974448
24	0xbd99d15d	-0.07510636
25	0xbd15c3e0	-0.036563754
26	0xbd970382	-0.07373716
27	0xbdba6a75	-0.09102336
28	0xbcdbeae7	-0.026845409
29	0xbd2543e0	-0.040347934
30	0xbd9d6175	-0.07684604
31	0x3d05b78a	0.03264574
32	0x3d5b51a7	0.053544667
33	0xbcd59340	-0.02607119
34	0xbb78ac33	-0.0037944436
35	0x3d942e13	0.072353505
36	0xbd1bdf60	-0.038054824
37	0x3d90fe02	0.07079698
38	0xbd97d2c0	-0.07413244
39	0xbd1acbdd	-0.037792075
40	0x3c0e951a	0.008702541
41	0xbdcad493	-0.099038266
42	0xbdac77a8	-0.0842126
43	0x3d79e2bd	0.06100725
44	0xbd5b2a33	-0.05350704
45	0xbd5debd3	-0.054179978
46	0x3d2d920a	0.0423756
47	0xbd9ab103	-0.075532936
48	0xbd2dad9a	-0.042401887
49	0xbd27749a	-0.040882684
50	0x38ac6ccd	8.221865e-05
51	0xbd967263	-0.07346036
52	0xbd2170d0	-0.039414227
53	0xbdb216f5	-0.08695785
54	0x3c88932d	0.016671741
55	0x3d080ae3	0.033213507
56	0xbd4f3f20	-0.05059731
57	0x3d17d0f7	0.03706452
58	0xbd11aec7	-0.03556707
59	0xbd64d060	-0.055862784
60	0x3d0db457	0.034595814
61	0x3db7b8a5	0.08970765
62	0xbd35f547	-0.044423368
63	0x3cf64680	0.030062914
64	0xbd9c1b05	-0.07622341
65	0xbdc899db	-0.097949706
66	0xbd0dc3ea	-0.034610666
67	0xbd856f0d	-0.06515322
68	0x3d5858fa	0.05281923
69	0xbda6594f	-0.08122503
70	0x3ba2219a	0.0049478533
71	0xbdc77773	-0.0973958
72	0xbd60296d	-0.054727007
73	0xbdc4b77a	-0.09605308
74	0xbdab4fe2	-0.08364846
75	0x3dbbc21f	0.09167885
76	0xbd7d44bd	-0.061833132
77	0xbd1cd620	-0.038290143
78	0x3db92f30	0.090422034
79	0xbdbb92cf	-0.09158861
80	0x3d961be0	0.073295355
81	0x3b9b5480	0.004740298
82	0xbd2a756d	-0.041615892
83	0xbd5d66f0	-0.054053247
84	0xbd4d7f7a	-0.0501704
85	0xbd7189a7	-0.058969166
86	0x3db60262	0.08887173
87	0xbd28976a	-0.041160025
88	0x3d86494b	0.06556948
89	0xbc9aca7a	-0.018895376
90	0x3d138d3a	0.036023356
91	0x3d99cafb	0.075094186
92	0x3d55dc07	0.052211788
93	0x3ca4f02d	0.020134056
94	0x3c6ef91a	0.014585758
95	0xbd8d0f02	-0.06887628
96	0xbd9bf8c8	-0.07615811
97	0xbb0cad00	-0.002146542
98	0x3d81366a	0.06309207
99	0x3c16f533	0.0092137335
100	0xbd846b8c	-0.064658254
101	0xbdc48b1a	-0.09596844
102	0xbd8684d4	-0.06568304
103	0x3da08b8b	0.07839116
104	0x3cb237cd	0.021755124
105	0xbea5887a	-0.32330686
106	0x3dd89036	0.10574381
107	0x3db3e93b	0.087847196
108	0x3e2669ff	0.16251372
109	0xbd9a2268	-0.07526094
110	0x3b424ccd	0.0029647828
111	0x3b22aedc	0.0024823463
112	0x3d7cec20	0.061748624
113	0x3dfff84e	0.12498532
114	0xbc90ac13	-0.017660176
115	0xbdb882c8	-0.090093195
116	0xbd1c3deb	-0.038144987
117	0xbe1aefec	-0.15130585
118	0x3c97ef40	0.0185467
119	0xbd954da0	-0.072901964
120	0x3c5a0710	0.013307348
121	0x3e039084	0.12848097
122	0x3d2269b3	0.039651584
123	0xbbe6be5f	-0.007041737
124	0x3b58b517	0.0033066922
125	0x3bcdbd33	0.006278658
126	0xbd85b5eb	-0.06528839
127	0x3d589d70	0.05288452
128	0xbdaa0e83	-0.08303549
129	0xbdcf8d3c	-0.1013436
130	0x3dccf91a	0.1000845
131	0x3d660a13	0.05616195
132	0x3d1f1605	0.03883936
133	0x3d73e8d3	0.05954821
134	0xbcfaf547	-0.030634535
135	0xbbaaa7b8	-0.005207982
136	0x3db02a7a	0.08601852
137	0xbd9c1c02	-0.076225296
138	0xbd5aae6a	-0.05338899
139	0xbcdf4640	-0.027255177
140	0xbccc1d7b	-0.024916401
141	0x3dbb8877	0.09156888
142	0xbe39065f	-0.18068837
143	0x3da4236a	0.08014567
144	0x3d5318fb	0.051537495
145	0xbc46e8b2	-0.01214044
146	0xbd4c4ac7	-0.049876
147	0xbb1b91ae	-0.0023737955
148	0x3d7db1ad	0.061937023
149	0x3d4b358a	0.049611606
150	0x3dcae622	0.099071756
151	0xbd234b9e	-0.039867036
152	0x3d96c17e	0.073611245
153	0x3e26d5fd	0.16292568
154	0xbde3d52e	-0.11124645
155	0x3d0e4bb3	0.03474016
156	0x3d65a2b7	0.05606338
157	0xbe5a9d40	-0.21349049
158	0xbd4751bc	-0.048661932
159	0x3cc92611	0.024554284
160	0x3d8ee91f	0.06978058
161	0xbdc6ac35	-0.09700815
162	0xbd90ceba	-0.0707068
163	0xbd25d3a3	-0.040485036
164	0xbf2720f5	-0.65284663
165	0x3c2b5dae	0.010459347
166	0x3d331650	0.04372245
167	0xbe13eb0a	-0.14445129
168	0x3cc8f1a0	0.024529278
169	0xbcd9c813	-0.02658466
170	0xbda34607	-0.07972341
171	0x3cdf5753	0.02726332
172	0x3d8760c7	0.06610256
173	0x3c06675f	0.0082033565
174	0xbeb80076	-0.35937852
175	0x3cb42615	0.021990815
176	0x3c2e6300	0.010643721
177	0x3e0314f8	0.12800968
178	0x3d93eef7	0.07223313
179	0xbd822355	-0.06354395
180	0xbd39236d	-0.0451998
181	0xbd00c155	-0.031434376
182	0x3c8ee970	0.017445296
183	0xbd932918	-0.071855724
184	0x3d957a1b	0.072986804
185	0xbdb57612	-0.08860411
186	0x3ce9b320	0.028527796
187	0x3ddd21b8	0.10797447
188	0x3e1630f2	0.14667109
189	0x3d793716	0.06084355
190	0x3d77a22d	0.060457397
191	0xbd83ebd5	-0.06441466
192	0xbc398727	-0.011323727
193	0x3d1d8837	0.038459983
194	0x3b20a600	0.0024513006
195	0x3dc19a22	0.094532266
196	0xbba9dd4d	-0.005183852
197	0x3d9efe84	0.07763389
198	0xbc668194	-0.01406898
199	0x3e297f65	0.16552503
200	0xbdcc96b3	-0.09989681
201	0xbdbbd285	-0.09171013
202	0x3cccb045	0.024986396
203	0x3d7f7ef3	0.062376928
204	0xbb223333	-0.0024749755
205	0xbe834816	-0.25640935
206	0xbcdc751e	-0.026911315
207	0xbd7c7c1d	-0.0616418
208	0x3e279376	0.16364846
209	0x3cf27be7	0.029600097
210	0xba208333	-0.0006123066
211	0x3d870d07	0.06594282
212	0xbc29a626	-0.010354554
213	0x3dbecdcd	0.09316597
214	0xbc85402d	-0.016265953
215	0xbd1c120b	-0.038103145
216	0xbd803e2b	-0.062618576
217	0xbe0345bb	-0.12819569
218	0x3bffdb3d	0.0078081177
219	0xbd0a6c67	-0.033794787
220	0xbde40b44	-0.11134961
221	0x3d9cd3a6	0.07657556
222	0xbd9f1257	-0.0776717
223	0x3c507dfc	0.0127253495
224	0xbda13d17	-0.0787298
225	0x3cdd2f7a	0.027000178
226	0x3d4ab88a	0.049492396
227	0xbd69cddd	-0.057081092
228	0x3c704b0d	0.014666331
229	0xbc3ab413	-0.011395472
230	0x3d773bdb	0.060359817
231	0x3d3fc0e4	0.046814814
232	0x3db29734	0.08720246
233	0xbd4418a3	-0.047875058
234	0xbd548d93	-0.05189283
235	0xbdc15bfc	-0.09441373
236	0x3da20743	0.07911541
237	0xbdb86e07	-0.09005361
238	0x3c589467	0.013218976
239	0x3d13994d	0.03603487
240	0xbda1e1ba	-0.07904382
241	0xbda8b847	-0.08238273
242	0xbe2dd0c4	-0.16974169
243	0xbdebcf88	-0.11514193
244	0x3dbe0b91	0.0927955
245	0xbda19cbd	-0.078912236
246	0xbd95c00e	-0.07312022
247	0x3db1704d	0.08663998
248	0x3d2fe60a	0.04294399
249	0xbd971393	-0.0737678
250	0xbcb9acb3	-0.022665357
251	0xbd532093	-0.051544737
252	0x3c85bd3a	0.016325582
253	0x3e80ca62	0.25154406
254	0xbe053ed9	-0.13012256
255	0xbc7a7e5a	-0.015288914

linear2.bias f4 [100]
0	0x3d39965a	0.045309402
1	0x3d976f99	0.073943324
2	0x3d38ce7b	0.04511879
3	0xbdca3214	-0.09872833
4	0xbc879267	-0.016549302
5	0x3d26b50d	0.040700007
6	0x3da3b46b	0.07993396
7	0xbd8acf1c	-0.06777784
8	0x3cd45a1b	0.025921872
9	0xbd44edd3	-0.04807837
10	0xbcc0e6cd	-0.023547554
11	0xbd434170	-0.047669828
12	0xbb4062cd	-0.0029355765
13	0x3d2c0684	0.0419984
14	0x3ca60e93	0.020270621
15	0xbc73fa42	-0.014891209
16	0x3daca5d4	0.08430067
17	0xbd28bda2	-0.041196473
18	0x3d80b49d	0.06284449
19	0x3e065aa7	0.13120519
20	0x3dc0ae12	0.09408201
21	0x3dc17913	0.09446921
22	0xbd37836c	-0.044803068
23	0xbda58d20	-0.08083558
24	0xbd00eb2a	-0.03147427
25	0xbe0586e9	-0.13039745
26	0xbca29901	-0.019848349
27	0x3cf61b4d	0.030042315
28	0xbd919143	-0.071077846
29	0x3da4de5b	0.080502234
30	0x3d4c9bad	0.04995315
31	0xbcc623f2	-0.024187062
32	0x3d9a0448	0.07520348
33	0x3d6cb460	0.057789207
34	0xbd74ffcd	-0.059814263
35	0xbcb23b83	-0.021756893
36	0xbdaeea90	-0.08540833
37	0x3dba4483	0.09095099
38	0xbdfed127	-0.124422364
39	0x3d9992cb	0.07498702
40	0x3dc1a701	0.094556816
41	0xbd23d086	-0.039993785
42	0x3d15c96d	0.036569048
43	0x3da18122	0.07885958
44	0x3db63c5f	0.088982336
45	0xbd2ff89e	-0.04296171
46	0x3c9e88a7	0.01935227
47	0xbd1ce9c7	-0.038308885
48	0x3e00ccf0	0.12578177
49	0x3d4e0c63	0.05030478
50	0xbc9952c1	-0.018716218
51	0x3d941e05	0.07232288
52	0x3db37350	0.087622285
53	0xbcf9b947	-0.030483855
54	0x3ce51ad3	0.027966892
55	0xbd9649ec	-0.07338318
56	0xbc8fef70	-0.017570227
57	0x3dbbd30b	0.091711126
58	0xbc47be43	-0.012191358
59	0xbd1f1020	-0.038833737
60	0x3b16a200	0.0022984743
61	0xbd8596db	-0.06522914
62	0xbc2ce791	-0.010553257
63	0xbcbb744d	-0.022882605
64	0xbd7c990b	-0.06166939
65	0x3d5c4ab4	0.05378218
66	0x3d1bfdad	0.03808372
67	0xbbdb23d6	-0.0066876216
68	0x3d64a03e	0.05581688
69	0x3d262d36	0.04057046
70	0x3cd81aed	0.026380027
71	0x3dde76e5	0.10862521
72	0xbda75de2	-0.081722036
73	0x3dc6c255	0.09705035
74	0xbd2ebbe2	-0.042659648
75	0xbcfb5968	-0.03068228
76	0x3d10a13f	0.035310026
77	0x3d334611	0.043767992
78	0xbd1bc05a	-0.038025238
79	0x3c79df4d	0.015250993
80	0x3c4e3f41	0.012588323
81	0xbd190870	-0.037361562
82	0xbd93e06d	-0.0722054
83	0xbd56f8b3	-0.05248327
84	0xbc29890d	-0.010347617
85	0x3dfa72cf	0.12228929
86	0x3dc3eb0c	0.09566316
87	0x3de16193	0.11004939
88	0xbdf873cf	-0.12131464
89	0x3c4a15ed	0.012334329
90	0xbd101d8b	-0.035184424
91	0x3ce1d1fc	0.027565949
92	0xbd12f5b6	-0.03587886
93	0xbe0c50f2	-0.13702753
94	0x3c8111ba	0.015755523
95	0x3de2f127	0.110811524
96	0xbd2be415	-0.041965563
97	0xbe13e6e2	-0.14443544
98	0xbc6cefe7	-0.014461494
99	0x3d6ca750	0.05777675

linear3.weight f4 [1, 100]
0	0xba455996	-0.0007528303
1	0xbe11e350	-0.14246869
2	0xba2fbc73	-0.00067038013
3	0x3e9f761a	0.31144792
4	0x3df01a7b	0.11723801
5	0x3b239de0	0.0024965927
6	0x3bbb0bd3	0.0057081967
7	0x3fe4dd48	1.788003
8	0x3b481da6	0.003053525
9	0x3b8b505a	0.004251522
10	0xba9c94e9	-0.0011946234
11	0x3b39b6d0	0.0028337725
12	0xbac13fae	-0.001474371
13	0xbb160945	-0.0022893709
14	0x3a8740e5	0.0010319023
15	0xbf7de15b	-0.9917199
16	0xbb24a59d	-0.0025123127
17	0xbaf8b56e	-0.0018974969
18	0x3e034cc9	0.1282226
19	0xbd7e55e5	-0.062093634
20	0x3aa65c06	0.001269222
21	0xbadf8de6	-0.0017055839
22	0x3e0a1feb	0.13488738
23	0xba18d152	-0.0005829531
24	0x3d0966d2	0.033545323
25	0x3f2a3207	0.66482586
26	0x3fe407fb	1.7814935
27	0x3a4267fc	0.00074160076
28	0xbae69398	-0.0017591594
29	0x3b563669	0.003268624
30	0xbaeb7e58	-0.001796673
31	0x3e15ccf1	0.1462896
32	0xbeff635e	-0.498805
33	0x3b36546d	0.0027821318
34	0xbf08bebb	-0.5341603
35	0x3df78664	0.1208618
36	0x3b060247	0.0020448135
37	0x3b8c52a6	0.0042823134
38	0xbf1ba819	-0.6080337
39	0x3df92736	0.12165682
40	0x3df4a65c	0.11945793
41	0x3ab21998	0.001358795
42	0x3ad66eff	0.0016359984
43	0xbf9d0c09	-1.2269298
44	0xbd21a697	-0.039465513
45	0x393e93f2	0.00018174926
46	0x3972b163	0.00023145
47	0x3df48274	0.119389445
48	0xbd88b62f	-0.06675374
49	0xbaeca050	-0.0018053148
50	0x3c3ac17f	0.011398672
51	0x3b2e5665	0.0026601788
52	0x3bb1123c	0.005403785
53	0xbb306cad	-0.0026920245
54	0x3b3db8c6	0.0028949245
55	0x3ac44724	0.0014974815
56	0x3d532cf3	0.05155654
57	0x3e0a8377	0.13526712
58	0x3e5e2d0b	0.2169687
59	0x3b067ca0	0.002052106
60	0xbab33a8d	-0.0013674066
61	0xb9a7aed5	-0.00031982982
62	0x3b8bf6ff	0.0042713876
63	0xbb0cb100	-0.0021467805
64	0x3e052962	0.13004068
65	0x3b414aca	0.002949404
66	0x3b02e008	0.0019969959
67	0xbf4baa54	-0.79556775
68	0x3b4729cd	0.0030389905
69	0x3b52f27b	0.0032187987
70	0xba0fc13e	-0.00054838124
71	0x3dee2d07	0.11629682
72	0x3a1b5c77	0.0005926559
73	0x3b245203	0.0025073297
74	0x3defb0a9	0.11703617
75	0xbe272581	-0.163229
76	0x3de9e242	0.114201084
77	0x3ed5be8b	0.41746935
78	0xbab8ec75	-0.0014108556
79	0xba83f840	-0.0010068491
80	0x3a8258c0	0.0009944662
81	0xbabfaf28	-0.0014624344
82	0x3a973473	0.0011536017
83	0xbacec521	-0.0015775302
84	0x3b1b3017	0.0023679787
85	0x3e858263	0.2607604
86	0x3e138de6	0.14409599
87	0x3e0d4220	0.13794756
88	0xbec3392e	-0.38129562
89	0x3b8e7f9b	0.004348708
90	0x3c0ef28a	0.008724818
91	0x3e2e0100	0.16992569
92	0x3b4c03ce	0.0031130197
93	0xbf6e8658	-0.9317374
94	0x39e28a08	0.0004320892
95	0x3e19b90b	0.15011995
96	0xbab136ab	-0.0013520321
97	0xbf8270f8	-1.0190725
98	0xba166f7a	-0.0005738657
99	0xbb12a88a	-0.002237829
