checkpoints/single-phase/13bus/safe-ddpg/policy_net_checkpoint_a1.pth (torch, 3103 bytes, 4 tensors)

b f4 [100]
00000000: 3790 afb7 0358 afb7 c605 a5b7 8412 a9b7
00000010: 366a adb7 9079 a8b7 0e45 adb7 797a 8bb7
00000020: 67a5 a2b7 7de3 9ab7 3c15 adb7 d49a a8b7
00000030: 4456 5db7 363b adb7 ab07 f23b 62a7 1cb8
00000040: a132 1cb8 c8bc 1bb8 b035 18b8 3a9a 1eb8
00000050: ff78 1eb8 938e 1eb8 f88c 1eb8 6b4e 19b8
00000060: e921 19b8 ab86 873c b91a 11b8 32a6 03b8
00000070: b9de 04b8 68d8 10b8 9967 0eb8 58bd 393c
00000080: e149 eab7 aecb d6b7 8ff2 ecb7 7d5f e6b7
00000090: 5d64 d2b7 6fe7 eab7 5f22 e8b7 4ced ecb7
000000a0: 1d1d d7b7 d7f6 eab7 81cf e3b7 20dc ecb7
000000b0: 8076 e5b7 4d30 ecb7 e3f8 ecb7 49d4 ecb7
000000c0: f9ad b0b7 4eec ecb7 e584 e6b7 98ce cfb7
000000d0: ea9c e1b7 25a5 e9b7 61f3 e0b7 ce84 ecb7
000000e0: a2e4 d8b7 4024 edb7 2720 edb7 e92f d9b7
000000f0: d941 333c 5f28 333c 610e ba37 7a0e b337
00000100: 4b5c 9e37 3215 af39 44c8 cb38 8145 6b38
00000110: 4587 eb39 632d 3e38 61d2 4739 9343 7838
00000120: ac2c 443c b65c a3b7 5507 98b7 650b 9cb7
00000130: 3b72 a8b7 d069 303c d4cd 663b 0f71 623b
00000140: 355f c03b 6b81 783b 3fc5 123c 1278 b0b7
00000150: 4d50 b2b7 03d4 a2b7 20d7 b1b7 3fc9 083c
00000160: 885a 16b7 8258 21b7 8e0d 333c 9a10 453c
00000170: c029 453c 3d34 0db8 2fb2 0cb8 6072 0cb8
00000180: 1ed2 0db8 40ac 0db8 a256 0fb8 99ae bd0c
-2.0928781e-05 -2.090261e-05 -1.9672221e-05 -2.0154992e-05 -2.0672665e-05 -2.0083768e-05 -2.0655363e-05 -1.6627122e-05
-1.9388926e-05 -1.8464163e-05 -2.0633095e-05 -2.0099258e-05 -1.3192712e-05 -2.065078e-05 0.007386168 -3.7349186e-05
-3.724045e-05 -3.7130696e-05 -3.6289624e-05 -3.781377e-05 -3.7782822e-05 -3.7802918e-05 -3.7801423e-05 -3.6551075e-05
-3.6509624e-05 0.016543707 -3.459558e-05 -3.1387615e-05 -3.167868e-05 -3.453382e-05 -3.395192e-05 0.011336647
-2.7929376e-05 -2.5605634e-05 -2.8246342e-05 -2.7462602e-05 -2.5080686e-05 -2.8002743e-05 -2.767256e-05 -2.8243892e-05
-2.5643554e-05 -2.8009918e-05 -2.7157135e-05 -2.8235896e-05 -2.7354108e-05 -2.8155884e-05 -2.824929e-05 -2.8232245e-05
-2.1061847e-05 -2.824343e-05 -2.748002e-05 -2.4772526e-05 -2.6895159e-05 -2.7852666e-05 -2.6816213e-05 -2.8195234e-05
-2.5855672e-05 -2.8269482e-05 -2.8267574e-05 -2.5890726e-05 0.010940992 0.010934918 2.2179624e-05 2.1345204e-05
1.8878045e-05 0.00033394393 9.717097e-05 5.6093097e-05 0.00044923477 4.53418e-05 0.00019056491 5.919074e-05
0.011973541 -1.9474286e-05 -1.8123226e-05 -1.8601955e-05 -2.0080353e-05 0.010767415 0.0035217898 0.0034552251
0.0058707246 0.0037918936 0.00895816 -2.1036747e-05 -2.1256647e-05 -1.941063e-05 -2.120022e-05 0.008348762
-8.961775e-06 -9.616955e-06 0.010928525 0.012027884 0.01203388 -3.366567e-05 -3.3544547e-05 -3.348512e-05
-3.3812707e-05 -3.377744e-05 -3.417454e-05 2.9225143e-31

c f4 [100]
00000000: b74c af37 fe3c 1d3b eefe a93a d7fd b93a
00000010: 425f cf3a d181 263b bc8a 173b fb74 ac3a
00000020: fa57 1a3b 5987 263b 0a3d 2f3b fba6 373b
00000030: 1ed5 173b 4bb5 123a 24d8 8b39 3252 243a
00000040: 89dc d23a 988f c33a 03ac 6e3a b3c5 bf3a
00000050: a5c4 683a b86d 193b 05a3 da3a bc17 6d3a
00000060: 2670 023a 17f0 053b 2ac0 0d3b 4228 3e3a
00000070: 9588 143a 8303 3a3b 4223 1d3a 7b4d df3a
00000080: 941f 283b 9568 293b 986a 353b bddc 723a
00000090: c281 4339 e42a 2e3a 9eef 9f3a d814 2538
000000a0: ab4c 323b f639 273b 076b 3a3b 8770 063b
000000b0: 19bc b93a aaf7 6239 8d4d 8b3a a7bd 3b3b
000000c0: 1311 e939 5558 963a dfb9 b03a 3060 9a3a
000000d0: dc3d 013b dd5b 3c3b 9a78 793a 10e6 9d3a
000000e0: 0add 1b3b e751 c53a 4152 5e39 232e d23a
000000f0: 4421 933a b935 2a3a 58fe ae3a d43c 803a
00000100: a1bd 103a eb95 9239 e7cd 7a3a 3c95 cb3a
00000110: 2ec7 aa3a 6f77 d638 b261 5b3a e193 8f3a
00000120: 15a4 a93a f195 443a 31e8 a33a 8934 153b
00000130: 6eb6 3b3b 6df6 ee3a 311a 373b 0b44 2a3b
00000140: 5137 073b 9ad2 d73a 4af4 3a3b 7dd0 923a
00000150: 6188 c23a 167f 103a 72ea 293b 1c17 ad39
00000160: 25bc cf3a 804f 6c3a 51e1 853a 9b12 0d3b
00000170: 878c e439 72a8 103b 249c e33a 7abb a03a
00000180: be03 3b3b 4db8 d939 9551 be3a 94b2 033b
2.0897349e-05 0.0023992653 0.0012969652 0.001419003 0.0015821236 0.0025406966 0.0023123464 0.0013157421
0.0023550973 0.0025410263 0.0026739263 0.0028023112 0.00231678 0.0005596473 0.00026673183 0.00062683516
0.0016087453 0.0014920114 0.0009104611 0.0014631063 0.00088794 0.0023411345 0.0016680664 0.0009044369
0.0004975818 0.0020437294 0.0021629431 0.00072539237 0.0005666104 0.002838344 0.00059943285 0.0017036641
0.0025653588 0.002584969 0.0027681943 0.000926446 0.00018644988 0.00066439644 0.0012202149 3.9358478e-05
0.0027206342 0.0025516725 0.002844514 0.002051385 0.0014170437 0.00021645302 0.001062797 0.0028646977
0.00044453944 0.0011470417 0.0013483128 0.0011777934 0.001972071 0.0028741278 0.0009516567 0.0012046713
0.0023782873 0.0015054316 0.00021202212 0.0016035478 0.0011225124 0.00064929907 0.0013350947 0.0009783753
0.0005521421 0.00027958988 0.0009567425 0.0015532146 0.0013029331 0.000102265614 0.0008368745 0.0010954106
0.0012942577 0.00074991497 0.0012505112 0.002276691 0.0028642672 0.00182314 0.0027939195 0.0025980498
0.0020632336 0.0016465962 0.0028526955 0.001120105 0.001484167 0.00055121013 0.0025927094 0.0003301435
0.0015848918 0.0009014532 0.0010214244 0.0021525982 0.0004359225 0.0022073057 0.0017365259 0.0012262904
0.0028536166 0.0004152678 0.0014520163 0.0020095455

q f4 [1, 100]
00000000: 35f9 d73d fb87 1d3e fbda 383f b46d 183f
00000010: 1e5b bc3e de0c 1e3f 25fd c13e 43e1 883f
00000020: e050 473f 46a2 693f 89cd c93e b90f 1d3f
00000030: c043 9c3f 30e4 c33e c835 d53f f3d1 113f
00000040: a8cc 1e3f 1b01 2a3f 47b6 5f3f 1c5e 543d
00000050: a5dd 213e f0a6 cc3d 4a5c d73d d0d8 523f
00000060: ec07 553f a453 e43f 78f4 c03c 7c6f 7b3f
00000070: f985 753f 348a 4b3e 3cb8 153f 7f1d d53f
00000080: 4d53 b23e 6875 543f f454 7e3d 6d7c 063f
00000090: 329f 603f 586d 9c3e ca46 ea3e d38a 823d
000000a0: 949e 533f 73cf 9b3e 917f 1a3f 6a88 b63d
000000b0: 4356 0e3f a8b4 443e dce0 683d 535a bf3d
000000c0: ff05 8b3f 2fb1 af3d 3d39 063f 6596 673f
000000d0: 2bb8 283f f58b c73e 5270 2c3f e574 213e
000000e0: 3675 4e3f 4632 f5bc 2f07 153d ca2e 4d3f
000000f0: 0772 d33f e40c d23f e34c 7f3e 9420 663e
00000100: 093e f23d 9e10 833f e0e7 593f 950a 033f
00000110: 547c 8a3f b6db 2f3e 33de 733f d3ba 013f
00000120: 1f02 d63f 339a d63e ba78 263f e03d 173f
00000130: 4f62 753e 2e4f bf3f 7581 153e 984c 5337
00000140: b557 bd3f c534 4c3f a980 bb3f a864 813e
00000150: bb03 cf3d eb73 173f e692 3f3e 9dd4 9c3f
00000160: 5ff0 f53e 7ed9 d13e f3b1 883f 00e1 943f
00000170: a4be 943f 9194 da3e 4edc 893e d17c 673d
00000180: 9207 073f 1a07 023f e190 263f b0f2 663f
0.10545579 0.15383904 0.7220914 0.59542394 0.36788267 0.61738384 0.37888446 1.0693744
0.7785778 0.91263235 0.39414623 0.61352116 1.2208176 0.3826003 1.6657038 0.5696098
0.6203103 0.66407937 0.8738751 0.051847562 0.15807207 0.09992778 0.105156496 0.8236208
0.8321521 1.7838025 0.023554072 0.98216987 0.9590755 0.19876939 0.58484244 1.6649626
0.34829178 0.8299165 0.062092736 0.5253361 0.8774291 0.30552173 0.45757133 0.06374135
0.82663846 0.3043171 0.603509 0.08912738 0.55600375 0.1920954 0.056855068 0.093434
1.0861205 0.08578717 0.5243109 0.9046386 0.6590602 0.38973966 0.6735889 0.15767248
0.806476 -0.029931199 0.036383804 0.8014952 1.6519173 1.6410184 0.24931674 0.22473365
0.118282385 1.0239446 0.8511944 0.5118802 1.0819192 0.17173657 0.95260924 0.50675696
1.6719397 0.4191452 0.65027964 0.5907879 0.23963283 1.4946039 0.14600165 1.2594413e-05
1.4792391 0.7976802 1.4648639 0.25272107 0.101081334 0.5916125 0.18708381 1.2252384
0.4803495 0.40986246 1.0679306 1.1631165 1.1620679 0.42691472 0.26925892 0.05651552
0.52745926 0.50792086 0.6506482 0.9021406

z f4 [1, 100]
00000000: 10ee 2f3d d43a 183f eb78 7f3f 2ec1 8f3e
00000010: 9c3e 833e b0e5 083d 815a 233f 6515 543f
00000020: 046f c53e 3260 553f 2f3b 713f 263b f03e
00000030: 8013 713d f882 5a3e 5013 5e3e 20b9 f33c
00000040: 64dd ad3e bd9c 2f3f 5e0d 8a3e 089d b23e
00000050: ac35 253e a0a6 ad3d ad95 333f 19a1 3f3f
00000060: b410 0c3f a72c 563f a6dc d63e 8808 c53d
00000070: 7803 8c3e be35 4b3f 2550 553f f692 c23e
00000080: 4cff 4e3f c1f0 143f b4ab 3f3e 84eb 733f
00000090: f472 113f d101 293f 2002 c73c 6ce5 ba3e
000000a0: 1255 8a3e 8c8b 753f e952 343f 1053 f33d
000000b0: 3a6e 763f 2a56 553f 9196 313f d1ec 6b3f
000000c0: b8b2 2f3e 15a2 2d3f 602c be3d 3eba 9e3e
000000d0: 0804 dd3e e8f1 353f c986 303f c0bd 573d
000000e0: c294 833e d0df 4b3d 08de 873e e71b 4e3f
000000f0: d8c9 183f 0a69 283f 5aeb f03e ed9d 443f
00000100: f833 9d3d 2174 2a3f 9eec 003f a0b6 063e
00000110: 8635 733f f2bb c83e 2003 6c3f 98e0 423f
00000120: 9aaf d43e e840 7a3e bfa8 4e3f 5f2e 623f
00000130: d16c 573f 795d 263f 8ce6 523f 427e 613f
00000140: 98c9 de3e acd2 bc3e 0019 523c 7ac7 0a3f
00000150: 34f9 573e 07f9 123f 54f6 033e 67b3 2a3f
00000160: be37 aa3e 6b10 153f 3199 103f caf0 6d3f
00000170: fc75 f33e 7458 563e 37b9 453f f2c5 903e
00000180: 6e50 093f 5c87 433e 34b6 473e 5c62 393f
0.042951643 0.59464765 0.9979388 0.28077072 0.25633705 0.033422172 0.63809973 0.82845145
0.3856126 0.8334991 0.9423093 0.46920127 0.058856487 0.21339023 0.21687055 0.02975136
0.3395797 0.6859854 0.26963323 0.3488543 0.16133755 0.08479047 0.7015026 0.7485519
0.54712987 0.83661884 0.41965216 0.09620768 0.27346396 0.7937888 0.83325416 0.38002747
0.808583 0.5817986 0.18717843 0.95281243 0.5681603 0.66018397 0.024293005 0.3650316
0.27018028 0.95916057 0.7043901 0.11881077 0.9626194 0.833346 0.6937037 0.9215823
0.1715802 0.6782544 0.092858076 0.31001467 0.43167138 0.71072245 0.68955666 0.052671194
0.2569943 0.04977399 0.26536584 0.80511326 0.5968299 0.65785277 0.4705456 0.76803476
0.07675928 0.6658345 0.5036105 0.13155603 0.95003545 0.3920589 0.9219227 0.7612395
0.41540223 0.24438822 0.80726236 0.88352007 0.84150416 0.6498638 0.82383037 0.8808328
0.4351318 0.3687948 0.012823343 0.5421063 0.21091157 0.57411236 0.12886935 0.66679996
0.33245653 0.58228177 0.5648375 0.9294554 0.47550952 0.2093218 0.7723574 0.2827602
0.5363835 0.19094604 0.19503099 0.7241571
