checkpoints/single-phase/13bus/safe-ddpg/policy_net_checkpoint_bus6.pth (torch, 3103 bytes, 4 tensors)

b f4 [100]
00000000: 5579 02b9 4646 01b9 cb21 01b9 669c 09b9
00000010: d329 01b9 6e21 01b9 74a3 01b9 7f6d 01b9
00000020: 095e 03b9 5965 0eb9 879c 0bb9 ab2f 01b9
00000030: cc8c 0cb9 1c48 05b9 0966 01b9 0541 0ab9
00000040: a4e7 0bb9 fd0d 03b9 056d 01b9 ab68 01b9
00000050: 805a 01b9 2251 02b9 1341 01b9 c724 01b9
00000060: ec9c 0bb9 d1d9 01b9 cb35 01b9 ce32 01b9
00000070: cd21 01b9 f560 04b9 3f9d 03b9 b0ec 0eb9
00000080: 16e7 0ab9 efa8 03b9 0e2f 01b9 651c 02b9
00000090: d319 03b9 9da5 04b9 2d32 01b9 b0b0 0ab9
000000a0: a77a 01b9 6521 01b9 806e 02b9 078f 14b9
000000b0: 2f87 01b9 6171 01b9 d344 03b9 372e 05b9
000000c0: fe72 06b9 32c5 f93c 1b59 0db9 d190 06b9
000000d0: ccc0 0eb9 b2ba 0bb9 c51b 0cb9 f1ad 06b9
000000e0: 92ca 0bb9 a673 0bb9 db6c 07b9 36c8 06b9
000000f0: 0fd3 0db9 9585 08b9 8403 10b9 9fdf 0cb9
00000100: 80f7 06b9 f985 08b9 f88e 06b9 2100 08b9
00000110: 6c87 06b9 5914 0ab9 e187 06b9 00ab 0ab9
00000120: 0612 0ab9 79c4 09b9 000d 07b9 45cc 1ab9
00000130: 3dd7 09b9 8c46 08b9 fc63 4f3d 3c66 14b9
00000140: 0446 0fb9 edc2 1cb9 ddce 12b9 d62c 0fb9
00000150: 3ac1 0db9 ab9f 0db9 88a4 14b9 02d9 10b9
00000160: 2605 0fb9 0bf8 14b9 ae66 303d 381e 583c
00000170: cb6a c7b6 b212 533c 8596 f2b6 b032 eeb6
00000180: 4140 eab6 a8e9 ebb6 b9b3 f9b6 4cd5 4334
-0.00012442966 -0.00012328578 -0.00012314988 -0.00013123601 -0.0001231798 -0.00012314852 -0.0001236329 -0.00012343189
-0.00012528164 -0.0001357993 -0.00013314384 -0.00012320156 -0.00013403891 -0.00012710731 -0.0001234041 -0.00013184927
-0.00013342366 -0.00012498345 -0.00012343012 -0.0001234139 -0.00012336113 -0.0001242799 -0.0001232664 -0.000123161
-0.00013314531 -0.00012383542 -0.00012322438 -0.00012321325 -0.0001231499 -0.0001262462 -0.00012551712 -0.00013630348
-0.00013246792 -0.00012556066 -0.00012319928 -0.00012408344 -0.00012502754 -0.00012650197 -0.0001232109 -0.00013226527
-0.0001234809 -0.00012314839 -0.0001243893 -0.00014167662 -0.00012352758 -0.00012344636 -0.00012518773 -0.00012701085
-0.00012822074 0.030489538 -0.00013480002 -0.00012833184 -0.00013613998 -0.00013325622 -0.00013361785 -0.00012844034
-0.00013331536 -0.00013299155 -0.00012915155 -0.0001285382 -0.00013525433 -0.00013019734 -0.0001373422 -0.00013434746
-0.00012871437 -0.0001301988 -0.00012832496 -0.00012970019 -0.00012829684 -0.00013168286 -0.00012829855 -0.00013224408
-0.0001316742 -0.0001313853 -0.00012879446 -0.00014762681 -0.0001314552 -0.00012996251 0.050632462 -0.00014152465
-0.00013663626 -0.00014949935 -0.00014000708 -0.00013654245 -0.0001351879 -0.00013506289 -0.00014175673 -0.00013813752
-0.0001363946 -0.00014206783 0.043066673 0.013190798 -5.9430945e-06 0.012882875 -7.229685e-06 -7.0988535e-06
-6.9812236e-06 -7.030747e-06 -7.4417007e-06 1.8238387e-07

c f4 [100]
00000000: b9a6 213b 4062 a33a 9bbb fe3a 2eb0 4139
00000010: cd3b 7f3a 0dc2 023b 8b50 0f3b ce4a ef3a
00000020: 9a0e cd39 2676 de3a df82 c03a ec13 a23a
00000030: 323f 383b 1423 ad3a b415 3a3b 2dba 373b
00000040: fba3 893a 7273 143b 802d b33a a38a 073b
00000050: 2204 bb3a 4dcb b73a 0713 2c3b 2d46 d43a
00000060: a696 ab3a 5a9f 6a3a 057a 3b3b 1ec2 d33a
00000070: f8e9 e43a af2a 7639 1c43 ca3a e230 d739
00000080: c6d2 da37 c70c 2b3b 9b32 1b3b f3f8 633a
00000090: 4699 803a c31b 0b3b e2d4 983a 8833 f23a
000000a0: c676 303b c044 7e3a 5550 ad39 2484 ae3a
000000b0: 20dc 193a bef1 023a ac46 c83a e840 8e3a
000000c0: 1bdb c03a 4420 6a3a d074 d73a c7c2 cc3a
000000d0: 8125 c539 91f9 873a 0f62 013a 8f18 4639
000000e0: 3eed e33a 59a7 663a 44f4 103a c20a 423a
000000f0: f5ca f43a 7cab b139 f59b e43a c577 573a
00000100: 6589 3e3a 72ef df3a 3b54 1d3b 26e7 913a
00000110: dd3a 4e39 3ed6 fa3a e050 2d3b 8799 f63a
00000120: 81ce b83a 1fc6 1b3b 4c76 2a3b 5140 203b
00000130: b7da e63a cb47 3a3b 0b34 393b 5b48 3e3b
00000140: ee2f b23a d889 ec3a 4c31 b93a 71d7 423a
00000150: 3cf1 a43a 83b1 b03a 5961 b73a 6dbe 943a
00000160: 0253 123b a607 183a 75d5 f93a 29a0 0a3a
00000170: 2fa6 333b db37 e33a ab38 043b 0733 383b
00000180: ebf8 623a 3c1b 0c39 e21a 973a 9b42 f73a
0.0024666025 0.0012465194 0.0019434573 0.00018471546 0.0009736389 0.001995209 0.0021868076 0.0018256546
0.00039111526 0.0016972467 0.001468744 0.0012365556 0.002811384 0.0013209307 0.0028394284 0.0028034553
0.001050114 0.0022651819 0.0013670176 0.0020682 0.00142682 0.001402238 0.0026256458 0.001619523
0.0013091161 0.0008950137 0.0028606665 0.0016155874 0.0017464748 0.00023476289 0.0015431377 0.00041044416
2.6085774e-05 0.0026100145 0.0023681286 0.0008696459 0.0009811304 0.0021226264 0.0011660124 0.0018478492
0.0026926263 0.00096995756 0.00033056983 0.0013314527 0.0005869288 0.0004995129 0.0015279851 0.0010853084
0.0014713736 0.00089311996 0.0016438011 0.0015622013 0.0003760271 0.0010374059 0.00049355713 0.000188919
0.0017389429 0.00087987405 0.00055295625 0.0007402116 0.0018676209 0.00033887837 0.0017441498 0.0008219446
0.0007268398 0.001708491 0.0024006504 0.001113151 0.00019667619 0.0019137335 0.002644591 0.0018814065
0.0014099629 0.0023769212 0.0026010452 0.0024452398 0.001761279 0.002842414 0.002825978 0.0029034826
0.0013594606 0.0018046452 0.0014129071 0.0007432616 0.00125841 0.0013480637 0.0013990804 0.0011348255
0.0022327309 0.00057994795 0.0019060808 0.0005288148 0.0027412286 0.0017335372 0.0020175378 0.0028106587
0.00086583075 0.00013361586 0.0011528397 0.0018864454

q f4 [1, 100]
00000000: 7830 dd3e 839a 173e f007 693c 2a42 613f
00000010: a63e 913d c3a1 073a 6e5c 8c3e ac84 583e
00000020: 6e3f 0a3f a226 7e3f 9036 6f3f da17 bd3d
00000030: 53bc 743f 730b 313f 54d9 4d3e 761a 663f
00000040: 90ff 703f 169f 013f 7ee2 573e bbab 513e
00000050: 361e 3c3e 6c10 d13e b894 0c3e 75f3 363d
00000060: 8c37 6f3f 69cc a53e bb0c e23d d3be d03d
00000070: 1145 6d3c fe15 213f 6974 103f 5045 803f
00000080: 1aa2 6a3f 728d 113f 7c43 b93d f284 bf3e
00000090: 57f5 023f e22d 263f 7f32 cd3d b02f 693f
000000a0: 4a13 6a3e 7766 8439 1c03 da3e fe33 8a3f
000000b0: 5c2d 7b3e d4d8 5f3e f4c1 073f aa78 2f3f
000000c0: fdb1 413f ea42 b63f 1bdc 4c3f e586 973d
000000d0: 0586 593f df8f 3a3f ad4a 3f3f 89da 153e
000000e0: 425b 3b3f a9e4 363f 6b05 b13e 821f 413e
000000f0: cf6e 513f f926 fe3e 1d11 633f 5af9 473f
00000100: c8db 7b3e c13d fe3e 8f96 883d 0b44 de3e
00000110: 6090 873c 6b8a 213f 7560 bc3c ef6f 2b3f
00000120: bd60 213f 50bc 1b3f 3f02 893e 3ef5 883f
00000130: 8a14 1d3f 7cad ef3e 6a03 b83f e79d 4a3f
00000140: 6560 ed3e 6d41 7d3f 7e30 393f ba4a e73e
00000150: 8968 353e df46 ee3d 97ea 4c3f 8a73 1b3f
00000160: 7c56 dd3e 08e2 4f3f 7660 b23f 665b 913f
00000170: 4d40 9d3e b3ec 6e3f 7c3d 0c3f af34 dc3e
00000180: 5155 a43d 4c8a 9d3e ec5d 233f adb4 593f
0.4320104 0.14805035 0.014223084 0.87991583 0.07092027 0.00051739457 0.27414268 0.2114436
0.54003036 0.992777 0.9344263 0.09233065 0.9559986 0.69158095 0.20102435 0.89884126
0.9413996 0.5063337 0.21082494 0.20475666 0.183709 0.4083284 0.13728607 0.044665772
0.9344413 0.32382515 0.110375844 0.10192647 0.014481799 0.6292418 0.5642763 1.0021152
0.916536 0.56856453 0.09046075 0.37406117 0.5115561 0.6491376 0.10019397 0.9108839
0.2285892 0.00025253344 0.42580497 1.0797117 0.24529022 0.21860057 0.53030324 0.68543494
0.75662214 1.423917 0.80023354 0.07398776 0.8497012 0.7287578 0.7472332 0.14634146
0.73186123 0.7144266 0.34574446 0.18859676 0.81809705 0.4963911 0.8869799 0.78114855
0.24595559 0.4965649 0.06669342 0.43411288 0.016548336 0.63101834 0.022995213 0.6696767
0.63038236 0.6083422 0.26759526 1.0699842 0.61359465 0.46812046 1.4376042 0.7914719
0.46362606 0.98927957 0.7233962 0.451742 0.17715658 0.11634611 0.80045456 0.60723174
0.43230045 0.8120427 1.3935688 1.1356018 0.3071312 0.93329924 0.5478132 0.43008944
0.08024085 0.30769575 0.6381519 0.85041314

z f4 [1, 100]
00000000: 9ab5 d33e fc66 493e 3ada 753f 08c7 0b3f
00000010: 1035 333d 4058 233c bc03 443f be82 4a3f
00000020: 9de7 5e3f 400f 973e 10db 153d b809 113e
00000030: 4392 083f 60e4 763f 1752 773f 93a8 623f
00000040: 5eeb 783f e483 e23e 5183 3b3f b626 1f3f
00000050: b365 413f 90f1 a93d 2c47 7a3e b008 2f3d
00000060: 2b4a 033f c4e5 7c3e d54b 103f 95bd 603f
00000070: 59b4 4c3f a8fd b73e c4ed f13e 1357 2d3f
00000080: e20f 643f db2d 2a3f f0c4 0e3d 459c 163f
00000090: f6b7 b13e 5175 6c3f 7000 103e 35f0 453f
000000a0: 04c2 563e 104a e73e f886 373e 319f 623f
000000b0: 74d9 453f f0c4 493f 8455 7e3e 50b0 d03d
000000c0: ddb7 353f cad2 733f 7755 113f 94e6 073e
000000d0: 5a0d 453f 9ae8 8e3e 3f22 3b3f f522 4a3f
000000e0: 7825 af3d f846 bb3d cc5a 483e 8c2e 133e
000000f0: 9f59 453f cc84 b63e cf3a 103f b8e5 1e3f
00000100: c9b1 513f 533b 6e3f 1769 3e3f 5006 dc3d
00000110: fcf4 363f 583d de3d b98b 263f 673d 1f3f
00000120: 035a 0e3f 98d7 993d 7f12 103f 4d60 5c3f
00000130: 2401 843e e036 a73e aa02 1d3f fe61 173f
00000140: 90d3 263e c007 893e e4e0 a73e fcc0 443f
00000150: f56e 323f 9666 b43e 707c b53e 22c5 aa3e
00000160: 2fdf 173f 4006 053e f8d5 033f 6daa 0d3f
00000170: 48a4 613e 0015 803b baa7 533f 6266 213f
00000180: 8218 493f 488f 2c3e d08c 523e 8680 273f
0.41349488 0.19668192 0.9603611 0.5460057 0.043751776 0.009969771 0.765682 0.79105747
0.87072164 0.29503822 0.036585867 0.14163864 0.5334818 0.9644222 0.96609634 0.88538474
0.9723414 0.4424125 0.7324725 0.62168443 0.75545806 0.082980275 0.24441212 0.042732894
0.51285046 0.24697024 0.5636571 0.8778928 0.7996269 0.35935712 0.47251713 0.6771099
0.89086735 0.6647622 0.034855783 0.588322 0.34710664 0.9236651 0.14062667 0.7731965
0.20972449 0.45173693 0.1792258 0.88524157 0.7728493 0.7881613 0.24837309 0.10189879
0.7098368 0.95243514 0.56771034 0.13271552 0.769735 0.27911836 0.7309913 0.7895959
0.085520685 0.091443956 0.19565886 0.14373225 0.77089876 0.3564819 0.56339735 0.62069273
0.81911904 0.9305927 0.74379104 0.107433915 0.71467566 0.10851544 0.6505695 0.6220307
0.55606097 0.07511824 0.5627822 0.86084443 0.2578212 0.32659054 0.6133219 0.591339
0.16291642 0.26763725 0.32788765 0.7685697 0.69700557 0.35234517 0.354465 0.33353525
0.59324926 0.12990665 0.51498365 0.55338174 0.22035325 0.0039087534 0.82677805 0.6304685
0.7855302 0.16851532 0.20561528 0.65430486
