checkpoints/single-phase/13bus/safe-ddpg/policy_net_checkpoint_bus5.pth (torch, 3103 bytes, 4 tensors)

b f4 [100]
00000000: a829 b6b7 84d0 c3b7 fbf0 b2b7 119f b4b7
00000010: 1250 053b bae0 bbb7 fa75 bdb7 71a7 bfb7
00000020: 2efb c3b7 99c1 923c d416 b0b7 7a46 99b7
00000030: abff 97b7 eb2a 97b7 4e7b 97b7 993f a0b7
00000040: 8ae6 9ab7 149b c13a d63e d938 7931 aeb7
00000050: 1c09 a2b7 af23 98b7 7de2 96b7 d0ef bd3b
00000060: a7e0 97b7 c595 c539 c47c 95b7 1e67 943c
00000070: 56d7 8d3a a831 033a 742b 003a c07b f339
00000080: 87f4 f339 1daf ab3c 329c 57b8 00d2 55b8
00000090: e52d 58b8 c529 58b8 614b 58b8 0c42 58b8
000000a0: 5631 58b8 ee2e 58b8 a92f 58b8 552c 58b8
000000b0: 4d32 58b8 a82d 58b8 2f90 003d 7526 da3b
000000c0: 0800 0080 0600 0080 4c00 0080 5ee6 a43b
000000d0: 6800 0080 3bca 2d3b 0c9d 7039 1a82 983a
000000e0: bf58 983a db7a 973a cf74 9d3a 23ba 0a3b
000000f0: 2f02 213b 26c9 123b a14c 0080 e8cd 913a
00000100: 8f74 483a 6201 cf39 53ea 8c3a d439 7c3a
00000110: c565 293a c84e b639 43aa 2d39 8c48 673a
00000120: 3e48 e338 de91 063a 6b62 883a 28d0 f539
00000130: 3799 7b39 7f11 3e3a efcb f139 5cc9 033a
00000140: 9cd4 953a 26b3 c339 1169 633a 4cf8 0a3a
00000150: 8498 6a3a 51a0 263a 2db2 a939 9c1f 353a
00000160: 10d2 3e3a 4071 c938 92aa 9239 9e18 6c3a
00000170: bd4c 1a3a 1261 5a39 ffa6 873a 1b21 2a3a
00000180: 8cc4 833a 62f9 ce39 7f47 2439 3f11 5a3a
-2.1715488e-05 -2.334291e-05 -2.1331469e-05 -2.1531743e-05 0.0020341915 -2.2396784e-05 -2.2585493e-05 -2.2846945e-05
-2.3362776e-05 0.01791458 -2.0991465e-05 -1.827184e-05 -1.8119657e-05 -1.8020588e-05 -1.8058021e-05 -1.9103101e-05
-1.8465584e-05 0.0014770948 0.000103590704 -2.0765454e-05 -1.9316147e-05 -1.8136428e-05 -1.798686e-05 0.00579641
-1.8105215e-05 0.00037686355 -1.7820283e-05 0.018115576 0.0010821621 0.0005004653 0.00048892875 0.00046440773
0.0004653076 0.020957524 -5.1405463e-05 -5.0978735e-05 -5.1541156e-05 -5.1537314e-05 -5.1568615e-05 -5.1559924e-05
-5.154436e-05 -5.154212e-05 -5.15428e-05 -5.15397e-05 -5.154526e-05 -5.1540934e-05 0.031387504 0.0066574165
-1.1e-44 -8e-45 -1.06e-43 0.0050323447 -1.46e-43 0.0026518244 0.00022946688 0.0011635453
0.0011623128 0.0011557 0.0012012961 0.0021168075 0.0024567952 0.0022397726 -2.7489e-41 0.0011123987
0.0007646763 0.00039483147 0.0010750986 0.0009621654 0.0006462003 0.00034772442 0.00016561993 0.0008822761
0.0001083766 0.000513343 0.0010405307 0.0004688513 0.00023994302 0.0007250532 0.00046119044 0.00050272583
0.001143116 0.00037326774 0.0008675019 0.00053012813 0.0008949118 0.00063562865 0.00032366943 0.0006909312
0.00072792266 9.605521e-05 0.00027974375 0.0009006354 0.00058860687 0.00020826262 0.0010349451 0.00064899185
0.0010053082 0.00039477187 0.00015666893 0.000831861

c f4 [100]
00000000: 068d 973a 1eb3 a739 b1c6 b33a c6db d13a
00000010: 5088 0a3a 0e8e e63a b263 fb3a 0e62 223a
00000020: 3443 123b aee1 8539 d4bd 9b3a 292c 2a3a
00000030: 95d3 f13a 6c62 153b 7428 ed39 ff7f bb39
00000040: 25d5 fb3a d712 a63a a216 5e3a 69b3 173b
00000050: ef84 a839 c73f 1e3b b986 cf3a 9277 2e3b
00000060: f55f 0f3b 5150 ed3a 279e 273b b2b1 203b
00000070: faa4 393a 618f 383a b489 183a 62fe 1d3b
00000080: 44ff 2a3a 7bc0 8539 330a 183a 5027 6b3a
00000090: 06f9 293b 5f42 003b c193 9d3a 4e0f c438
000000a0: 7227 eb3a 5908 243b 7afc 8e3a ae95 133b
000000b0: 89fb 2f3a b150 653a 2abe 433b a970 c83a
000000c0: 5ada 813a 1de5 b83a a6f9 d439 7a05 113b
000000d0: 11d3 813a ab19 f23a 02cb d43a 0434 9c3a
000000e0: d25a c23a 7a89 523a 8868 843a 145d 273a
000000f0: b1f3 d53a 2702 d23a a026 5f3a 53f4 113b
00000100: 3a05 8039 a2a1 1939 bdf4 283b 3514 b63a
00000110: 15b9 043b 2dfe e03a bc69 013b 5638 0a3b
00000120: 839f 1e3b 1b53 123b f9f9 2a3b 8de4 3c3b
00000130: e74f 143b 728d 5f3a cab1 d03a e27c 343b
00000140: a413 c23a 25ed bc3a 4475 3f3b 586e 9d3a
00000150: 5ff5 083b 2046 a33a afca 143b 81e6 0c3b
00000160: ba15 893a 8de3 3038 731a 163b 7ab4 223b
00000170: a56e 2d3b b60f e239 0745 2d3b 51fb 3e3b
00000180: fddb e839 1238 6a39 d6fb 553a 6332 aa3a
0.0011562414 0.00031986175 0.0013715831 0.0016010932 0.00052845944 0.0017589943 0.0019179492 0.0006194421
0.0022317888 0.0002553588 0.0011882135 0.0006491566 0.0018449897 0.002279426 0.00045234303 0.00035762784
0.0019213302 0.001267041 0.00084720005 0.0023147708 0.000321425 0.00241469 0.0015832997 0.0026621562
0.0021877263 0.0018105601 0.0025576444 0.0024519977 0.00070817734 0.0007040408 0.0005818859 0.0024107923
0.0006523023 0.00025511146 0.00057998596 0.00089703966 0.0025935783 0.001957081 0.0012022184 9.348859e-05
0.0017940833 0.002502939 0.0010908984 0.0022519636 0.0006713202 0.00087476807 0.0029867985 0.0015292364
0.0009906993 0.0014106367 0.00040621794 0.0022128508 0.0009904822 0.0018470784 0.0016234817 0.0011917357
0.0014828092 0.000803135 0.0010101954 0.0006384414 0.0016323236 0.001602237 0.00085125305 0.0022270873
0.00024417957 0.0001465143 0.002578064 0.001389152 0.002025192 0.0017165594 0.001974686 0.0021090708
0.0024203963 0.0022327367 0.0026088937 0.002882275 0.0022630633 0.0008527852 0.0015922126 0.0027540256
0.0014806879 0.0014413936 0.0029214183 0.0012011034 0.0020898206 0.0012456812 0.0022703817 0.0021499696
0.0010458746 4.2173593e-05 0.0022903949 0.002482681 0.0026463654 0.00043117785 0.0026438849 0.0029141495
0.00044414392 0.00022336867 0.00081628317 0.0012984987

q f4 [1, 100]
00000000: 31c7 2c3f 9a25 503e 3307 773f bd9b 4a3f
00000010: 77e0 0c3d efc3 1d3f ac8b 103f dac2 013f
00000020: 5ae8 d83e 7600 0000 7742 983e f540 353f
00000030: e2a4 3c3f 4034 773f f609 6a3f d15e f53e
00000040: 99f3 183f bf99 c23d d54a 113e 2cab 8e3e
00000050: d087 3e3e 8fb9 693f a99b 773f a076 5f37
00000060: 76f6 663f b1d0 ef3d 0849 183f 9218 73bb
00000070: bff6 9f3e 4e37 653f a4d7 0d3f 807f ce3e
00000080: 2e34 e03e 470f 0000 a93f 283f 7fe4 003e
00000090: 4a46 243f 3449 5b3f 6840 903e a1f4 ae3e
000000a0: 0329 1b3f 52ab 363f 2d9b 2c3f 2d0f 6b3f
000000b0: 4890 133f 7d28 4b3f cdc1 f227 0a20 723d
000000c0: 2508 0f3f bfb8 1e3f 4953 4f3e 22f7 ca3d
000000d0: 2fb1 493f e615 f13e 9a13 723f 7c1a 5d3e
000000e0: 743e d03d 4058 ff3b 86ee 863e cf45 3b3f
000000f0: 3fc0 253f 7f48 213f b0fc 853e caba 973e
00000100: 0e78 2f3f eb45 463f 4242 883e de0a 8f3e
00000110: 0c6c cf3e d84e 453e 14e9 a13e ba4f c73e
00000120: a419 a03e 543c e33e eda0 443f 10ed a03e
00000130: 48d1 a13d 10d5 243f a89f 683e c4ef ec3e
00000140: 45e0 453f 4cfd 573e aeff 813e e0c4 7e3e
00000150: f0d5 e33d 285a 2b3f 7de3 543f e0f6 b13e
00000160: 1536 503f d2cc a73e 7201 ae3e b042 c23e
00000170: 004d bc3d 2aba 2e3f de9e 1d3f c4f1 523e
00000180: db0b 183f a917 523f f458 c83e 460c 4f3f
0.6749144 0.20326844 0.9649536 0.7914389 0.034393754 0.61627096 0.5646312 0.50687945
0.4236477 1.65e-43 0.2973821 0.7080224 0.7368909 0.965641 0.9142145 0.47923902
0.597467 0.09501981 0.14188702 0.2786497 0.18606496 0.91298765 0.96721894 1.3319455e-05
0.9021982 0.117097266 0.59486437 -0.0037093502 0.3124294 0.89537513 0.55407166 0.4033165
0.4378981 5.48e-42 0.6572214 0.12587164 0.6416975 0.85658574 0.28174138 0.34171012
0.60609454 0.71355164 0.6742428 0.9182003 0.5764203 0.79358655 6.7378612e-15 0.059112586
0.558718 0.6200065 0.20246615 0.09910418 0.78785986 0.4708702 0.9456116 0.21592134
0.10168162 0.0077925026 0.26353854 0.73153394 0.6474647 0.63001245 0.26169348 0.29634696
0.68542564 0.77450436 0.2661305 0.27937979 0.4051212 0.19268358 0.31623137 0.38928014
0.31269562 0.44381964 0.76808053 0.31430864 0.07901245 0.6438761 0.22717154 0.46276677
0.77295333 0.21092719 0.2539038 0.2487979 0.1112479 0.6693444 0.8315962 0.34758663
0.8133252 0.32773453 0.33985478 0.37941504 0.09194374 0.68252814 0.6157054 0.20600039
0.5939309 0.8206735 0.39130366 0.808781

z f4 [1, 100]
00000000: a1f2 0e3f b89e df3d b9b9 0b3f bf75 5b3f
00000010: 7c11 3e3e 5be4 5f3f e086 6f3e e0e4 4e3d
00000020: a9db 353f 4542 0b3f 2f54 603f 8b11 4f3f
00000030: 4427 2c3e ab0c 123f 48f4 e83e 9b86 223f
00000040: 905d 723e ac0f 253f c494 303e 7077 453e
00000050: ab8a 223f fe99 6a3f 4007 c63c 03f5 013f
00000060: f49e 853e b09e 033f eed9 853e 563c ac3e
00000070: 0064 7f3a d835 0a3e fb57 403f 7fdc 133f
00000080: 305d 043e b033 1a3f dec7 e33e 8c2d 7e3f
00000090: d8f6 a83d 62d0 ab3e 421d 373f 80c8 153f
000000a0: 6130 3a3f 3b01 2c3f d8e5 133f b834 733e
000000b0: 82e4 7c3f fc8a 4c3e 6b0d 483f 14a3 773f
000000c0: 4c73 e33e 7662 5b3f f67a ee3e 328e 493f
000000d0: a65a 713f 00eb c83e f102 6d3f 8a93 7f3f
000000e0: cebf 453f 7238 443f 5fe7 193f 8e4c e83e
000000f0: 88ef 323f 675f 053f b8fe 6d3f ec2e 153e
00000100: 3e65 a43e d28b a43e e839 853e 0940 0f3f
00000110: 4d22 6f3f 8eee 3a3f e686 503f f4cd 2a3f
00000120: d7d3 7f3f 6efa 3a3f 2d94 3f3f 6cac f43e
00000130: 1ccc 123e 92dd d63e c8b6 d53d c4ae 0b3f
00000140: e046 4e3e 6dcf 423f 369b f83e 8477 913e
00000150: b9fe 603f 669e 423f 0a5b 133f ac72 2e3f
00000160: 5605 f63e a41d 763e 6ccd b43e 8032 5a3c
00000170: c0d0 a13d 6081 583e 5069 8e3d b690 d73e
00000180: 027f 2e3f 80b1 6c3c 806a 273e 687f 873e
0.5583897 0.10918945 0.54580265 0.8572654 0.18561357 0.8745782 0.23391294 0.05051124
0.710383 0.54397994 0.87628454 0.80886143 0.16811854 0.5705058 0.45498872 0.6348664
0.23668504 0.6447704 0.1724425 0.19283843 0.6349284 0.91641223 0.024173379 0.50764483
0.26097834 0.5141401 0.2614283 0.33639783 0.0009742379 0.13497102 0.7513425 0.57758325
0.12926173 0.6023512 0.44488424 0.9928825 0.08250207 0.3355742 0.7152902 0.58509064
0.7273007 0.6718938 0.5777259 0.2375058 0.98786175 0.19974893 0.78145474 0.9673321
0.44423902 0.85697114 0.46578187 0.787326 0.94278944 0.3924179 0.92582613 0.998345
0.77245796 0.7664863 0.6011867 0.45370907 0.69896746 0.520987 0.92966795 0.1456868
0.32108492 0.32137924 0.2602074 0.55957085 0.93411714 0.73020256 0.8145584 0.6672051
0.99932617 0.73038375 0.74835473 0.47787797 0.14335674 0.4196592 0.104352534 0.54563546
0.20144224 0.76097757 0.48555917 0.28411496 0.87888676 0.76022947 0.5756079 0.68143725
0.48050946 0.24034745 0.35312974 0.013317704 0.07901144 0.21143103 0.069536805 0.42102593
0.6816255 0.014446616 0.1634922 0.2646439
