checkpoints/single-phase/13bus/safe-ddpg/policy_net_checkpoint_bus4.pth (torch, 3103 bytes, 4 tensors)

b f4 [100]
-3.8759605e-05 0.002825841 0.0029823987 0.0029771854 0.0029706417 0.0038589446 0.002260811 0.0015636282
0.007120656 0.003121919 -1.25040815e-05 0.00034436895 0.0006346415 -1.2489481e-05 4.7424337e-06 0.0048644315
2.5479462e-06 0.0017397449 0.00053987553 0.0005792791 0.0006248717 0.0006702406 0.00070237165 0.0006954713
0.0026191494 0.00028408706 0.00022869211 0.000232001 0.00023145623 0.00020757037 0.0020391855 0.00021341785
0.006360964 0.00030292937 0.0016745572 0.0025741872 0.00088886527 0.0018388729 0.001112821 0.0011153476
0.0013335152 0.0018919194 0.0014893321 0.0014722605 0.0009346929 0.000920547 0.00073765515 0.0019256935
0.0021752804 0.001362847 0.0013430719 0.0007351254 0.0007369189 0.0009162101 0.0019114069 0.0020819835
0.0021077597 0.0014590555 0.00031963794 0.0005666675 0.00031304208 0.00034931253 0.0023972166 0.00030442618
0.0017065277 0.00024845984 0.0011337028 0.00027017054 0.00029451188 0.00028377963 0.00028331205 0.00032006513
0.00028550896 0.001091183 0.0004163195 0.0010182313 0.00052097556 0.00040938755 0.00069329405 0.00067203166
0.0008143178 0.000787281 0.00069700816 0.0008235148 0.00047325238 0.00083931535 0.0008328095 0.0007050525
0.0006455036 0.0005305948 0.0008240923 0.00076096697 0.0007349731 0.00074195454 0.00072910375 0.018215347
0.019163549 -1.736105e-05 -1.8148923e-05 4.9059786e-08
00000000: cf91 22b8 bf31 393b 5974 433b e21c 433b
00000010: 19af 423b 59e6 7c3b 1d2a 143b a8f2 cc3a
00000020: 6454 e93b 1c99 4c3b 9fc8 51b7 6b8c b439
00000030: 125e 263a ea89 51b7 3221 9f36 cf65 9f3b
00000040: 62fd 2a36 2708 e43a 6f86 0d3a c3da 173a
00000050: 6ece 233a 16b3 2f3a 5d1f 383a 4a50 363a
00000060: 09a6 2b3b 85f1 9439 12cd 6f39 4b45 7339
00000070: 0fb3 7239 3fa7 5939 dba3 053b ebc8 5f39
00000080: a26f d03b 7ed2 9e39 d17c db3a b2b3 283b
00000090: bd02 693a 5606 f13a 14dc 913a db30 923a
000000a0: 58c9 ae3a 48fa f73a b135 c33a ddf8 c03a
000000b0: 2e06 753a dd50 713a 335f 413a 8d67 fc3a
000000c0: 268f 0e3b 8fa1 b23a 040a b03a 6eb5 403a
000000d0: ca2d 413a d22d 703a 2c88 fa3a e371 083b
000000e0: 5722 0a3b c73d bf3a 1495 a739 6a8c 143a
000000f0: cc1f a439 ef23 b739 9f1a 1d3b 649b 9f39
00000100: 91ad df3a b743 8239 c198 943a ada5 8d39
00000110: b768 9a39 42c8 9439 8089 9439 6ace a739
00000120: 5db0 9539 0706 8f3a 7545 da39 2c76 853a
00000130: 1492 083a 11a3 d639 2dbe 353a 482b 303a
00000140: f177 553a 8961 4e3a 6db7 363a 25e1 573a
00000150: dc1e f839 8005 5c3a e650 5a3a 46d3 383a
00000160: 0337 293a 9d17 0b3a e607 583a a17b 473a
00000170: 36ab 403a ba7f 423a 5321 3f3a 5a38 953c
00000180: e0fc 9c3c 92a2 91b7 843e 98b7 ceb5 5233

c f4 [100]
0.0008371524 0.00058736646 9.910408e-07 0.00033617666 0.002199587 0.0014012953 0.0007824721 6.188443e-05
0.002635279 0.0009221194 0.0008453766 0.001596558 0.002170068 0.0011133887 0.00043066838 2.6452846e-05
0.002717885 0.002748357 0.0003811299 0.0028772012 0.00048219674 0.0022328726 0.0029773426 0.0028381061
0.00019191178 0.0025372966 0.00296334 0.0015241936 0.0026161438 0.0015824389 0.0029528579 0.00037576767
0.0018994439 0.00033488055 0.0018151144 9.986193e-05 0.002497792 0.0015255578 0.00031798155 0.00016135938
0.0014677206 0.0024494415 0.0026572465 0.0027449934 0.0027480016 0.0021529847 0.0019012498 0.001147562
0.00017218644 1.6298345e-05 0.002625895 0.00028313545 0.00077836536 0.0017045498 0.0003482194 2.3657474e-05
0.0024047454 0.0012934423 0.002007006 0.0013578272 0.00063847716 0.0013008754 0.0022613243 0.0018371216
0.0015169636 0.0010062463 0.0006402656 0.00077239395 0.0029222362 0.0013377249 0.00087623537 0.0001071329
0.0023270056 0.0014155421 0.0010257837 0.0004429861 0.001245753 0.0007939606 0.0016366744 0.0012048344
0.0027067661 0.0003362598 0.0007218933 6.8727655e-05 0.0017324002 0.0008766016 0.0020603512 0.0028259337
0.002953115 0.0014395077 0.0025220073 0.002639534 0.0024638544 0.002111014 0.0007347755 0.0025985755
0.0012287592 0.0025265915 0.0025576602 0.002703747
00000000: 5974 5b3a 7ff9 193a e703 8535 de40 b039
00000010: f226 103b abab b73a d01e 4d3a f3c7 8138
00000020: a5b4 2c3b 63ba 713a 439c 5d3a 9943 d13a
00000030: b337 0e3b 20ef 913a 55cb e139 0ee7 dd37
00000040: 8b1e 323b c71d 343b 64d2 c739 6d8f 3c3b
00000050: 5acf fc39 6355 123b 851f 433b 85ff 393b
00000060: ed3b 4939 c648 263b 9834 423b 73c7 c73a
00000070: 9c73 2b3b d769 cf3a bc84 413b af02 c539
00000080: c3f6 f83a e892 af39 22e9 ed3a f76c d138
00000090: ffb1 233b 3af5 c73a c3b6 a639 9432 2939
000000a0: 8860 c03a cf86 203b 3325 2e3b 59e5 333b
000000b0: d117 343b 1719 0d3b 5b33 f93a cb69 963a
000000c0: f28c 3439 6eb8 8837 3517 2c3b cc71 9439
000000d0: 370b 4c3a 336b df3a 3791 b639 0a74 c637
000000e0: ef98 1d3b b988 a93a f987 033b 1ff9 b13a
000000f0: 7a5f 273a 2382 aa3a ba32 143b 92cb f03a
00000100: dad4 c63a 06e4 833a 7fd7 273a 7b7a 4a3a
00000110: fd82 3f3b 9956 af3a 29b3 653a 8aac e038
00000120: ad80 183b b689 b93a 9773 863a 9640 e839
00000130: 8948 a33a cb21 503a ae85 d63a 89eb 9d3a
00000140: 0064 313b 074c b039 703d 3d3a e121 9038
00000150: b411 e33a bdcb 653a f506 073b 4d33 393b
00000160: 0c89 413b ddad bc3a 4348 253b 08fc 2c3b
00000170: 9e78 213b f058 0a3b f39d 403a dd4c 2a3b
00000180: 510e a13a 2c95 253b 6b9e 273b 5931 313b

q f4 [1, 100]
0.6898483 0.19525936 0.01601858 0.052325718 0.27547836 1.1636504 0.8643843 0.4699051
1.1855773 0.9958427 0.22098501 0.6799825 0.7475285 0.0051488834 0.2275653 1.1397028
0.31503692 0.8976378 0.36097398 0.58613735 0.47469175 0.379587 0.23999691 0.38011023
1.1602575 0.9912149 0.33490282 0.25088587 0.25868762 0.69538134 1.0075488 0.85010946
1.1889685 0.28363508 0.97825575 1.0503917 0.11214595 1.0017986 0.00041685565 0.07175382
0.6430635 0.96766865 0.6901169 0.7076533 0.97992074 0.9834265 1.019498 0.024567245
0.9606724 0.5929117 0.5877787 5.599309e-05 0.03434002 0.37038988 0.846652 0.9193725
0.92535794 0.8421744 0.28321302 0.72170365 0.16340907 0.4121995 0.9892429 0.40110758
0.87406874 0.11521188 0.8330697 8.866078e-06 0.42484528 0.26893997 0.25899777 0.5789072
0.11004172 1.0127195 0.31423864 0.9545419 0.62872374 0.47083756 0.8731624 0.77938795
0.025572052 0.3171483 0.5365809 0.08553213 0.68613553 0.028725939 0.16312088 0.6287469
0.79857194 0.49405643 1.0165671 0.5566962 0.19968548 0.5810753 0.4004791 1.1257639
1.1456763 0.41932636 0.6861292 0.9367711
00000000: e699 303f 12f2 473e 6639 833c 7e53 563d
00000010: 800b 8d3e 7ff2 943f 4a48 5d3f 6797 f03e
00000020: ffc0 973f 8cef 7e3f e549 623e 5513 2e3f
00000030: 075e 3f3f f7b7 a83b e106 693e c8e1 913f
00000040: 854c a13e 97cb 653f 95d1 b83e 190d 163f
00000050: cc0a f33e 3a59 c23e c0c1 753e cf9d c23e
00000060: 5183 943f 42c0 7d3f 6278 ab3e 1d74 803e
00000070: b472 843e 8304 323f 5cf7 803f c6a0 593f
00000080: 1f30 983f 9e38 913e f86e 7a3f 3c73 863f
00000090: c7ac e53d f03a 803f 6b8d da39 abf3 923d
000000a0: cf9f 243f 22b9 773f 80ab 303f c428 353f
000000b0: 16dc 7a3f d7c1 7b3f e97e 823f 3f41 c93c
000000c0: a0ee 753f 10c9 173f aa78 163f 1fda 6a38
000000d0: 1fa8 0c3d bea3 bd3e 2fbe 583f ff5b 6b3f
000000e0: 42e4 6c3f be98 573f 4c01 913e 92c1 383f
000000f0: b554 273e d00b d33e 063f 7d3f f95d cd3e
00000100: f8c2 5f3f 35f4 eb3d 0e44 553f 84bf 1437
00000110: 5285 d93e 80b2 893e 5b9b 843e 4333 143f
00000120: 8e5d e13d cba0 813f e3e3 a03e dc5c 743f
00000130: 0af4 203f 9f11 f13e 9287 5f3f f885 473f
00000140: 7b7c d13c 4361 a23e 5e5d 093f 782b af3d
00000150: 94a6 2f3f a952 eb3c 2909 273e 8ff5 203f
00000160: 366f 4c3f f7f4 fc3e df1e 823f a483 0e3f
00000170: 5a7a 4c3e 5ac1 143f 990b cd3e 0819 903f
00000180: 85a5 923f f2b1 d63e 2aa6 2f3f 3bd0 6f3f

z f4 [1, 100]
0.1705572 0.12067503 0.09200221 0.42483157 0.8143547 0.5919226 0.6508986 0.26254022
0.6301541 0.4074009 0.26622152 0.63859594 0.22741729 0.22079301 0.35502392 0.8621856
0.5120421 0.67542624 0.09230113 0.663461 0.7050317 0.88328624 0.57271546 0.21156466
0.41167694 0.29435843 0.92288154 0.019221723 0.67218983 0.2885803 0.30273908 0.39404523
0.06294215 0.13449657 0.1359784 0.08689505 0.59173894 0.45798576 0.77824116 0.589899
0.7216505 0.10560429 0.14307761 0.33733433 0.59088457 0.8667585 0.07710308 0.33655536
0.6371647 0.1302334 0.4300213 0.13536334 0.18033189 0.1835007 0.6699508 0.90172935
0.79669964 0.5427965 0.10896802 0.07076907 0.1826191 0.01448226 0.9061207 0.50209284
0.10923344 0.7355674 0.6711631 0.37406743 0.7401989 0.46195185 0.8884064 0.100732565
0.88445884 0.7266036 0.7017737 0.8873176 0.77275306 0.6535369 0.7986122 0.5473797
0.35468924 0.94972515 0.8475708 0.46775597 0.31541657 0.18179393 0.54317635 0.45659155
0.97975206 0.39338326 0.67789286 0.6615027 0.30166644 0.084533215 0.66083986 0.078195214
0.6070418 0.20009232 0.76874644 0.6233036
00000000: 8ca6 2e3e 7824 f73d a86b bc3d 8683 d93e
00000010: 8d79 503f 3d88 173f 4aa1 263f ac6b 863e
00000020: c751 213f da96 d03e 304e 883e 067b 233f
00000030: 14e0 683e 9017 623e b2c5 b53e 32b8 5c3f
00000040: 3115 033f bce8 2c3f 6008 bd3d 95d8 293f
00000050: f57c 343f 0c1f 623f 7b9d 123f 68a4 583e
00000060: 52c7 d23e 26b6 963e f741 6c3f e076 9d3c
00000070: a214 2c3f ccc0 933e 9e00 9b3e 4cc0 c93e
00000080: d0e7 803d 78b9 093e ec3d 0b3e 08f6 b13d
00000090: 347c 173f 1c7d ea3e d03a 473f 9f03 173f
000000a0: 16be 383f 1047 d83d f082 123e 16b7 ac3e
000000b0: 3644 173f e3e3 5d3f 38e8 9d3d fc50 ac3e
000000c0: 3a1d 233f e85b 053e c02b dc3e b09c 0a3e
000000d0: eca8 383e 9ce7 3b3e e581 2b3f bcd7 663f
000000e0: 82f4 4b3f b6f4 0a3f a02a df3d 60ef 903d
000000f0: 8000 3b3e 0047 6d3c 87f7 673f 2889 003f
00000100: c8b5 df3d 254e 3c3f 58d1 2b3f c485 bf3e
00000110: ad7d 3d3f f484 ec3e 9a6e 633f e04c ce3d
00000120: e56b 623f b202 3a3f 71a7 333f 3f27 633f
00000130: 25d3 453f 324e 273f d971 4c3f 1321 0c3f
00000140: d499 b53e 3021 733f 66fa 583f b67d ef3e
00000150: 487e a13e 3028 3a3e 9b0d 0b3f 5ec6 e93e
00000160: 08d1 7a3f 8869 c93e 638a 2d3f 3e58 293f
00000170: 0674 9a3e c01f ad3d cd2c 293f d024 a03d
00000180: 1767 1b3f 00e5 4c3e 91cc 443f d390 1f3f
