checkpoints/single-phase/13bus/safe-ddpg/policy_net_checkpoint_a0.pth (torch, 3103 bytes, 4 tensors)

b f4 [100]
00000000: f69a 3fb8 cf03 40b8 045c 3fb8 9a1f 42b8
00000010: f357 3fb8 372a 42b8 c3ce 3fb8 5069 43b8
00000020: ce6d 3fb8 f193 40b8 ce0b 3fb8 1e79 43b8
00000030: e86c 40b8 dcf7 3fb8 3214 3fb8 0246 43b8
00000040: 778a 3fb8 3222 41b8 48a9 40b8 993e 43b8
00000050: 7666 42b8 2f69 3fb8 3c28 43b8 9e28 3fb8
00000060: cd0b 3fb8 7bb9 42b8 cf0b 3fb8 99dc 40b8
00000070: 23ae 3fb8 cd0b 3fb8 fc17 3fb8 6aff 40b8
00000080: f4e3 3fb8 b8c3 3fb8 b389 41b8 cf0b 3fb8
00000090: c1bf 41b8 feee 43b8 8be3 40b8 bd1a 40b8
000000a0: 57ee 3fb8 d3d6 3fb8 a623 3fb8 c436 3fb8
000000b0: cd0b 3fb8 8d3e 48b8 8dcc 3fb8 d214 3fb8
000000c0: e433 40b8 c79e 41b8 8944 3fb8 1f06 40b8
000000d0: afe9 40b8 c183 3fb8 9e00 44b8 cf2d 3fb8
000000e0: 9486 3fb8 530d 44b8 8b4e 40b8 bc48 043e
000000f0: a64f 92b5 61e8 90b5 a0bf 90b5 5064 91b5
00000100: 80b2 90b5 dda1 90b5 cdbc 90b5 d4a3 90b5
00000110: 5817 92b5 63bf 90b5 f6a1 90b5 2dfb 643c
00000120: 0b00 0080 7f26 593b 136d f63a 5238 1038
00000130: a455 5239 14c7 da38 4220 a637 10ac e238
00000140: f1b6 3338 8476 d338 570d c438 ac72 bf38
00000150: a591 9637 7be0 8c38 a625 7138 dea0 b638
00000160: ca63 aa38 2f08 b538 0a4f a037 8f14 f137
00000170: 1c99 0b38 89ac b538 9f03 8638 427a 8a37
00000180: 8ae2 d738 4208 8f38 7202 7d37 8ebd ae37
-4.5682267e-05 -4.5779914e-05 -4.5623645e-05 -4.6282636e-05 -4.5619858e-05 -4.629252e-05 -4.573051e-05 -4.6589703e-05
-4.5640212e-05 -4.591415e-05 -4.5548943e-05 -4.6604422e-05 -4.5877794e-05 -4.5768786e-05 -4.5556757e-05 -4.6556823e-05
-4.5666904e-05 -4.6046633e-05 -4.5934023e-05 -4.654992e-05 -4.634863e-05 -4.563591e-05 -4.6529094e-05 -4.5575776e-05
-4.554894e-05 -4.6425946e-05 -4.5548946e-05 -4.5981815e-05 -4.5700126e-05 -4.554894e-05 -4.5560286e-05 -4.601424e-05
-4.5750246e-05 -4.5720226e-05 -4.6143028e-05 -4.5548946e-05 -4.619337e-05 -4.67142e-05 -4.5988283e-05 -4.580127e-05
-4.575992e-05 -4.573802e-05 -4.557115e-05 -4.5588953e-05 -4.554894e-05 -4.774197e-05 -4.572845e-05 -4.555734e-05
-4.5824694e-05 -4.616266e-05 -4.5601777e-05 -4.5782068e-05 -4.5994002e-05 -4.5660654e-05 -4.6730616e-05 -4.558061e-05
-4.5663284e-05 -4.674245e-05 -4.5849516e-05 0.12918371 -1.0901028e-06 -1.0796467e-06 -1.0784606e-06 -1.0832537e-06
-1.0780786e-06 -1.0775944e-06 -1.0783784e-06 -1.0776516e-06 -1.0884642e-06 -1.0784537e-06 -1.0775973e-06 0.013975901
-1.5e-44 0.0033134518 0.0018800817 3.4384728e-05 0.00020059064 0.00010432131 1.9803763e-05 0.00010808569
4.2847303e-05 0.00010083339 9.348493e-05 9.128949e-05 1.7949214e-05 6.717533e-05 5.749394e-05 8.7084e-05
8.124819e-05 8.632277e-05 1.9110292e-05 2.8739012e-05 3.3282777e-05 8.66289e-05 6.3902924e-05 1.6507813e-05
0.00010294195 6.8203095e-05 1.50805445e-05 2.0830685e-05

c f4 [100]
00000000: df1c 783a 28f0 3638 b621 6f3a 9d19 163a
00000010: a51f df38 e932 973a 9f40 eb3a 62c1 223a
00000020: 93fb ee3a 9d38 243b 6baa 2d3b 3e6b be3a
00000030: 364f 3b3a 4fde cd3a 608f f53a 9b2f 043b
00000040: 7f25 9039 c7e6 133b 7296 a83a ba14 333a
00000050: 2cb0 db3a 96fc c13a 999e 463a 7bc2 c73a
00000060: 0ece 1a3b c820 d639 d4ac d13a fcac f93a
00000070: 5f17 1a3b 67a8 233b c7de f83a ff76 273b
00000080: 26bc f83a 15dc e83a 7231 233b a6e4 fa3a
00000090: 8749 7a3a 09aa c53a 2a67 1e3b 0cdb 193b
000000a0: 4aaa 953a 05c3 0a3b 9020 b03a e174 543a
000000b0: 916c 0e3b ae00 ef3a df4b 3b3a 5eae e73a
000000c0: 7bbb b33a ef8c 023a f395 a53a 9615 033b
000000d0: 7b19 293b 85d2 b63a 9468 5d3a b350 9b3a
000000e0: 5842 7039 11c8 ea3a af41 193b 4aa0 bd3a
000000f0: aeb1 223b 50a2 b63a ac0d 173b e847 143b
00000100: 70b1 203b 4d53 d63a 4a36 8239 57e5 023b
00000110: 2169 9f39 7481 d43a 3730 d83a 767d a837
00000120: 7dd4 fc3a 5c99 7938 838a 293b 5f90 e53a
00000130: 2fcc 073b 2b03 a13a 4665 9338 5249 9439
00000140: 6af2 093b 9c88 083a 9af2 893a 13e9 283b
00000150: d75f 1d3b fb1f e03a 5902 963a e9c5 263b
00000160: 1b00 7c3a 285a 1f3b aac9 f83a d3ed f13a
00000170: e8de 943a 7d63 e63a 6758 343a 6a78 0f3b
00000180: dc80 e239 e0ba cf38 9bc9 c63a 3a97 113b
0.00094647513 4.3615844e-05 0.000912215 0.00057258626 0.00010639363 0.0011535558 0.0017948336 0.0006208626
0.0018232934 0.0025058158 0.0026499282 0.001452781 0.0007145287 0.0015706512 0.0018734746 0.0020169977
0.00027493757 0.0022567974 0.0012862219 0.00068313966 0.0016760877 0.0014800008 0.00075767335 0.0015240455
0.0023621353 0.00040841685 0.0015996941 0.0019048746 0.0023512465 0.0024972202 0.0018987291 0.0025553105
0.0018976971 0.0017765785 0.0024901298 0.0019141629 0.00095476996 0.0015080582 0.0024170377 0.002347651
0.0011418548 0.002117337 0.0013437439 0.00081045745 0.002173219 0.0018234455 0.00071447896 0.0017675867
0.001371249 0.0004980107 0.0012633189 0.002000188 0.002580254 0.0013948238 0.00084460643 0.0011849612
0.00022912899 0.0017912408 0.0023385098 0.0014467326 0.0024825144 0.0013933871 0.002304892 0.0022625867
0.0024519823 0.001635173 0.0002483598 0.0019973123 0.0003040517 0.0016212896 0.0016493861 2.0085583e-05
0.0019289401 5.9509053e-05 0.0025869913 0.0017514339 0.0020721068 0.0012284269 7.02837e-05 0.00028283388
0.002104903 0.00052083447 0.0010524571 0.0025773689 0.0024013424 0.0017099375 0.0011444791 0.0025447553
0.0009613053 0.0024315212 0.0018980999 0.0018457718 0.0011357935 0.0017577257 0.0006879628 0.002189184
0.00043202087 9.905337e-05 0.0015166284 0.0022215382

q f4 [1, 100]
00000000: 0d05 d53e faab 093f 4142 a13e 7cc8 613f
00000010: be3a 9d3e 1ef5 623f 3c5b f63e c493 803f
00000020: f3a7 b13e 4a15 293f 1758 0102 db37 813f
00000030: 5b75 213f 3597 063f 9eda d33d 303a 7e3f
00000040: 32f4 c83e 4708 413f 3907 2d3f 849a 7d3f
00000050: 9262 693f 1592 ad3e b6af 7b3f 730c 433e
00000060: 3cdc b835 69a2 713f 4f88 9f2a 64f8 353f
00000070: 7c12 e23e 36c2 890b 7a10 ff3d a6a5 3b3f
00000080: ba39 013f adb8 ef3e dea2 4f3f fe63 e584
00000090: 408a 563f a3c0 853f 0220 373f 755c 0f3f
000000a0: f70f 043f 520d fb3e 95a9 313e 28a7 6d3e
000000b0: 5fc3 8a81 d36e a23f e803 f53e 5d0c da3d
000000c0: 2e38 153f 3c61 523f 3515 883e 7841 0a3f
000000d0: c023 383f a9b5 c33e 2d65 863f 9091 533e
000000e0: b9ec c53e f6d9 863f 5d1c 1b3f 6d34 f13f
000000f0: 51cb 773f 3569 053f 675c b53e b0f9 443f
00000100: 32d0 893e b108 be33 382d ad3e 4f46 c03d
00000110: 1f27 6f3f 6981 b43e 1847 0218 1a78 a93f
00000120: 63b8 563e abd5 303f 98e4 252b 76b2 4c3f
00000130: 4c2d f93e 0880 6e3e 36f6 bc3e cc23 a73e
00000140: 6050 6a3e 3a06 9a3e f05b 943d ba59 e83e
00000150: c493 3f3f 2006 cc3e 1067 a13d 1050 8b3e
00000160: 9ebb a33e 0c80 c33e f298 df3e a6d7 e43e
00000170: be9d 5c3f 8070 af3e c067 c93d 89e8 5c3f
00000180: 8229 1b3f 43ab 123f a0b6 733f b013 c03e
0.41605416 0.5377804 0.3149586 0.8819654 0.3070888 0.8865527 0.4811648 1.0045094
0.34698448 0.6604811 9.502704e-38 1.0095171 0.63069695 0.52574474 0.10344432 0.9930754
0.39248806 0.75403255 0.67589146 0.990639 0.9116603 0.33900514 0.9831499 0.19047718
1.3773165e-06 0.94388443 2.8338657e-13 0.7108214 0.44154727 5.3062697e-32 0.124543145 0.73299634
0.5047871 0.46820584 0.8110789 -5.392947e-36 0.838047 1.0449413 0.71533215 0.56000453
0.5158686 0.490336 0.17349847 0.23208296 -5.097354e-38 1.2690071 0.47854543 0.10646889
0.5828885 0.8217962 0.2657868 0.5400615 0.7192955 0.38224533 1.0499626 0.20660996
0.38657168 1.0535266 0.60590154 1.8844124 0.9679461 0.5211366 0.3542206 0.7694349
0.26916653 8.8491454e-08 0.33823562 0.0938841 0.9341907 0.35254982 1.6838e-24 1.3239777
0.20968775 0.6907603 5.8937013e-13 0.7995981 0.4866737 0.23291028 0.36906594 0.32644498
0.22882223 0.30082875 0.07244098 0.45380956 0.7483485 0.39848423 0.07880986 0.2720952
0.31979078 0.3818363 0.43671376 0.44695777 0.86178195 0.34265518 0.09834242 0.8629232
0.6061021 0.57292575 0.9520054 0.3751502

z f4 [1, 100]
00000000: 40bd 763e 6074 1d3e f487 3d3e 2be8 5d3f
00000010: a203 3a3f 48e9 b53d c5c3 7c3f 46c8 ee3e
00000020: 174b 5a3f a542 393f 7cd6 d13e 0f33 6f3f
00000030: e2ec d03e c862 ba3e 2bc1 373f 5612 763f
00000040: 0847 5d3f 4059 213f 398e 403f 6c4e e43e
00000050: aa83 f13e 98b9 023e a2e3 ee3e 6cd8 763f
00000060: f798 273f f666 8b3e 7498 5c3e f9dd 173f
00000070: 6eab 2d3f a388 593f f2ed 443f 9651 2e3f
00000080: e21b a83e a073 fc3c d5ca 2e3f fa1f f43e
00000090: a478 333e 9a66 5d3f de6f b93e 2045 033f
000000a0: 91c9 343f 2037 623d f8c5 013e f53f 023f
000000b0: d8a4 6c3e edff 4f3f 98f6 1d3f 4fb8 113f
000000c0: 9c72 0c3f d6d4 7b3f b282 933e 0cbd ea3e
000000d0: 261c 223f c344 3d3f 3a8b 433f c03b c03e
000000e0: df03 083f 2a62 2a3f 00f0 aa3e 720e e93e
000000f0: c456 9c3e 30c4 cf3e ded5 4a3f a0ff ed3d
00000100: 10cc 173e a5d8 753f a827 513f af80 3b3f
00000110: bae1 b83e 700e 233d 6616 a73e a8a6 ea3d
00000120: d83c a73d fcf3 693f 95ab 103f f8e3 bf3d
00000130: de1d 013f 17c0 373f b5bf 3d3f d264 1b3f
00000140: 5fe4 113f b85f 053e c433 623f 4eac c63e
00000150: 49b6 353f 2c7f 013e 9258 203f 014e 773f
00000160: 70cc 013f a7c9 3f3f 2353 603f daa4 3a3f
00000170: a6c6 aa3e 5214 663f 385c 5b3f 84dc 083e
00000180: 8890 8e3e 90fc 7f3d 2bbd 6b3f d4e4 6c3e
0.2409563 0.15376425 0.18508893 0.86682385 0.72661793 0.088823855 0.9873622 0.46637172
0.8527083 0.72367316 0.4098395 0.93437284 0.40805727 0.3640349 0.71779126 0.9612173
0.8643651 0.6302681 0.75217015 0.4459108 0.47170764 0.12766111 0.46658045 0.96423984
0.6546778 0.2722699 0.21542531 0.5932308 0.67839706 0.84974116 0.76925576 0.6809324
0.32833773 0.030816853 0.6827825 0.47680646 0.1752649 0.8648468 0.3621816 0.5127735
0.70620066 0.055228353 0.12673175 0.5087884 0.23109758 0.81249887 0.617044 0.5692186
0.5486238 0.98371637 0.2881065 0.45847356 0.633242 0.7393305 0.7638432 0.37545586
0.53130907 0.66556036 0.3338623 0.45518833 0.30534947 0.40579367 0.79232585 0.11621022
0.14823937 0.960337 0.81701136 0.7324323 0.36109716 0.03980869 0.32634276 0.114575684
0.08165902 0.91387916 0.56511813 0.093696535 0.504362 0.7177748 0.74120647 0.60700715
0.5698909 0.13024795 0.8836024 0.38803333 0.7098127 0.12646168 0.6263515 0.966034
0.5070257 0.7491707 0.87626857 0.72907794 0.33354682 0.89874756 0.8568759 0.1336537
0.27844644 0.06249672 0.9208552 0.23134166
