checkpoints/single-phase/13bus/safe-ddpg/policy_net_checkpoint_bus0.pth (torch, 3103 bytes, 4 tensors)

b f4 [100]
00000000: 010b b0b8 97b1 b1b8 9415 afb8 439e b8b8
00000010: 1e07 afb8 ea0f b9b8 9ad5 b0b8 7c54 beb8
00000020: 6f4c afb8 f6a0 b3b8 09e8 adb8 b1d9 c0b8
00000030: 527b b3b8 9a93 b1b8 2c2e aeb8 562c c0b8
00000040: 88d1 afb8 8443 b6b8 f550 b4b8 75f9 c0b8
00000050: 1b76 bcb8 8a4a afb8 0e60 c1b8 9555 aeb8
00000060: a207 aeb8 e633 c0b8 7df6 adb8 b58b b5b8
00000070: 4b4f b0b8 5fec adb8 4c52 aeb8 dc31 b6b8
00000080: 9a3c b1b8 cfba b0b8 b5d6 b8b8 a2d9 adb8
00000090: e7be b9b8 0bf6 c5b8 9648 b5b8 5af9 b1b8
000000a0: 9d4d b1b8 a400 b1b8 7573 aeb8 e2bd aeb8
000000b0: 15de adb8 2075 753d d001 a13a cdc5 d93a
000000c0: e090 7c39 2cb8 ff38 450b f73a fb9b 4739
000000d0: 29a8 9c38 049a e03a 5c28 2db8 5bc4 bf3b
000000e0: 574a 8d3b 42a0 6239 3204 403b 7caa ca3c
000000f0: f88d e83b 2d00 0080 1e00 0080 1df3 f73a
00000100: 1cf7 ea3a 16f7 4938 d1d2 6f3a 64aa bf3a
00000110: 0311 1639 99e0 e33a d76b ac39 9877 8a39
00000120: 563a 953a bd6d b63a 9c6b 0c3a c31b b53a
00000130: 9a26 c63a 225e e23a a3e3 ab39 0c89 ea3a
00000140: 34f3 393a bbcb da3a 3fdb ca3a da16 c63a
00000150: d8cb 9b39 75c4 913a 8183 793a e4f6 bc3a
00000160: fb4c b03a f94f bb3a 72de a539 3a72 f939
00000170: 9171 103a 2efa bb3a 61aa 8a3a dd48 8f39
00000180: fb5e df3a 4aff 933a e5e4 8239 89cd b439
-8.3943836e-05 -8.4730964e-05 -8.3486695e-05 -8.803282e-05 -8.345976e-05 -8.824452e-05 -8.4321204e-05 -9.0756424e-05
-8.358887e-05 -8.5653664e-05 -8.292503e-05 -9.1958216e-05 -8.558355e-05 -8.4675106e-05 -8.305567e-05 -9.163532e-05
-8.3836785e-05 -8.691012e-05 -8.598148e-05 -9.2017384e-05 -8.9865374e-05 -8.358534e-05 -9.220849e-05 -8.3129074e-05
-8.298388e-05 -9.16494e-05 -8.295195e-05 -8.656775e-05 -8.4071035e-05 -8.2933104e-05 -8.3122955e-05 -8.687723e-05
-8.4513056e-05 -8.42713e-05 -8.813796e-05 -8.28982e-05 -8.857046e-05 -9.439521e-05 -8.644273e-05 -8.486463e-05
-8.454474e-05 -8.440137e-05 -8.318472e-05 -8.332335e-05 -8.290649e-05 0.059926152 0.0012283865 0.0016614735
0.00024086563 0.00012193652 0.0018847963 0.00019036226 7.469982e-05 0.0017135744 -4.1284e-05 0.005852265
0.0043118405 0.0002161274 0.0029299376 0.024739496 0.007097002 -6.3e-44 -4.2e-44 0.0018917058
0.0017926428 4.815225e-05 0.00091485406 0.0014622924 0.00014311452 0.0017385661 0.00032886743 0.00026410515
0.0011385183 0.0013918203 0.0005356611 0.0013817478 0.0015117705 0.0017270485 0.00032785264 0.0017893626
0.000709343 0.0016692796 0.0015476717 0.0015113011 0.0002971578 0.0011121171 0.0009518192 0.0014416841
0.0013450676 0.0014290801 0.00031636987 0.00047578086 0.0005510087 0.0014341527 0.0010579341 0.00027329373
0.0017041856 0.0011291292 0.00024966072 0.0003448541

c f4 [100]
00000000: df1c 783a 28f0 3638 b621 6f3a 9d19 163a
00000010: a51f df38 e932 973a 9f40 eb3a 62c1 223a
00000020: 93fb ee3a 9d38 243b 6baa 2d3b 3e6b be3a
00000030: 364f 3b3a 4fde cd3a 608f f53a 9b2f 043b
00000040: 7f25 9039 c7e6 133b 7296 a83a ba14 333a
00000050: 2cb0 db3a 96fc c13a 999e 463a 7bc2 c73a
00000060: 0ece 1a3b c820 d639 d4ac d13a fcac f93a
00000070: 5f17 1a3b 67a8 233b c7de f83a ff76 273b
00000080: 26bc f83a 15dc e83a 7231 233b a6e4 fa3a
00000090: 8749 7a3a 09aa c53a 2a67 1e3b 0cdb 193b
000000a0: 4aaa 953a 05c3 0a3b 9020 b03a e174 543a
000000b0: 916c 0e3b ae00 ef3a df4b 3b3a 5eae e73a
000000c0: 7bbb b33a ef8c 023a f395 a53a 9615 033b
000000d0: 7b19 293b 85d2 b63a 9468 5d3a b350 9b3a
000000e0: 5842 7039 11c8 ea3a af41 193b 4aa0 bd3a
000000f0: aeb1 223b 50a2 b63a ac0d 173b e847 143b
00000100: 70b1 203b 4d53 d63a 4a36 8239 57e5 023b
00000110: 2169 9f39 7481 d43a 3730 d83a 767d a837
00000120: 7dd4 fc3a 5c99 7938 838a 293b 5f90 e53a
00000130: 2fcc 073b 2b03 a13a 4665 9338 5249 9439
00000140: 6af2 093b 9c88 083a 9af2 893a 13e9 283b
00000150: d75f 1d3b fb1f e03a 5902 963a e9c5 263b
00000160: 1b00 7c3a 285a 1f3b aac9 f83a d3ed f13a
00000170: e8de 943a 7d63 e63a 6758 343a 6a78 0f3b
00000180: dc80 e239 e0ba cf38 9bc9 c63a 3a97 113b
0.00094647513 4.3615844e-05 0.000912215 0.00057258626 0.00010639363 0.0011535558 0.0017948336 0.0006208626
0.0018232934 0.0025058158 0.0026499282 0.001452781 0.0007145287 0.0015706512 0.0018734746 0.0020169977
0.00027493757 0.0022567974 0.0012862219 0.00068313966 0.0016760877 0.0014800008 0.00075767335 0.0015240455
0.0023621353 0.00040841685 0.0015996941 0.0019048746 0.0023512465 0.0024972202 0.0018987291 0.0025553105
0.0018976971 0.0017765785 0.0024901298 0.0019141629 0.00095476996 0.0015080582 0.0024170377 0.002347651
0.0011418548 0.002117337 0.0013437439 0.00081045745 0.002173219 0.0018234455 0.00071447896 0.0017675867
0.001371249 0.0004980107 0.0012633189 0.002000188 0.002580254 0.0013948238 0.00084460643 0.0011849612
0.00022912899 0.0017912408 0.0023385098 0.0014467326 0.0024825144 0.0013933871 0.002304892 0.0022625867
0.0024519823 0.001635173 0.0002483598 0.0019973123 0.0003040517 0.0016212896 0.0016493861 2.0085583e-05
0.0019289401 5.9509053e-05 0.0025869913 0.0017514339 0.0020721068 0.0012284269 7.02837e-05 0.00028283388
0.002104903 0.00052083447 0.0010524571 0.0025773689 0.0024013424 0.0017099375 0.0011444791 0.0025447553
0.0009613053 0.0024315212 0.0018980999 0.0018457718 0.0011357935 0.0017577257 0.0006879628 0.002189184
0.00043202087 9.905337e-05 0.0015166284 0.0022215382

q f4 [1, 100]
00000000: 22d2 d63e d9e6 083f 0114 a53e 2eb4 483f
00000010: da7d a13e 374b 4b3f 6cfa f53e 138a 633f
00000020: 65d7 b13e cc24 213f f0b8 963d 2326 6c3f
00000030: 838d 1f3f b825 073f c889 2f3e 2efa 693f
00000040: 779b cc3e 35da 383f 2822 283f 8689 6c3f
00000050: 5515 5c3f bd59 b13e a7c4 6d3f 1fe6 523e
00000060: 490d 023e fd12 6a3f 3fdd ce3d dd24 333f
00000070: d4fb e13e e5ab a73d 781a 503e 1b52 383f
00000080: 42cb 013f 4525 f23e edff 493f 54bc 5e3c
00000090: 9813 4f3f 58ef 793f f4ec 303f 48e4 0c3f
000000a0: 97d6 023f 64b7 fb3e c5a5 693e d445 8d3e
000000b0: 9bbd 1f3d 4955 ac3f 295f f43e 763c 293e
000000c0: dd7b 0a3f 3434 433f 4535 803e 580b f53e
000000d0: a11d 253f 4fdf a83e bf87 743f 932c 0a3e
000000e0: 759a aa3e 7318 743f 8c34 0a3f e922 8d3f
000000f0: 637a 5c3f 43da 013f 1699 c23e 7681 343f
00000100: bfa2 9e3e 0c94 063e 72a2 b83e 903a 4e3e
00000110: 325f 4c3f 9e53 b23e 30d8 8a3d fb3e 743f
00000120: eaa4 8d3e 0d84 083f 2098 773d 6022 4b3f
00000130: a507 003f 04be 6b3e 36f6 bc3e cc23 a73e
00000140: 6050 6a3e 3a06 9a3e f05b 943d ba59 e83e
00000150: c493 3f3f 2006 cc3e 1067 a13d 1050 8b3e
00000160: 9ebb a33e 0c80 c33e f298 df3e a6d7 e43e
00000170: be9d 5c3f 8070 af3e c067 c93d 89e8 5c3f
00000180: 8229 1b3f 43ab 123f a0b6 733f b013 c03e
0.41957194 0.53477246 0.32241824 0.7839993 0.3154133 0.79411644 0.4804262 0.8888256
0.34734645 0.6294677 0.07359493 0.9224569 0.62325305 0.5279193 0.17142403 0.9139737
0.3996236 0.7220796 0.6567712 0.92397344 0.8597005 0.34638777 0.9287819 0.20595597
0.1270038 0.91435224 0.10100793 0.69978124 0.44137442 0.08187083 0.20322597 0.72000283
0.5070077 0.4729406 0.78906137 0.013594706 0.8088927 0.97630835 0.6911156 0.5503583
0.5110869 0.49163353 0.22817142 0.27592337 0.03899918 1.3463527 0.4772885 0.1652697
0.5409525 0.7625153 0.2504064 0.47860217 0.64498335 0.3298287 0.9551963 0.13493566
0.33320966 0.95349807 0.5398643 1.1026279 0.8612425 0.50723666 0.3800742 0.7051004
0.3098354 0.13142413 0.36061436 0.20139527 0.79832757 0.3482942 0.06779516 0.954086
0.27664882 0.53326494 0.060447812 0.7934933 0.50011665 0.23021704 0.36906594 0.32644498
0.22882223 0.30082875 0.07244098 0.45380956 0.7483485 0.39848423 0.07880986 0.2720952
0.31979078 0.3818363 0.43671376 0.44695777 0.86178195 0.34265518 0.09834242 0.8629232
0.6061021 0.57292575 0.9520054 0.3751502

z f4 [1, 100]
00000000: 40bd 763e 6074 1d3e f487 3d3e 2be8 5d3f
00000010: a203 3a3f 48e9 b53d c5c3 7c3f 46c8 ee3e
00000020: 174b 5a3f a542 393f 7cd6 d13e 0f33 6f3f
00000030: e2ec d03e c862 ba3e 2bc1 373f 5612 763f
00000040: 0847 5d3f 4059 213f 398e 403f 6c4e e43e
00000050: aa83 f13e 98b9 023e a2e3 ee3e 6cd8 763f
00000060: f798 273f f666 8b3e 7498 5c3e f9dd 173f
00000070: 6eab 2d3f a388 593f f2ed 443f 9651 2e3f
00000080: e21b a83e a073 fc3c d5ca 2e3f fa1f f43e
00000090: a478 333e 9a66 5d3f de6f b93e 2045 033f
000000a0: 91c9 343f 2037 623d f8c5 013e f53f 023f
000000b0: d8a4 6c3e edff 4f3f 98f6 1d3f 4fb8 113f
000000c0: 9c72 0c3f d6d4 7b3f b282 933e 0cbd ea3e
000000d0: 261c 223f c344 3d3f 3a8b 433f c03b c03e
000000e0: df03 083f 2a62 2a3f 00f0 aa3e 720e e93e
000000f0: c456 9c3e 30c4 cf3e ded5 4a3f a0ff ed3d
00000100: 10cc 173e a5d8 753f a827 513f af80 3b3f
00000110: bae1 b83e 700e 233d 6616 a73e a8a6 ea3d
00000120: d83c a73d fcf3 693f 95ab 103f f8e3 bf3d
00000130: de1d 013f 17c0 373f b5bf 3d3f d264 1b3f
00000140: 5fe4 113f b85f 053e c433 623f 4eac c63e
00000150: 49b6 353f 2c7f 013e 9258 203f 014e 773f
00000160: 70cc 013f a7c9 3f3f 2353 603f daa4 3a3f
00000170: a6c6 aa3e 5214 663f 385c 5b3f 84dc 083e
00000180: 8890 8e3e 90fc 7f3d 2bbd 6b3f d4e4 6c3e
0.2409563 0.15376425 0.18508893 0.86682385 0.72661793 0.088823855 0.9873622 0.46637172
0.8527083 0.72367316 0.4098395 0.93437284 0.40805727 0.3640349 0.71779126 0.9612173
0.8643651 0.6302681 0.75217015 0.4459108 0.47170764 0.12766111 0.46658045 0.96423984
0.6546778 0.2722699 0.21542531 0.5932308 0.67839706 0.84974116 0.76925576 0.6809324
0.32833773 0.030816853 0.6827825 0.47680646 0.1752649 0.8648468 0.3621816 0.5127735
0.70620066 0.055228353 0.12673175 0.5087884 0.23109758 0.81249887 0.617044 0.5692186
0.5486238 0.98371637 0.2881065 0.45847356 0.633242 0.7393305 0.7638432 0.37545586
0.53130907 0.66556036 0.3338623 0.45518833 0.30534947 0.40579367 0.79232585 0.11621022
0.14823937 0.960337 0.81701136 0.7324323 0.36109716 0.03980869 0.32634276 0.114575684
0.08165902 0.91387916 0.56511813 0.093696535 0.504362 0.7177748 0.74120647 0.60700715
0.5698909 0.13024795 0.8836024 0.38803333 0.7098127 0.12646168 0.6263515 0.966034
0.5070257 0.7491707 0.87626857 0.72907794 0.33354682 0.89874756 0.8568759 0.1336537
0.27844644 0.06249672 0.9208552 0.23134166
