checkpoints/single-phase/13bus/safe-ddpg/policy_net_checkpoint_bus3.pth (torch, 3103 bytes, 4 tensors)

b f4 [100]
0	0xb90df3d1	-0.00013537637
1	0xb90e7bfa	-0.0001358836
2	0xb90dc573	-0.00013520363
3	0xb90e0ce1	-0.00013546973
4	0xb90e2be6	-0.00013558529
5	0xb90e0d72	-0.00013547184
6	0xb90eb1f7	-0.00013608472
7	0xb90e3cd8	-0.00013564841
8	0xb90dd1d7	-0.0001352498
9	0xb90e7999	-0.00013587474
10	0x3c41db76	0.011832109
11	0xb906553a	-0.00012810985
12	0xb9075291	-0.00012905362
13	0xb9071a45	-0.0001288439
14	0xb90737f8	-0.00012895453
15	0xb9060979	-0.00012782765
16	0xb905ff62	-0.00012779006
17	0xb9060886	-0.00012782411
18	0xb9049a7b	-0.0001264605
19	0xb9078757	-0.00012925021
20	0xb8cb59dd	-9.696533e-05
21	0x3c42597a	0.011862153
22	0x3c407cd9	0.011748516
23	0xb8c0181d	-9.159765e-05
24	0xb8e9c932	-0.00011147781
25	0xb8e82889	-0.00011070172
26	0xb8e9fadf	-0.00011157034
27	0x3c41a698	0.011819504
28	0xb8e4372e	-0.00010882165
29	0xb8e4cd4e	-0.00010910128
30	0x3c41bf00	0.011825323
31	0xb8af6b51	-8.3646395e-05
32	0xb8adbd8f	-8.284591e-05
33	0x3bd1c9d6	0.0064022345
34	0xb867cdbc	-5.5266297e-05
35	0xb869b79f	-5.572254e-05
36	0xb7786048	-1.4804369e-05
37	0xb86a6599	-5.5884568e-05
38	0x3c382e5c	0.011241522
39	0xb86d7620	-5.6615216e-05
40	0x3c26d2fa	0.010182137
41	0x3c2dac0a	0.010600099
42	0xb8bb3191	-8.926087e-05
43	0x3bc72915	0.0060778954
44	0x3c1cd7b7	0.009572915
45	0x3ba0446b	0.0048909686
46	0x3bb7c1b4	0.005607808
47	0xb78f6e69	-1.7098342e-05
48	0xb88a49c3	-6.594092e-05
49	0xb87953ce	-5.9444275e-05
50	0xb78591e1	-1.5922766e-05
51	0x3b54ca0f	0.003246907
52	0x3b9afa43	0.0047295406
53	0xb7acde7b	-2.0607598e-05
54	0x3b964375	0.004585678
55	0x3b956df9	0.004560229
56	0x39f3dc14	0.00046512543
57	0x3a805760	0.0009791665
58	0x3a8851e5	0.0010400383
59	0x38e20a7f	0.00010778475
60	0x3a06f9b6	0.0005148904
61	0x3a55b91f	0.00081528904
62	0x3a0c6678	0.0005355845
63	0x3a2897f0	0.0006431332
64	0x3b233c8b	0.0024907913
65	0x3858cc15	5.168848e-05
66	0x387a88fa	5.9732214e-05
67	0x385d79a3	5.280379e-05
68	0x3a91c179	0.0011120281
69	0x80000008	-1.1e-44
70	0x80000003	-4e-45
71	0x80000004	-6e-45
72	0x80000009	-1.3e-44
73	0x3957d665	0.00020583866
74	0x8000001c	-3.9e-44
75	0x80000047	-1e-43
76	0x80000081	-1.81e-43
77	0x8000001c	-3.9e-44
78	0x382f0272	4.172553e-05
79	0x37a8acc1	2.0107605e-05
80	0x800005af	-2.039e-42
81	0x3722b013	9.696948e-06
82	0x3558d810	8.078068e-07
83	0x376cdac9	1.4117636e-05
84	0x367019ef	3.5777882e-06
85	0x36fb2f33	7.4858776e-06
86	0x36d3c355	6.3110297e-06
87	0x36acc119	5.148479e-06
88	0x37399e84	1.1063767e-05
89	0x3750e816	1.2451803e-05
90	0x36ff641a	7.6112456e-06
91	0x375ee084	1.3284505e-05
92	0x376115f4	1.3416156e-05
93	0x378cc568	1.6781225e-05
94	0x35880d83	1.0136722e-06
95	0x3774e064	1.4595778e-05
96	0x3720a1f2	9.574449e-06
97	0x3748f978	1.1979013e-05
98	0x373cd828	1.1256001e-05
99	0x3717c490	9.046067e-06

c f4 [100]
0	0x3b476c8a	0.0030429685
1	0x389320e9	7.015636e-05
2	0x3b2e7dec	0.0026625348
3	0x3a1652a1	0.00057343586
4	0x3a8c5a04	0.0010707979
5	0x3aff2786	0.0019466735
6	0x38dd9954	0.00010566661
7	0x39a78817	0.00031954117
8	0x3a988a15	0.0011637831
9	0x3b0c058d	0.0021365613
10	0x37b1abc8	2.1180036e-05
11	0x3b0eb111	0.002177302
12	0x3a59ed40	0.0008313246
13	0x3acb8816	0.0015528228
14	0x3b39419e	0.002826787
15	0x3af47c1f	0.0018652714
16	0x3a30ce3d	0.0006744599
17	0x3a6f08cc	0.00091184373
18	0x3abf5af8	0.0014599254
19	0x3a9d8f1d	0.00120208
20	0x3b2f63d9	0.0026762395
21	0x3acaaa0b	0.0015462054
22	0x3b448241	0.0029984864
23	0x3b044d30	0.002018761
24	0x38601be9	5.3431755e-05
25	0x3accb3d8	0.0015617562
26	0x3a555c90	0.0008139098
27	0x39ded036	0.0004249827
28	0x397dd26f	0.00024206353
29	0x395c39cc	0.00021002366
30	0x3b3ea386	0.0029089167
31	0x3ad12858	0.0015957458
32	0x3b04e186	0.0020276024
33	0x3b491c9d	0.003068722
34	0x3b3127ca	0.0027031773
35	0x3b391234	0.002823961
36	0x3aa98966	0.0012934625
37	0x3a433f80	0.0007448122
38	0x39b18f93	0.00033867042
39	0x3a7a5cf6	0.00095505954
40	0x3ada5452	0.001665721
41	0x3ae46cfc	0.0017427499
42	0x3b043ac8	0.0020176638
43	0x3b402215	0.002931719
44	0x3aab562e	0.0013071948
45	0x3a8c2c95	0.0010694439
46	0x3b2d915a	0.0026484341
47	0x3abf7784	0.0014607762
48	0x3b322256	0.002718111
49	0x3a6527b4	0.0008741573
50	0x398e3cb2	0.00027129572
51	0x3b1abd1c	0.0023611253
52	0x3b3594a5	0.0027707007
53	0x399b466c	0.00029616372
54	0x39dfd872	0.0004269514
55	0x3b061a66	0.0020462512
56	0x3a247658	0.0006273738
57	0x3a016bb6	0.00049370097
58	0x3ab30e60	0.00136609
59	0x3a0a0b9c	0.0005266012
60	0x3a56b781	0.00081907964
61	0x3b41cb1b	0.0029570523
62	0x3b4b6397	0.0031034702
63	0x38f1f0d0	0.0001153663
64	0x3a287162	0.0006425587
65	0x3b3c6dc6	0.0028751954
66	0x3adbf28c	0.0016780659
67	0x3a15b23b	0.00057104573
68	0x3a00dd28	0.00049157673
69	0x3abdecdf	0.0014490149
70	0x390fb344	0.00013704324
71	0x3ab2031c	0.0013581249
72	0x3a15e8d4	0.0005718593
73	0x3b468b97	0.0030295604
74	0x3a26825b	0.0006351822
75	0x3b2e0ddc	0.0026558554
76	0x3abc46fb	0.0014364416
77	0x3a970142	0.0011520761
78	0x3b3a9958	0.0028472748
79	0x3b40145b	0.0029309008
80	0x3ab071cb	0.0013461647
81	0x3b0fc00f	0.0021934544
82	0x3acb9438	0.0015531844
83	0x3b138fde	0.0022516171
84	0x3b2d7a13	0.0026470467
85	0x3b33d484	0.0027439902
86	0x3a9e363e	0.0012070609
87	0x3b2c9b62	0.0026337733
88	0x3a47a07f	0.00076151633
89	0x3b1c7dfe	0.0023878808
90	0x39fc5899	0.00048131196
91	0x3a99ad80	0.0011724681
92	0x3a0cda50	0.0005373107
93	0x3add2c30	0.0016874131
94	0x3a6357e3	0.0008672459
95	0x3ad870d0	0.0016513113
96	0x3a367b22	0.0006961097
97	0x3a8a8f6f	0.0010571311
98	0x3b2b4608	0.0026134271
99	0x3a54785c	0.0008105093

q f4 [1, 100]
0	0x3f4f94d4	0.8108647
1	0x3f17b4d5	0.592603
2	0x3f72b7aa	0.948115
3	0x3f418e92	0.7560817
4	0x3f33328e	0.69999015
5	0x3f4143bd	0.75493985
6	0x3f09e41e	0.53863704
7	0x3f2c655d	0.6734217
8	0x3f67ca5b	0.90543145
9	0x3f185fe8	0.5952134
10	0x00000712	2.536e-42
11	0x3f27e2bd	0.6558035
12	0x3e94e018	0.2907722
13	0x3ee4ee1b	0.4471291
14	0x3ed8fd18	0.42380595
15	0x3f4ee2b2	0.8081466
16	0x3f56046a	0.83600485
17	0x3f4f8606	0.8106388
18	0x3e6a43d3	0.22877435
19	0x3ea2e424	0.31814682
20	0x3e13fc7f	0.14451788
21	0x8000043e	-1.522e-42
22	0xa30a7558	-7.5058435e-18
23	0x3e567100	0.20941544
24	0x3f062e2e	0.52414215
25	0x3f5e0e37	0.8674044
26	0x3ef6fd42	0.48240095
27	0x1396ce4c	3.8068748e-27
28	0x3f388ef3	0.72093123
29	0x3f1a5b6a	0.60295737
30	0x162e9a80	1.410436e-25
31	0x3f5c6a73	0.8609993
32	0x3f0a6df2	0.54074013
33	0x3d54f91f	0.051995393
34	0x3f27ae45	0.6550029
35	0x3f49a207	0.7876286
36	0x3e67f79d	0.2265305
37	0x3f6f0972	0.9337379
38	0x00000807	2.88e-42
39	0x3f2b3858	0.6688285
40	0x3d080801	0.033210758
41	0x3caf6a56	0.02141301
42	0x3f7c3fbe	0.9853476
43	0x3e827089	0.25476483
44	0x3d66409a	0.056213953
45	0x3ebebe59	0.372546
46	0x3eaca7b0	0.33721685
47	0x3f1bb830	0.6082792
48	0x3f6d1cee	0.9262227
49	0x3f64576e	0.8919591
50	0x3f190b96	0.59783304
51	0x3edce5a0	0.4314394
52	0x3e8a2b4e	0.26986164
53	0x3f4d4fe2	0.80200016
54	0x3d09d002	0.033645637
55	0x3e0b889e	0.13626334
56	0x3f9868d3	1.190699
57	0x3e8c7e87	0.27440283
58	0x3d026141	0.03183103
59	0x3f38f757	0.7225241
60	0x3f1dd50a	0.61653197
61	0x3eee1595	0.4650084
62	0x3f30546e	0.6887883
63	0x3eddf66f	0.43352076
64	0x3f882fc5	1.0639578
65	0x3d2efe64	0.042723075
66	0x3f569a31	0.8382903
67	0x3eecbd1e	0.46238035
68	0x3f81e4f3	1.0147995
69	0x3f3ca857	0.73694366
70	0x3e0ff0e5	0.14056738
71	0x3ef35db0	0.47532415
72	0x3f42dbe5	0.7611678
73	0x3f6ba829	0.9205347
74	0x3ebc0b78	0.367275
75	0x3f1f4d81	0.62227637
76	0x3f2e7c7c	0.681587
77	0x3ebfc8a4	0.37457764
78	0x3f3e0c11	0.7423716
79	0x3f30f521	0.6912404
80	0x3e14335a	0.14472714
81	0x3ea9e882	0.33185202
82	0x3f5169a0	0.81801796
83	0x3c52dd40	0.012870133
84	0x3ea309dc	0.3184346
85	0x3ec78700	0.38970184
86	0x3f102d84	0.5631945
87	0x3f24aa25	0.6432212
88	0x3eb3a880	0.35089493
89	0x3ea2a8ce	0.31769413
90	0x3ea0e14e	0.31421894
91	0x3ee5465a	0.44780236
92	0x3dc9fa20	0.09862161
93	0x3f0a284e	0.5396775
94	0x3e101778	0.14071453
95	0x3f3cd689	0.73764855
96	0x3f11891b	0.5684983
97	0x3f5fc6e8	0.8741288
98	0x3ea2ab74	0.31771433
99	0x3f5721f6	0.84036195

z f4 [1, 100]
0	0x3e9838c4	0.2973081
1	0x3eba7002	0.3641358
2	0x3ecd94ee	0.40152687
3	0x3e983f98	0.29736018
4	0x3d3d9d80	0.04629278
5	0x3f3c7151	0.7361041
6	0x3efa569e	0.4889421
7	0x3eb61a1a	0.3556679
8	0x3f095fed	0.53661996
9	0x3e586f1c	0.21136135
10	0x3f29d3ef	0.6633901
11	0x3f3bb7d0	0.7332735
12	0x3e995b1a	0.29952317
13	0x3e6bfc0c	0.23045367
14	0x3d959020	0.0730288
15	0x3f2b164c	0.668309
16	0x3ebbffb6	0.3671853
17	0x3e375270	0.17902541
18	0x3f645758	0.89195776
19	0x3eb0773e	0.34465975
20	0x3ec52062	0.3850127
21	0x3f2d8d46	0.6779369
22	0x3e434138	0.19067848
23	0x3f67fb80	0.90618134
24	0x3f1ac1ef	0.6045217
25	0x3e91678e	0.28399318
26	0x3efac95a	0.48981744
27	0x3f678de1	0.90450865
28	0x3ea71dc2	0.3263989
29	0x3f1ef98a	0.62099516
30	0x3eeb3790	0.45940828
31	0x3d4d3da0	0.0501076
32	0x3ee3b25a	0.4447201
33	0x3f72c57d	0.94832593
34	0x3ed7dc16	0.421601
35	0x3ec14f3e	0.3775577
36	0x3f3d397e	0.7391585
37	0x3f7d24fe	0.9888457
38	0x3f4d5ece	0.80222785
39	0x3e90f1dc	0.28309524
40	0x3e632554	0.22182208
41	0x3d697b70	0.057002485
42	0x3f1e25b9	0.6177631
43	0x3f4dd9cf	0.80410475
44	0x3da3fab0	0.08006799
45	0x3ee0c81e	0.43902677
46	0x3f2d83e1	0.67779356
47	0x3e9fcdac	0.31211603
48	0x3f59a75f	0.85021013
49	0x3e923b08	0.28560662
50	0x3f77643d	0.96637326
51	0x3f0251af	0.5090589
52	0x3f0e7734	0.5565064
53	0x3f2c2b12	0.6725322
54	0x3e5cb760	0.21554327
55	0x3f235c02	0.6381227
56	0x3f7bf275	0.98416835
57	0x3f2fd96b	0.6869113
58	0x3e9e71d6	0.30946225
59	0x3ee6f408	0.45108056
60	0x3f099ff2	0.5375968
61	0x3e92e052	0.28686768
62	0x3edeed0a	0.4354022
63	0x3ee8b9a6	0.4545414
64	0x3e29eebc	0.16594976
65	0x3d9c4008	0.076294005
66	0x3f0175f8	0.5057063
67	0x3e7d5ec8	0.24743187
68	0x3f75c905	0.96009856
69	0x3f596c93	0.84931296
70	0x3e26f604	0.16304785
71	0x3de18bb0	0.110129714
72	0x3f010b2c	0.5040767
73	0x3d8630d0	0.06552279
74	0x3f5fafb2	0.87377465
75	0x3e4c284c	0.19937247
76	0x3f169e57	0.5883536
77	0x3e4fe2a4	0.203013
78	0x3ed04190	0.4067502
79	0x3f185724	0.59507966
80	0x3e120650	0.1426022
81	0x3e8d2fd2	0.27575547
82	0x3e3d89a0	0.18509531
83	0x3f635e16	0.8881544
84	0x3f70ca0e	0.9405831
85	0x3ee7a41a	0.45242387
86	0x3d540540	0.05176282
87	0x39c77800	0.00038045645
88	0x3f0ec34a	0.5576674
89	0x3f47fa25	0.78116065
90	0x3e2350c8	0.15948784
91	0x3f2a49c3	0.665188
92	0x3eda0d38	0.4258821
93	0x3e92b90e	0.2865681
94	0x3f6b020a	0.91799986
95	0x3f67a9a0	0.904932
96	0x3e440e84	0.19146162
97	0x3e4ed9f8	0.20200336
98	0x3ef215e0	0.47282314
99	0x3ddd2938	0.107988775
