checkpoints/single-phase/13bus/safe-ddpg/policy_net_checkpoint_bus8.pth (torch, 3103 bytes, 4 tensors)

b f4 [100]
-0.00011712935 -0.0001266581 -0.00012092447 -0.00011782145 -0.0001192514 -0.00012243756 -0.000121524914 -0.00011712427
-0.0001258793 -0.00013289978 -0.00012303398 -0.00011715895 -0.00012586132 -0.00011729227 -0.00012181122 -0.00012045149
-0.00011713839 -0.00011811059 -0.00011879419 -0.00013518978 -0.00012847014 -0.00011772969 -0.00011786666 -0.000117231844
-0.00011733825 -0.000117590855 -0.00011750978 -0.00012268077 -0.00012170814 -0.00011731473 -0.00012493815 -0.00012164398
-0.00011853829 -0.00011756772 -0.000119215714 -0.00012429523 -0.00012309683 -0.00011789659 -0.000118942604 -0.00011959484
-0.00011870079 -0.00012617517 -0.000117614625 -0.000118574964 -0.00011723396 -0.00013114662 -0.00011715338 -0.00012145551
-0.00011965013 -0.000117124844 -0.0001318731 -0.00011775434 -0.0001174924 -0.0001177741 -0.00011724481 -0.00012362559
-0.0001190856 -0.00012740924 -0.00011718638 -0.00012302422 -0.000121377154 -0.00012195987 -0.00012361775 -0.0001171236
-0.00011712597 -0.00011928768 -0.000117636824 -0.000117974276 -0.0001446775 -0.00012872911 -0.00012603446 -0.00012737949
-0.0001186493 -0.00013465104 -0.00011752059 -0.000119287295 -0.00011988716 -0.00012321923 -0.00013485135 -0.00011919335
-0.000119047385 -0.00011940088 0.052685738 -0.000121195924 -0.00012372312 -0.00013676577 -0.00012116135 -0.00012277634
-0.00012125092 -0.00012450764 -0.00012869074 -0.00012529825 -0.000121151264 -0.00012484383 0.060288366 -3.4938577e-05
0.03496283 0.0012860697 0.0007683068 2.777745e-06
00000000: 57a3 f5b8 86cf 04b9 d598 fdb8 e916 f7b8
00000010: 9c16 fab8 9562 00b9 31db feb8 9da0 f5b8
00000020: 78fe 03b9 035b 0bb9 af02 01b9 3bb3 f5b8
00000030: a4f9 03b9 cffa f5b8 e774 ffb8 e79a fcb8
00000040: 32a8 f5b8 24b2 f7b8 2521 f9b8 bbc1 0db9
00000050: f1b5 06b9 a5e5 f6b8 2e2f f7b8 5eda f5b8
00000060: 7e13 f6b8 1c9b f6b8 956f f6b8 dea3 00b9
00000070: 8f3d ffb8 de06 f6b8 d401 03b9 1d1b ffb8
00000080: c397 f8b8 b08e f6b8 7303 fab8 3f55 02b9
00000090: 8e13 01b9 403f f7b8 d370 f9b8 fece fab8
000000a0: 00ef f8b8 e44d 04b9 dfa7 f6b8 73ab f8b8
000000b0: 81db f5b8 6784 09b9 3eb0 f5b8 eeb5 feb8
000000c0: adec fab8 eca0 f5b8 6a47 0ab9 e1f2 f6b8
000000d0: 4066 f6b8 7dfd f6b8 54e1 f5b8 7ea1 01b9
000000e0: 98bd f9b8 2899 05b9 f5c1 f5b8 1000 01b9
000000f0: dd8b feb8 b5c4 ffb8 639f 01b9 41a0 f5b8
00000100: 87a1 f5b8 162a fab8 cab3 f6b8 f568 f7b8
00000110: 92b4 17b9 75fb 06b9 1e28 04b9 2c91 05b9
00000120: 5cd3 f8b8 1d31 0db9 6375 f6b8 e129 fab8
00000130: ee6b fbb8 6934 01b9 e266 0db9 71f7 f9b8
00000140: 14a9 f9b8 dc66 fab8 00cd 573d 912a feb8
00000150: acbb 01b9 c868 0fb9 0118 feb8 86bd 00b9
00000160: 1848 feb8 448e 02b9 28f1 06b9 7e62 03b9
00000170: 9712 feb8 83e8 02b9 eff0 763d 038b 12b8
00000180: 2f35 0f3d 5791 a83a 3268 493a 4c69 3a36

c f4 [100]
0.0022237282 0.0026996634 0.00015963239 0.0018689361 0.0018934049 0.0010288948 0.002029595 0.0006933066
0.0023858373 0.0010529996 5.0614944e-05 0.00046015612 0.001850475 0.0005535244 0.0008931022 0.0018716931
0.0019197398 0.0025772285 0.0027080588 0.0013855536 0.00088453636 0.002910055 0.00020578173 0.0022198071
0.00014065196 0.0005970838 0.0022982454 0.0017072922 0.000655699 0.002362157 0.0011964863 0.0022806043
0.0018045059 0.002373496 0.00016612544 0.0004922694 0.0023554235 0.00073887646 0.0027453024 0.0008386888
0.0014363718 0.0027190694 0.001670188 0.0010358229 0.0025350577 0.0024464799 0.00046201795 0.0009829104
0.0025191535 0.00089224026 0.00047255607 0.0024049026 0.001118672 0.0017965584 0.0015466815 0.0022159629
0.0014389625 0.001231941 0.00045486473 0.00020619399 0.0011142294 0.0026065223 0.0018032952 0.0012060506
0.00042955132 0.0024713138 0.0014222601 0.0003596255 0.0021253664 0.0022428692 0.0011721627 0.0015479586
0.0025491752 0.0004225183 0.0005719102 0.0006622728 0.0029047024 0.0010889635 0.0027624806 0.0023040893
0.0009218148 0.0026892424 0.002211222 0.002625941 0.0009201149 0.0008784952 0.0022392205 0.0014486412
0.0016488627 0.0005179463 0.0018287009 0.0013494273 0.002815449 0.00083764654 0.00020062721 0.0018623784
0.00096629595 0.0018056122 0.0007419139 0.00085729064
00000000: f8bb 113b d6ec 303b fe62 2739 17f7 f43a
00000010: 202c f83a fbdb 863a f402 053b 05bf 353a
00000020: b55b 1c3b ce04 8a3a 624b 5438 1c41 f139
00000030: a38b f23a 651a 113a 131f 6a3a 9953 f53a
00000040: c79f fb3a b8e6 283b b079 313b 779b b53a
00000050: 3be0 673a 9fb6 3e3b 1dc7 5739 2f7a 113b
00000060: f97b 1339 9e85 1c3a 299e 163b 38c7 df3a
00000070: 37e3 2b3a 6bce 1a3b 6bd3 9c3a 3176 153b
00000080: 2c85 ec3a a88c 1b3b f531 2e39 a40b 013a
00000090: 735d 1a3b 29b1 413a 88ea 333b 74db 5b3a
000000a0: a444 bc3a 6a32 323b 36ea da3a 73c4 873a
000000b0: 3623 263b 1f55 203b 003b f239 00d5 803a
000000c0: 6218 253b 3be5 693a 67c1 f739 929b 1d3b
000000d0: 67a0 923a 7f7a eb3a 05ba ca3a b039 113b
000000e0: 929b bc3a 1579 a13a e97a ee39 c735 5839
000000f0: 560b 923a 30d2 2a3b 8c5c ec3a 5814 9e3a
00000100: 6735 e139 c4f5 213b 216b ba3a 1e8c bc39
00000110: bb49 0b3b 1afd 123b 41a3 993a dfe4 ca3a
00000120: 1010 273b 7285 dd39 3eec 153a 609c 2d3a
00000130: d25c 3e3b 8dbb 8e3a bc0a 353b 3400 173b
00000140: f2a5 713a 003e 303b 26ea 103b fb17 2c3b
00000150: de33 713a d14a 663a e3bf 123b 55e0 bd3a
00000160: a71e d83a cac6 073a 05b1 ef3a 44df b03a
00000170: 6583 383b 8295 5b3a 755f 5239 0d1b f43a
00000180: 064f 7d3a 4baa ec3a 007d 423a cdbb 603a

q f4 [1, 100]
0.023754248 0.77779317 0.55117065 0.2548079 0.42899522 0.6304355 0.585188 0.00862118
0.755992 0.9044945 0.6566221 0.058371756 0.75546414 0.1270955 0.600143 0.52135533
0.037952635 0.30074897 0.384468 0.9371031 0.82219267 0.23804186 0.26263684 0.10198797
0.14317586 0.20979252 0.19113533 0.64140433 0.59484696 0.13521309 0.7269585 0.59150213
0.35610425 0.2046791 0.4257664 0.7051466 0.65924877 0.26765785 0.39970812 0.45847422
0.37444723 0.7644966 0.21493182 0.3603451 0.102984816 0.87548375 0.053713422 0.58144826
0.46295777 0.011508321 0.8879889 0.24268535 0.18689188 0.24632202 0.10789884 0.6804296
0.4136409 0.79718095 0.07781286 0.65621215 0.5771741 0.60761976 0.68012565 0.0027607055
0.015541142 0.43225938 0.21960184 0.2802044 1.0316076 0.82792246 0.7604857 0.7964411
0.36877793 0.92989963 0.1937693 0.4322256 0.48144925 0.6642925 0.9326101 0.4237098
0.40998688 0.44219926 1.4214904 0.054284304 0.39262417 0.79830104 0.025745712 0.31757402
0.08097098 0.44231352 0.6191268 0.48497823 0.00017981092 0.46122742 1.4536489 0.4162012
0.7772604 0.517352 0.435903 0.8896139
00000000: 4598 c23c 741d 473f 8519 0d3f 2e76 823e
00000010: 43a5 db3e 3964 213f e1ce 153f da3f 0d3c
00000020: b188 413f f48c 673f 6318 283f 3917 6f3d
00000030: 1966 413f 5325 023e f9a2 193f 8b77 053f
00000040: 3974 1b3d c5fb 993e fdd8 c43e fde5 6f3f
00000050: 387b 523f 3fc1 733e 5678 863e 12df d03d
00000060: b19c 123e dad3 563e fbb8 433e 1333 243f
00000070: e447 183f 4d75 0a3e f419 3a3f af6c 173f
00000080: 4c53 b63e 6697 513e 0efe d93e 7d84 343f
00000090: 87c4 283f 730a 893e 8ba6 cc3e 22bd ea3e
000000a0: 8cb7 bf3e 0db6 433f 1617 5c3e 277f b83e
000000b0: b4e9 d23d b41f 603f 9b02 5c3d cbd9 143f
000000c0: cd08 ed3e 668d 3c3c 3e53 633f 8282 783e
000000d0: 9660 3f3e d73b 7c3e 11fa dc3d a230 2e3f
000000e0: bdc8 d33e 0d14 4c3f 595c 9f3d 85fd 273f
000000f0: afc1 133f f88c 1b3f b71c 2e3f f4ec 343b
00000100: 46a0 7e3c 1a51 dd3e 4edf 603e f376 8f3e
00000110: b80b 843f baf2 533f 31af 423f 90e3 4b3f
00000120: 76d0 bc3e e70d 6e3f 766b 463e ad4c dd3e
00000130: 8480 f63e 130f 2a3f 89bf 6e3f 7ef0 d83e
00000140: cde9 d13e f167 e23e 66f3 b53f 3859 5e3d
00000150: 0906 c93e 755d 4c3f ace8 d23c 1099 a23e
00000160: 1dd4 a53d eb76 e23e 187f 1e3f 114f f83e
00000170: a08b 3c39 0026 ec3e 2b11 ba3f 5318 d53e
00000180: 8afa 463f 2e71 043f ae2e df3e bdbd 633f

z f4 [1, 100]
0.7383907 0.44664437 0.2689308 0.34528333 0.2129525 0.7598878 0.479249 0.6248946
0.2334798 0.79002476 0.44169843 0.62068236 0.70580274 0.41133225 0.4040742 0.36035645
0.5510624 0.5084914 0.6246341 0.009165049 0.87302923 0.3664837 0.664699 0.09470528
0.14414287 0.37004983 0.60891676 0.9247841 0.6330284 0.7667099 0.2849226 0.3150983
0.37696153 0.31927836 0.69366014 0.35542917 0.11375636 0.42243975 0.36247903 0.42537278
0.5407367 0.9405259 0.85736096 0.13536936 0.85049856 0.415182 0.1265595 0.2185139
0.727086 0.5289221 0.10983509 0.5871725 0.3050416 0.8921664 0.3589394 0.18953001
0.98265195 0.8268153 0.8170095 0.30784523 0.6367465 0.18149686 0.6930846 0.4752646
0.38511515 0.26249045 0.19704193 0.05466503 0.28528607 0.34659195 0.46179527 0.764685
0.42416203 0.8450843 0.051974952 0.66383606 0.69588435 0.7470553 0.9666081 0.16512829
0.67268175 0.7935718 0.7336772 0.8923306 0.35152453 0.3281113 0.38649786 0.9151581
0.29067189 0.68834305 0.20127547 0.44452304 0.35662752 0.0092660785 0.65689725 0.9412518
0.7901821 0.47196406 0.5097522 0.8172214
00000000: 2c07 3d3f 92ae e43e 4cb1 893e fac8 b03e
00000010: 3810 5a3e 0288 423f 2060 f53e 18f9 1f3f
00000020: 5415 6f3e 103f 4a3f 4c26 e23e 0ae5 1e3f
00000030: 7daf 343f 249a d23e d0e2 ce3e a480 b83e
00000040: 6d12 0d3f 7e2c 023f 05e8 1f3f 0029 163c
00000050: d87e 5f3f c0a3 bb3e b729 2a3f d8f4 c13d
00000060: 309a 133e 2c77 bd3e f8e1 1b3f a7be 6c3f
00000070: 260e 223f 1a47 443f 60e1 913e 9054 a13e
00000080: 1a01 c13e 7478 a33e b693 313f d0fa b53e
00000090: 18f9 e83d 064a d83e da96 b93e 76ca d93e
000000a0: b86d 0a3f 4ec6 703f 027c 5b3f 449e 0a3e
000000b0: 46ba 593f bc92 d43e d098 013e 1cc2 5f3e
000000c0: 4f22 3a3f 7067 073f 38f1 e03d f050 163f
000000d0: 6a2e 9c3e 0465 643f e8c6 b73e 2814 423e
000000e0: 148f 7b3f 2baa 533f 8927 513f e49d 9d3e
000000f0: d201 233f 50da 393e fe6d 313f e255 f33e
00000100: d02d c53e 2665 863e 5cc5 493e 70e8 5f3d
00000110: 0411 923e 8074 b13e 6e70 ec3e 65c2 433f
00000120: c42b d93e 7257 583f b0e3 543d 29f1 293f
00000130: 7a25 323f 043f 3f3f a173 773f 6417 293e
00000140: df34 2c3f 8627 4b3f 45d2 3b3f c76f 643f
00000150: 06fb b33e 34fe a73e 0ce3 c53e cd47 6a3f
00000160: f2d2 943e 4037 303f 281b 4e3e 8698 e33e
00000170: e297 b63e c0d0 173c 6b2a 283f e1f5 703f
00000180: 6049 4a3f 46a5 f13e 1f7f 023f 6c35 513f
