checkpoints/three-phase/13bus3p/safe-ddpg/three_single/policy_net_checkpoint_a4.pth (torch, 5839 bytes, 8 tensors)

policy_b.b f4 [100]
000000 bc 04 fb b8 b6 ab fd b8 bc 34 fd b8 90 d7 fc b8
       -0.000119694945 -0.00012095964 -0.00012073803 -0.00012056448
000010 f0 1d fb b8 37 ad fa b8 2a 98 01 b9 f6 af fe b8
       -0.00011974189 -0.00011953193 -0.00012359084 -0.00012144439
000020 9a 1a fe b8 2b b1 fa b8 2e 87 fd b8 1d 80 fd b8
       -0.00012116619 -0.00011953929 -0.00012089159 -0.00012087843
000030 f9 a6 fa b8 2c 18 fc b8 f5 2c ff b8 5f de fa b8
       -0.0001195203 -0.00012020799 -0.000121677214 -0.00011962349
000040 d6 a8 00 b9 2b df fb b8 b0 39 e8 3d 3c c0 4b b8
       -0.00012269928 -0.00012010181 0.11339128 -4.8578004e-05
000050 4d 2f 4a b8 09 02 4a b8 fe 47 4c b8 af 1f 4f b8
       -4.8204605e-05 -4.816245e-05 -4.8704438e-05 -4.9382154e-05
000060 6b aa 49 b8 e6 53 4a b8 5b a0 4e b8 83 07 4a b8
       -4.808085e-05 -4.823869e-05 -4.926357e-05 -4.816755e-05
000070 6a eb 49 b8 36 6b 4c b8 e1 12 52 b8 5f 2d 4b b8
       -4.814138e-05 -4.8737238e-05 -5.0085484e-05 -4.8441227e-05
000080 fc 45 4f b8 af cd 49 b8 4d 2e 4a b8 b8 a5 49 b8
       -4.9417824e-05 -4.8113692e-05 -4.8203674e-05 -4.8076472e-05
000090 86 79 03 3d 97 2f 92 b8 2b d4 98 b8 ba 4f 93 b8
       0.032098316 -6.970687e-05 -7.287444e-05 -7.0243565e-05
0000a0 ab 0d 34 b8 a3 e9 e7 b8 38 33 e0 b8 60 5c ee b8
       -4.2928074e-05 -0.000110584566 -0.000106906926 -0.000113659305
0000b0 ff 64 ed b8 83 fa f1 b8 54 8d f2 b8 d8 c4 f2 b8
       -0.00011319853 -0.00011538437 -0.00011565784 -0.00011576124
0000c0 4b 67 8b b8 e5 e3 2b 3b 9a d1 fd 39 83 bb 0a 3a
       -6.647276e-05 0.0026228365 0.00048412086 0.00052922237
0000d0 00 00 00 80 00 00 00 80 00 00 00 80 00 00 00 80
       -0.0 -0.0 -0.0 -0.0
0000e0 00 00 00 80 b7 a8 8b 39 0d 0c c5 39 00 00 00 00
       -0.0 0.00026637848 0.00037583747 0.0
0000f0 00 00 00 00 00 00 00 00 00 00 00 00 00 00 00 00
       0.0 0.0 0.0 0.0
000100 00 00 00 00 00 00 00 00 00 00 00 00 00 00 00 00
       0.0 0.0 0.0 0.0
000110 00 00 00 00 00 00 00 00 00 00 00 00 00 00 00 00
       0.0 0.0 0.0 0.0
000120 00 00 00 00 00 00 00 00 d7 5c 0b 38 00 00 00 00
       0.0 0.0 3.3226646e-05 0.0
000130 00 00 00 00 00 00 00 00 00 00 00 00 00 00 00 00
       0.0 0.0 0.0 0.0
000140 00 00 00 00 00 00 00 00 00 00 00 00 00 00 00 00
       0.0 0.0 0.0 0.0
000150 00 00 00 00 00 00 00 00 00 00 00 00 00 00 00 00
       0.0 0.0 0.0 0.0
000160 00 00 00 00 00 00 00 00 00 00 00 00 dc 04 81 39
       0.0 0.0 0.0 0.00024608418
000170 00 00 00 00 00 00 00 00 b3 e6 21 38 00 00 00 00
       0.0 0.0 3.8600247e-05 0.0
000180 a8 b2 5c 37 8f 71 6d 36 fa 26 e7 35 ac 94 30 36
       1.31546185e-05 3.5381852e-06 1.7222185e-06 2.6312582e-06

policy_b.c f4 [100]
000000 c2 23 41 3b fb a9 34 3b 96 95 08 3b 9f 79 79 3a
       0.0029470776 0.0027567137 0.0020841113 0.0009516719
000010 fa b3 1c 3b cd 01 ce 3a ac 45 37 3b 00 a5 31 3b
       0.0023910985 0.0015717089 0.0027965112 0.0027106404
000020 cf 98 0c 3b 68 f8 aa 38 7b a9 05 3b da bd 04 3b
       0.0021453386 8.152501e-05 0.0020395208 0.0020254762
000030 f1 0c ad 3a 3a 77 37 3a 97 b1 af 3a e1 69 7b 3a
       0.0013202709 0.0006998662 0.0013404366 0.00095906673
000040 67 23 33 3b c1 1b 3f 3a 41 d7 14 3b 1d 4e e8 3a
       0.0027334334 0.00072902074 0.002271131 0.0017723475
000050 fc e3 2e 39 9c ac e1 37 99 f0 55 3a 38 96 32 3b
       0.00016678864 2.6902468e-05 0.0008161157 0.0027250182
000060 0f ed 3a 3b 7a 34 8d 3a 1c 3d 43 3b 16 90 23 3a
       0.0028522646 0.0010773086 0.0029791063 0.0006239427
000070 12 a3 d0 3a df 79 e3 3a cd 4c a3 3a fc a2 24 3b
       0.0015917739 0.0017355046 0.0012458802 0.002512156
000080 53 f8 53 39 ee d1 09 3b 19 17 06 3b eb aa 44 3b
       0.00020215036 0.002102967 0.0020460545 0.0030009102
000090 62 53 00 3a 88 aa 5c 3a 4e 11 0d 3b c4 f0 19 3b
       0.00048952375 0.0008417745 0.0021525207 0.0023489455
0000a0 b0 16 3b 3b d3 53 65 39 44 3e 1e 3a 8a 51 0d 3b
       0.0028547458 0.00021870369 0.00060365 0.0021563494
0000b0 6d b3 01 3a 3d 9e 0d 3b 30 09 28 3b f8 39 73 39
       0.0004947696 0.002160921 0.0025640242 0.00023195881
0000c0 1c d0 22 3b c8 9a e5 3a 94 1e f6 39 0c 86 a1 3a
       0.002484328 0.0017517442 0.0004694356 0.0012323274
0000d0 21 2a 9e 38 2f 78 97 3a 4d af 81 3a 58 60 eb 39
       7.541874e-05 0.0011556203 0.0009894163 0.00044894475
0000e0 f5 fa f8 3a 7f 9f 0c 3a 49 25 be 3a 69 2b 2f 3b
       0.001899569 0.0005364343 0.0014506961 0.0026728755
0000f0 14 fd 41 3b 85 c8 11 3b 4c d4 00 3b 39 74 2e 3a
       0.002960031 0.0022244763 0.0019657789 0.0006654892
000100 8b aa c7 39 b4 a8 2e 3b ec 22 33 3b 54 58 9b 3a
       0.00038083302 0.0026650848 0.0027334047 0.0011851885
000110 99 50 09 3b a9 01 ee 3a 9a 94 b2 3a 09 f2 29 39
       0.002095258 0.0018158454 0.0013624609 0.00016207261
000120 c4 c2 8d 3a bb 97 2b 3a 83 46 d0 3a 2a 27 44 3b
       0.0010815491 0.0006545742 0.0015890155 0.002993057
000130 15 b3 d6 39 e6 c0 59 39 bc 83 dc 3a a4 19 34 3b
       0.00040950687 0.00020766593 0.0016823928 0.0027481103
000140 61 c2 05 3b 71 5e 80 3a f4 fd 84 3a 44 01 7a 3a
       0.0020410048 0.0009793771 0.0010146485 0.0009536932
000150 74 ce 17 3b 5a f6 5a 39 31 7d 88 3a 58 a1 8a 3a
       0.0023163827 0.00020881873 0.0010413287 0.0010576649
000160 07 e2 fb 3a eb 8c 99 39 9c a9 56 3a a2 bb e1 3a
       0.0019217142 0.00029287426 0.0008188726 0.0017222057
000170 03 46 16 39 58 26 1a 3a 0b cb ef 3a d6 76 67 3a
       0.00014331196 0.00058803475 0.0018294764 0.00088296586
000180 77 26 ed 3a 6d d6 dc 39 cd 61 ed 3a 64 4e 13 3b
       0.0018093128 0.0004212143 0.0018110812 0.0022477144

policy_b.q f4 [1, 100]
000000 5c 68 77 3e 1d 11 25 3f 3c 58 19 3f 08 24 0f 3f
       0.24160904 0.6447924 0.5990026 0.55914354
000010 e6 80 8a 3e a2 eb 9d 3d 54 a2 7a 3f cd ef 3a 3f
       0.27051467 0.07710959 0.97903943 0.73022157
000020 b5 ef 2e 3f aa 5e bb 3d 41 9b 21 3f b9 ec 20 3f
       0.68334514 0.09148915 0.63127524 0.6286121
000030 d5 da 3e 3d 6f 70 ec 3e 41 08 44 3f 82 3c 41 3e
       0.046595413 0.4617953 0.76575094 0.18870738
000040 ca b6 64 3f 6c a9 da 3e 27 e0 f0 3f 35 3f 18 3f
       0.89341414 0.42707384 1.8818406 0.59471446
000050 6c 8b a4 3e d1 4d 88 3e d1 12 27 3f 14 cd 5b 3f
       0.3213762 0.2662187 0.65263087 0.858598
000060 eb 26 95 3d 2a c3 b7 3e 09 b4 54 3f 0d 16 8c 3e
       0.07282814 0.35891086 0.8308721 0.27360573
000070 1c 97 6e 3e ac 89 2a 3f 41 e3 7b 3f bd c0 04 3f
       0.23299831 0.6661632 0.98393637 0.51856595
000080 b9 cf 5d 3f ac ae 37 3e 13 fe a3 3e 06 27 28 3d
       0.86645085 0.17937726 0.3202978 0.04105284
000090 ff bd c2 3f 31 98 cd 3c 1a 5f 00 3f e6 a0 65 3e
       1.5214232 0.025096985 0.50145113 0.22424659
0000a0 61 32 89 3f bc aa 55 3f c6 99 5f 3f 1c f1 85 3e
       1.07185 0.83463645 0.87344015 0.26160514
0000b0 84 9d cb 3d 96 bc 05 3f 45 7e 0e 3f 1e e6 11 3f
       0.09942153 0.52240884 0.5566142 0.56991756
0000c0 b5 57 86 3f 75 ef 93 3f 75 71 d4 3d 61 73 8d 3d
       1.0495516 1.1557451 0.10373203 0.069067724
0000d0 8e ef c3 3e 9b 36 40 3f cd 74 c0 3e 1a 7b b3 3e
       0.38268703 0.7508332 0.37589112 0.35054857
0000e0 08 44 43 3f 82 c1 6a 3e 78 5a 8e 3f ed ef a6 3d
       0.7627568 0.2292538 1.1121359 0.08151231
0000f0 e7 d4 35 3f 97 8d ba 3d c2 89 64 3f 77 d2 80 3e
       0.7102799 0.09109037 0.892727 0.25160572
000100 e2 68 5d 3f 63 2a 84 3e de 4a 42 3f bc b7 34 3e
       0.86488163 0.25813589 0.7589549 0.17648214
000110 75 73 33 3f d1 f8 a2 3e 58 25 4e 3d 24 5c 43 3f
       0.7009805 0.31830457 0.050328583 0.7631247
000120 98 c9 df 3e 09 a5 27 3e 18 7b 86 3f 6f c8 79 3e
       0.4370849 0.1637155 1.0506315 0.24392866
000130 a5 c0 4e 3e da d3 e2 3c 8a 68 73 3f 48 ca 70 3f
       0.20190676 0.02768891 0.9508139 0.94058657
000140 3d 3b 29 3e 0e 53 02 3e 8e 0c 5b 3e 96 9e 9d 3e
       0.16526504 0.12726995 0.21391508 0.30785054
000150 5f 09 e3 3e f8 0a 6e 3e a2 c4 cd 3e 31 da ed 3e
       0.44343087 0.23246372 0.4018908 0.4645553
000160 23 cc 79 3f 0e 1a 66 3f c9 22 f0 3e 7e 56 8b 3f
       0.9757711 0.89883506 0.4690154 1.088577
000170 5d 69 9b 3e 7c 0c e1 3e 52 e2 2f 3f d0 dd 01 3f
       0.30353823 0.43954837 0.6870471 0.50729084
000180 5c a0 21 3f f3 0c 9f 3e 5a 4d 9a 3e 6a 7e 2b 3f
       0.63135314 0.31064567 0.3013714 0.6698977

policy_b.z f4 [1, 100]
000000 87 10 16 3f a4 a9 b9 3e 60 8d 46 3e 60 44 0e 3f
       0.5861897 0.36262238 0.19389868 0.5557308
000010 bd 75 14 3f b9 d8 62 3f c7 5b 46 3f c2 a2 19 3f
       0.57992154 0.8861194 0.7748379 0.60013974
000020 94 6a 49 3f c0 af 6e 3c d5 29 7a 3f ca a5 eb 3e
       0.7867825 0.014568269 0.9772008 0.46024925
000030 26 f4 7a 3f 00 dc d5 3b 16 df 82 3e e2 ad 37 3f
       0.9802879 0.00652647 0.25560826 0.717497
000040 b1 b7 17 3f f4 bf da 3e 76 54 d7 3e 48 ed f4 3e
       0.59264666 0.42724574 0.42056626 0.4783728
000050 c0 9b 9d 3c 2a cb ba 3e 90 93 13 3f 66 96 61 3f
       0.019239306 0.36483127 0.5764704 0.88120115
000060 2e 45 da 3e ce 5c 62 3f 2b 56 24 3f e0 ac 49 3e
       0.42630905 0.8842286 0.6419398 0.19694853
000070 1a 84 6d 3f 78 9c 01 3e 6c f3 52 3e e4 09 70 3e
       0.92779696 0.12657344 0.2060067 0.23441273
000080 74 cc 72 3e 8c c3 f6 3e 90 f5 40 3d bd 6d 36 3f
       0.23710805 0.48196065 0.047109187 0.712612
000090 70 cd da 3d fa 1b 69 3f 16 6e e4 3e 99 c3 63 3f
       0.10683715 0.91058314 0.4461524 0.88970333
0000a0 0a fb 2d 3f ca f5 64 3f e4 63 fb 3e 8f ce 68 3f
       0.6796118 0.89437544 0.49099648 0.90940183
0000b0 cd 46 7f 3f 46 70 dc 3e 7b 3f 0b 3f 7a 0b ba 3e
       0.9971741 0.43054408 0.5439374 0.3633688
0000c0 69 fb 1b 3f 65 f6 66 3f 8c 5e 75 3f f3 fc 5e 3f
       0.60930496 0.9021972 0.9584739 0.8710472
0000d0 c9 2d 2c 3f 82 40 b0 3e 4c 76 a1 3e 6e b9 e9 3e
       0.6725736 0.34424216 0.31535566 0.45649284
0000e0 d6 9d 40 3f 18 c6 91 3d 84 7a f0 3e be f0 78 3f
       0.7524084 0.071178615 0.46968472 0.97242343
0000f0 54 f1 17 3f 97 50 63 3f b0 22 38 3e 39 49 67 3f
       0.5935261 0.88794845 0.17981982 0.90346104
000100 ba a0 a0 3e 18 04 dd 3d 6e 90 19 3f d6 6a ef 3e
       0.31372625 0.107917964 0.5998601 0.46761197
000110 f2 1a c9 3e a0 01 7d 3f 28 d3 b3 3d 5a b4 c0 3e
       0.3927837 0.98830605 0.08780509 0.37637597
000120 87 e6 04 3f 12 df 10 3f 02 99 cf 3e 96 c4 18 3f
       0.51914257 0.5659038 0.40546423 0.59674966
000130 d7 49 4b 3f e6 28 2d 3f 1a 00 b1 3e 9e 1e 84 3e
       0.79409546 0.6764053 0.3457039 0.2580461
000140 5e a8 33 3f 3e d9 40 3f d0 d0 da 3d 15 2d 19 3f
       0.7017878 0.75331485 0.10684359 0.59834415
000150 14 0d 39 3f 92 c4 42 3f c8 e3 2e 3e 0c b4 5e 3e
       0.7228558 0.7608119 0.17079079 0.2174837
000160 43 b0 18 3f e2 02 cc 3e 8d f5 6e 3f 3c 8b 04 3e
       0.59643954 0.3984595 0.9334343 0.12943739
000170 9a 6d 20 3f f5 b2 13 3f be 04 f2 3e c9 ea 4e 3f
       0.6266724 0.5769494 0.47269243 0.80827004
000180 9c 11 18 3e 0a 39 65 3f 58 bc 4d 3f fe 68 57 3f
       0.14850467 0.8954016 0.80365515 0.8414458

policy_c.b f4 [100]
000000 f7 7c d6 3d 8c 32 00 3d 00 00 00 80 00 00 00 80
       0.10473054 0.031298205 -0.0 -0.0
000010 00 00 00 80 00 00 00 80 00 00 00 80 00 00 00 80
       -0.0 -0.0 -0.0 -0.0
000020 00 00 00 80 00 00 00 80 00 00 00 80 00 00 00 80
       -0.0 -0.0 -0.0 -0.0
000030 00 00 00 80 00 00 00 80 00 00 00 80 00 00 00 80
       -0.0 -0.0 -0.0 -0.0
000040 00 00 00 80 93 3a df 3b 00 00 00 80 00 00 00 80
       -0.0 0.0068124025 -0.0 -0.0
000050 00 00 00 80 00 00 00 80 00 00 00 80 00 00 00 80
       -0.0 -0.0 -0.0 -0.0
000060 00 00 00 80 00 00 00 80 00 00 00 80 00 00 00 80
       -0.0 -0.0 -0.0 -0.0
000070 00 00 00 80 00 00 00 80 00 00 00 80 00 00 00 80
       -0.0 -0.0 -0.0 -0.0
000080 00 00 00 80 00 00 00 80 00 00 00 80 00 00 00 80
       -0.0 -0.0 -0.0 -0.0
000090 00 00 00 80 50 81 b7 3a 7a db bb 3a 00 00 00 00
       -0.0 0.001400033 0.0014332377 0.0
0000a0 00 00 00 00 00 00 00 00 00 00 00 00 00 00 00 00
       0.0 0.0 0.0 0.0
0000b0 00 00 00 00 00 00 00 00 00 00 00 00 00 00 00 00
       0.0 0.0 0.0 0.0
0000c0 00 00 00 00 00 00 00 00 00 00 00 00 00 00 00 00
       0.0 0.0 0.0 0.0
0000d0 00 00 00 00 00 00 00 00 00 00 00 00 00 00 00 00
       0.0 0.0 0.0 0.0
0000e0 00 00 00 00 00 00 00 00 00 00 00 00 00 00 00 00
       0.0 0.0 0.0 0.0
0000f0 00 00 00 00 00 00 00 00 f6 1e 9a 3a e5 0e 0f 3a
       0.0 0.0 0.0011758495 0.00054572365
000100 83 7a c3 39 3a f0 28 38 b5 e3 7a 39 3d 42 0b 39
       0.00037284577 4.027805e-05 0.00023926685 0.00013280749
000110 b7 16 d1 38 fe 8e de 38 ed 99 a7 38 76 45 a0 38
       9.9701276e-05 0.00010612419 7.9918515e-05 7.642333e-05
000120 8d e9 17 38 fa c8 35 37 e4 37 38 38 72 7a d2 38
       3.6218717e-05 1.0835234e-05 4.392107e-05 0.000100363875
000130 8f 86 1c 38 d3 97 b0 36 6b b6 37 38 d9 5d ca 38
       3.7318616e-05 5.2628834e-06 4.380049e-05 9.649591e-05
000140 af af dd 38 4f f3 ab 38 30 ec 57 38 b3 06 da 38
       0.00010570825 8.199235e-05 5.147996e-05 0.00010396298
000150 8a 47 8b 38 c6 c1 22 38 17 35 89 38 8f 00 96 38
       6.641362e-05 3.8804275e-05 6.542558e-05 7.1526614e-05
000160 60 97 a3 37 a4 6c 20 37 ae 55 c0 38 24 15 45 38
       1.9501604e-05 9.562038e-06 9.1712325e-05 4.698815e-05
000170 08 75 a2 38 64 78 84 38 14 6a 7c 35 ec 10 0c 37
       7.746561e-05 6.316675e-05 9.403168e-07 8.34859e-06
000180 67 0a 02 38 e9 0e a8 38 ba e3 ce 38 f8 af 18 38
       3.1004103e-05 8.0136415e-05 9.865263e-05 3.6403508e-05

policy_c.c f4 [100]
000000 c0 de 10 3b a2 63 41 3b 05 e7 51 3a a2 61 d6 39
       0.0022105426 0.0029508849 0.0008007142 0.00040890003
000010 58 92 45 3b 72 4e c5 39 8c 54 b3 39 dc ea b6 3a
       0.0030147042 0.00037633214 0.00034204533 0.0013955492
000020 fb 89 41 3a 9b dd 68 3a c5 01 01 3b 6a fd 0b 3b
       0.00073829264 0.00088831194 0.0019684893 0.0021360763
000030 48 4a 0d 3b c1 b1 0c 3b b3 01 41 3a 5d 78 d8 3a
       0.0021559168 0.0021468254 0.0007362619 0.0016515363
000040 52 38 67 39 c2 3f ad 3a e2 8a 41 3b 22 82 35 3b
       0.00022050858 0.0013217854 0.0029532243 0.0027695973
000050 f7 2e ee 3a 14 06 16 3b 5e c1 25 3a 0c 9d 17 3b
       0.0018171956 0.0022891806 0.00063230644 0.0023134379
000060 40 e3 25 3b 15 32 2c 3b a6 04 be 3a e6 28 d1 3a
       0.0025312454 0.0026274968 0.0014497235 0.0015957623
000070 18 59 0d 39 0f 67 d2 3a 4c a5 14 3b 58 63 98 39
       0.00013479998 0.0016052442 0.0022681532 0.00029065716
000080 a5 51 43 3a 0e 34 d9 3a a4 7b 93 3a d4 4a b8 3a
       0.00074508257 0.00165713 0.0011252058 0.0014060386
000090 45 3e d2 3a 34 ce 6c 3a 4a ea be 39 4b ae 63 3a
       0.0016040286 0.0009033412 0.00036414183 0.00086853345
0000a0 9d 38 31 3b 56 b0 9d 3a 8c fc e2 3a 1b ae c7 3a
       0.00270418 0.0012030702 0.0017317696 0.0015234383
0000b0 cb 1c 5f 3a f0 fb 32 3b 43 34 b4 3a e4 ee 3e 3b
       0.00085110654 0.002731081 0.0013748485 0.002913409
0000c0 8e 3b 28 3b 2f 13 52 3a 5a cf ed 3a 71 ce 27 3b
       0.0025670263 0.0008013723 0.0018143461 0.0025605226
0000d0 7f a3 9a 3a 86 03 b3 39 55 a3 26 3b c6 fe 29 3b
       0.0011797993 0.00034144166 0.0025426943 0.002593921
0000e0 83 03 cf 3a b4 4f 12 3b aa aa ca 3a dd 22 7e 3a
       0.0015793893 0.0022325339 0.0015462239 0.0009694526
0000f0 2a 14 67 39 d4 b4 8c 3a 07 d3 06 3b 89 99 cd 3a
       0.00022037388 0.0010735043 0.002057256 0.0015686016
000100 91 ac 09 3b 88 36 18 3b 3e 19 35 39 20 86 23 3b
       0.0021007399 0.0023225863 0.00017270909 0.002495177
000110 f5 f2 1a 3b 5d 69 e1 3a 69 69 c3 3a c3 93 ae 3a
       0.0023643349 0.0017197538 0.0014908734 0.0013319183
000120 68 c6 6d 3a be 2f 51 3a 28 99 a9 39 f1 75 e4 39
       0.00090703974 0.00079798314 0.00032348302 0.00043575422
000130 58 75 03 3b df 7f 4d 3a a8 de b9 3a 4f 62 08 3b
       0.0020058956 0.00078391837 0.0014180737 0.002081055
000140 13 be 79 39 cc f7 d9 39 de df 34 3a 3e d7 31 3a
       0.00023817299 0.00041574088 0.0006899814 0.0006784088
000150 58 33 b7 3a db 35 94 3a 66 01 b7 39 90 a3 16 3b
       0.0013977094 0.0011307554 0.00034905522 0.0022985674
000160 43 cf 8e 3a ca 65 06 3b 66 24 3f 3b c2 58 d8 3a
       0.0010895509 0.0020507448 0.0029165982 0.0016505944
000170 88 b1 12 39 3e 66 af 3a 59 1f f8 3a 9c b1 cd 3a
       0.0001398978 0.0013381911 0.0018930241 0.001569319
000180 18 73 a9 3a aa ac e8 3a 73 65 17 3b 55 ac fc 3a
       0.0012927977 0.0017751653 0.002310124 0.0019277433

policy_c.q f4 [1, 100]
000000 e1 0d e4 3e 9d bc b6 3f 4e b8 f5 3e 19 70 1b 3f
       0.4454184 1.427631 0.47992176 0.6071792
000010 b7 27 c8 3e d3 91 dd 3e 3d 0d 14 3f 88 31 8e 3e
       0.390928 0.43275318 0.578327 0.27772164
000020 74 8f 29 3e f3 65 63 3f 9e 41 1a 3e b9 03 ac 3e
       0.1655863 0.8882744 0.15064093 0.3359659
000030 46 41 0c 3f e7 21 2b 3f 60 65 11 3d fe aa 56 3f
       0.547871 0.66848606 0.03549707 0.83854663
000040 76 35 b0 3e f3 67 a1 3f 3f f5 56 3f dc cd 47 3f
       0.34415787 1.2609848 0.83967966 0.7804849
000050 a3 a8 cf 3e c2 f5 38 3f 42 c0 6a 3f b6 81 dc 3e
       0.40558347 0.72249997 0.9169961 0.43067712
000060 1c 43 12 3f df af 24 3f 81 32 ff 3d e1 1a d8 3e
       0.5713365 0.6433086 0.12460805 0.42208007
000070 31 0d bb 3e b6 04 18 3f ce 98 0c 3f ea b2 b7 3e
       0.36533502 0.5938219 0.5492066 0.35878688
000080 05 a2 1f 3f 37 ce ec 3e d6 b0 47 3f ca eb 56 3f
       0.623566 0.4625108 0.78004205 0.83953536
000090 44 2d 26 3f af 6d 8d 3f b1 e7 8a 3f a4 7f 0e 3f
       0.6491282 1.1049098 1.0851957 0.55663514
0000a0 b3 b3 c7 3b 69 62 70 3e 19 5e e5 3d fb 17 ef 3d
       0.00609442 0.2347504 0.11199588 0.11674496
0000b0 a5 eb 3e 3e 1c 98 72 3e 4c 8a 00 3f 55 bf 38 3e
       0.18644579 0.23690838 0.50211024 0.18041737
0000c0 eb 79 2d 3c 58 65 f2 3e 3c 7d 16 3d 1c 47 04 3f
       0.01058815 0.47342944 0.036740527 0.51671004
0000d0 41 4d 0e 3f 46 73 af 3e 39 44 5f 3f 54 3d 62 3f
       0.5558663 0.34267634 0.87213475 0.8837483
0000e0 b7 36 d3 3e 06 52 7f 3c bb 80 6b 3f 3d 17 7f 3f
       0.41252682 0.015583521 0.919933 0.99644834
0000f0 2e 3e 2a 3f 8a 2c 63 3f 5a e1 85 3f b4 f5 6f 3f
       0.6650113 0.88739836 1.0459397 0.9373429
000100 97 5b 60 3f c1 e6 3d 3f 8b c5 4c 3f 7c 70 f4 3e
       0.87639755 0.7418023 0.79988927 0.4774207
000110 bf ba 3f 3f b9 23 14 3c 9e 4d 5b 3f 98 40 e0 3e
       0.74894327 0.00904172 0.8566531 0.4379928
000120 97 05 33 3f 55 b8 53 3f b3 66 1b 3f 0e 0e 47 3f
       0.69930404 0.82703143 0.6070358 0.7775582
000130 f0 52 f4 3d a7 97 22 3f d9 6c 7e 3f 66 14 d4 3e
       0.119298816 0.63512653 0.9938484 0.41421813
000140 83 53 56 3f 61 9d 6f 3f e6 ed d2 3e 3c f8 45 3f
       0.8372118 0.93599516 0.41197127 0.773319
000150 80 28 9b 3e 90 f4 56 3f 74 ef 4d 3e ed 91 56 3f
       0.30304337 0.8396692 0.20110875 0.83816415
000160 7e f8 6c 3f c1 14 3c 3f 70 c6 81 3d 00 b7 29 3d
       0.9256667 0.7346917 0.06336677 0.041434288
000170 a5 e9 2a 3f 4d a8 1d 3f 80 ad ab 3b 44 31 dc 3e
       0.66762763 0.6158493 0.0052391887 0.43006337
000180 08 f1 09 3e f4 15 c2 3e ce ce d0 3e a4 c3 db 3e
       0.13470852 0.37907374 0.4078278 0.429227

policy_c.z f4 [1, 100]
000000 3a ed 08 3f b4 4d 67 3f c3 ac 23 3f ed 43 41 3f
       0.5348698 0.9035294 0.6393549 0.7549427
000010 c2 1d 0a 3f 55 f5 21 3f 27 9e 27 3f ee b6 11 3f
       0.53951657 0.6326497 0.65475696 0.56919754
000020 cd 0c 5d 3f 67 9a 47 3f 88 04 95 3e bc 56 d4 3e
       0.8634766 0.77969974 0.2910502 0.41472423
000030 2a d0 bf 3e 80 2b 61 3d 7b 2d 04 3f e0 ae e6 3e
       0.37463504 0.054973125 0.516319 0.45055294
000040 6f 45 54 3f e6 b4 16 3f ce 16 10 3f 4d 27 32 3f
       0.8291845 0.5886978 0.562848 0.6959122
000050 70 4a eb 3e ad 66 6e 3f 49 f9 3d 3f c8 a7 54 3f
       0.4595523 0.9312542 0.74208504 0.83068514
000060 15 6e 67 3f 52 95 af 3e 44 f2 bc 3e 2a 14 bc 3e
       0.90402347 0.3429361 0.36903584 0.36734134
000070 8a 5c 7d 3f 8a e1 30 3f 78 e7 cd 3d 04 2c 12 3f
       0.9896933 0.69094145 0.10053915 0.5709841
000080 23 10 07 3f 60 3c c1 3e b4 dc 19 3f bc ca 06 3e
       0.52759 0.37741375 0.6010239 0.13163275
000090 da 3e f2 3e e2 3f c6 3e 00 51 3f 3e 10 61 49 3e
       0.47313577 0.38720614 0.18683243 0.19665933
0000a0 7b 7f 7e 3f de dd 74 3f 4e d4 f1 3e 18 46 d8 3d
       0.9941327 0.9565104 0.47232288 0.10560244
0000b0 71 84 46 3f a0 38 e5 3d 94 35 70 3e 18 da b4 3d
       0.7754584 0.11192441 0.23457938 0.088306606
0000c0 00 c1 30 3c 54 42 d3 3e 98 ef de 3e ab 49 6b 3f
       0.010788202 0.41261542 0.4354217 0.91909283
0000d0 a8 00 70 3f dc 0b 8c 3e 52 ac 5b 3f e5 a2 75 3f
       0.93751 0.27352798 0.85809815 0.9595168
0000e0 00 0c 33 3e 20 fa a2 3d 80 27 f2 3e c0 f9 da 3c
       0.17485046 0.07957864 0.4729576 0.026730418
0000f0 26 d9 08 3f 7a c5 ad 3e 3c fb 95 3e a5 bf 79 3f
       0.5345634 0.33939725 0.2929324 0.9755805
000100 cc 3d b0 3e d8 cb 4d 3e 08 f1 4c 3f d4 94 28 3e
       0.34422147 0.20097291 0.80055285 0.16463023
000110 1d ba 37 3f a8 11 d0 3e 9e 99 18 3f c0 2f 7a 3e
       0.7176836 0.4063847 0.596094 0.24432278
000120 f9 8f 17 3f 92 63 4a 3f 60 dd 9c 3c f4 d0 19 3f
       0.5920406 0.7905818 0.019148529 0.6008446
000130 90 d1 19 3f b7 d4 60 3f c6 d4 0b 3f 7d 33 39 3f
       0.6008539 0.8782458 0.5462154 0.7234419
000140 54 37 4b 3e 8c 15 62 3e 58 69 60 3e e4 76 06 3f
       0.19845325 0.22078532 0.21915185 0.5252516
000150 40 a9 71 3c e0 d6 d7 3c c2 76 6a 3f 0c 22 a7 3e
       0.014749825 0.026347578 0.9158746 0.32643163
000160 24 d4 32 3e 60 41 82 3d 88 4f 65 3f de 95 de 3e
       0.17463738 0.063601255 0.8957448 0.43473715
000170 73 0b 1d 3f 45 9b 5e 3f 90 a5 68 3e 79 25 58 3f
       0.61345595 0.8695567 0.22719407 0.8443218
000180 ee 57 4d 3f 33 46 4a 3f 1d 02 72 3f 82 44 b8 3e
       0.80212295 0.79013366 0.94534475 0.35989767
