checkpoints/three-phase/13bus3p/safe-ddpg/three_single/policy_net_checkpoint_a7.pth (torch, 3167 bytes, 4 tensors)

policy_c.b f4 [100]
00000000: b84b beb8 9ef7 c0b8 2033 beb8 e4d1 c0b8
00000010: 487a beb8 5bfd c0b8 32a9 c1b8 87f3 beb8
00000020: 4cc6 beb8 2cbe c0b8 24be 9f3b f643 c0b8
00000030: a553 a43b 57d6 c3b8 a4bd c4b8 9759 c5b8
00000040: 77df a93b 6986 cbb8 4f3b ccb8 fa1f cab8
00000050: 9118 cab8 dbd4 cbb8 97e7 cbb8 ff9c aa3b
00000060: a392 ad3b 5280 e8b8 b7d0 ac3b 6ba1 b53b
00000070: a08c f6b8 73af f7b8 076e f9b8 4f0a f6b8
00000080: 84f9 f6b8 0c26 fab8 4b95 f6b8 7431 f6b8
00000090: eff1 ba3b 2af9 fdb8 08e6 ba3b 9b85 fab8
000000a0: eddd bd3b a3de b83b 3786 c13b 456a feb8
000000b0: 67c3 feb8 3a8b 01b9 bc48 feb8 8bb2 bf3b
000000c0: c81d 03b9 9b82 03b9 2136 03b9 4ebc 03b9
000000d0: b240 05b9 171d 03b9 779b 05b9 5a84 06b9
000000e0: 7f84 c43b 5797 04b9 6b8f 03b9 82b9 03b9
000000f0: 41f1 05b9 f47c bc3b 0820 01b9 3c20 02b9
00000100: ffa4 02b9 471c 01b9 e2d2 c33b ff68 01b9
00000110: 01e2 00b9 d376 0eb9 378e 00b9 038d 00b9
00000120: f751 00b9 f786 02b9 621d 00b9 a5f2 01b9
00000130: 02fd 02b9 2e06 00b9 f8b9 c33b 2ff0 bf3b
00000140: 1233 f5b8 9db3 f6b8 a203 c23b 623d ebb8
00000150: ac38 ebb8 14a5 c13b 3005 ecb8 d466 c03b
00000160: dcbb c13b 4595 c13b a74e b93b 3bc8 e9b8
00000170: 326a be3b df4a be3b 223c f7b8 ab05 f7b8
00000180: 3424 05b9 7724 f7b8 2ce8 bd3b 7100 0000
-9.07401e-05 -9.201396e-05 -9.069429e-05 -9.1943686e-05 -9.082683e-05 -9.2024646e-05 -9.234472e-05 -9.1052665e-05
-9.096842e-05 -9.190696e-05 0.0048749615 -9.167932e-05 0.005014854 -9.3382485e-05 -9.3813316e-05 -9.4103794e-05
0.00518411 -9.70483e-05 -9.738525e-05 -9.638067e-05 -9.6366864e-05 -9.719442e-05 -9.722931e-05 0.0052067037
0.0052970215 -0.000110865236 0.005273904 0.005542924 -0.000117563875 -0.00011810558 -0.000118937394 -0.00011732114
-0.0001177667 -0.00011928016 -0.00011758002 -0.000117394055 0.0057051103 -0.000121103905 0.0057036914 -0.00011945815
0.005794278 0.0056417747 0.0059058922 -0.00012131458 -0.0001214806 -0.00012354265 -0.00012125212 0.0058501414
-0.00012504228 -0.00012541788 -0.00012513298 -0.00012563283 -0.0001270797 -0.0001250397 -0.00012741784 -0.0001282854
0.00599724 -0.0001264488 -0.00012546561 -0.0001256224 -0.00012773742 0.0057522003 -0.00012314331 -0.00012409774
-0.00012459232 -0.00012312933 0.005976067 -0.00012341513 -0.00012291224 -0.00013586441 -0.0001226001 -0.00012259562
-0.00012237566 -0.00012448044 -0.00012217977 -0.00012392791 -0.00012492019 -0.00012209333 0.005973097 0.0058574895
-0.00011692023 -0.0001176365 0.005920843 -0.00011217107 -0.00011216229 0.0059095714 -0.00011254323 0.005871633
0.005912287 0.005907687 0.005655128 -0.000111476016 0.0058109993 0.005807265 -0.000117890784 -0.000117789335
-0.00012697355 -0.0001178467 0.0057954993 1.58e-43

policy_c.c f4 [100]
00000000: 9fd5 fb39 1d31 573a f7ff f13a f8a1 8c3a
00000010: c0af 4d3a 415d 2b3b 1591 b63a e755 093b
00000020: 5213 943a ed45 ba3a d909 093b b829 863a
00000030: c969 f539 d105 433b d174 123b 10b5 0239
00000040: bab6 dd3a 89c2 9239 f3e6 133b 2732 383a
00000050: 8275 0f3a 2a98 3e3b 8607 ac3a a392 c939
00000060: ab85 d23a d900 0e3b ba73 693a cca2 3c3b
00000070: c0a4 f83a b5fb c639 79ce 413b 2114 1a3b
00000080: 0ef5 3e3a 9146 e43a 74c9 0d3a c359 633a
00000090: 3004 0939 677c 383a 1e2f 813a f440 5539
000000a0: 2a02 383b 4a3b cf3a 9bac 443b 18ed e43a
000000b0: 3efb 9d3a b41f 123b 524e b43a a1b9 413b
000000c0: 02a8 913a 6d20 053a 43cf 743a ca73 f23a
000000d0: a11f 4a3a 77f3 933a 11b3 973a ddeb b13a
000000e0: e786 013b 297a 503a ade2 063b bb77 1e3b
000000f0: b108 0d3b 6b04 633a 6fd1 a339 446c c23a
00000100: df8e 0a3b 5fc9 403b 6d1f e43a 6178 ed3a
00000110: 3884 a93a 3df2 273a ca44 fd39 6a1c 133a
00000120: aca8 9c39 3c34 1d3b 16e2 013b a2f9 073a
00000130: 32c4 053b ce14 c039 eb5d 143b 4765 673a
00000140: 3308 483b 1312 433b 88b3 ba3a 0250 3d3b
00000150: c118 293b b4e6 193b bb2c 103a a5b3 8a39
00000160: 9034 273b 4463 633a 62b1 083b 2a2c da3a
00000170: 80c4 c73a 805a a33a d0bb 993a 6d8f 3d3b
00000180: bc77 ba3a 99ac 2a3a 2fb1 443b 2e74 863a
0.0004803361 0.00082089176 0.0018463124 0.0010729423 0.0007846318 0.0026148113 0.0013928736 0.0020955743
0.0011297262 0.0014211513 0.002091041 0.0010235822 0.00046808858 0.0029758106 0.002234746 0.00012465217
0.0016915419 0.0002799223 0.0022568076 0.0007026516 0.0005472527 0.0029082396 0.0013124801 0.0003844696
0.0016061565 0.0021667986 0.0008905489 0.0028783558 0.0018969998 0.0003795304 0.002957253 0.0023510533
0.0007284441 0.001741605 0.0005408742 0.00086727383 0.00013066898 0.00070375804 0.0009855961 0.0002033746
0.0028077462 0.0015810516 0.0030010107 0.0017465679 0.0012053025 0.0022296729 0.0013756251 0.0029560106
0.0011112692 0.0005078379 0.0009338746 0.0018497643 0.00077104016 0.0011287768 0.0011573752 0.0013574321
0.0019764246 0.00079527736 0.0020581887 0.0024180252 0.0021520073 0.0008660021 0.00031245823 0.0014833291
0.0021142287 0.0029416902 0.0017404385 0.0018117541 0.0012933081 0.0006406641 0.00048307172 0.0005611839
0.0002988031 0.0023987433 0.0019818596 0.00051870395 0.002041113 0.00036636594 0.0022638987 0.0008827042
0.0030522465 0.0029765412 0.0014244178 0.00288868 0.0025802108 0.0023483457 0.00054998294 0.00026455257
0.0025513507 0.00086741545 0.0020857682 0.0016645242 0.0015241057 0.0012462884 0.0011728946 0.00289246
0.0014226357 0.00065107044 0.0030012836 0.0010258013

policy_c.q f4 [1, 100]
00000000: 21bf 293e 8c9c 2f3f 4866 bf3d 8ba2 2b3f
00000010: 12b2 7f3e 4e35 303f 6880 403f 12ff c53e
00000020: 7295 af3e 0d7e 293f 38c1 ef3f 163d 613d
00000030: 0fdb ef3f 37e6 ef3d 1bda d73e 4c25 073f
00000040: d81a ed3f e6f4 ff3e 8743 193f 77d5 a63d
00000050: 35e8 0a3d 24c3 0b3f a45f 0e3f 44b6 f13f
00000060: 59e7 f43f d410 2a3f c0f5 e73f 9c11 e93f
00000070: 6d08 8b3e d164 ee3e d5ec 233f 05dd 883d
00000080: fcef b73e 60ac 313f b52a 8f3e 40df 233e
00000090: 37b2 e93f 3acf ea3e 666d e93f 8b59 b03e
000000a0: 5563 f33f 1125 e43f 5c03 f13f 5e3b 273e
000000b0: 66fa 883e b6d3 393f 669e c63d f16c e53f
000000c0: 760f d73c 316c 9f3e c687 203e 28aa c53e
000000d0: 6537 2c3f 9cac 4c3b bf73 373f 4a5d 4f3f
000000e0: 6797 eb3f 8c87 113f c080 a13e cf28 be3e
000000f0: b04e 403f fa03 e03f e252 2f3e 6bf2 053f
00000100: 1d96 1e3f 1620 233e 655e e63f 4809 153f
00000110: 7e6f f13e 0762 a33f 071f c13e 0754 c03e
00000120: df2f 933e 3633 3e3f a70a 2c3e bff2 2a3f
00000130: af1f 4b3f eced 723d 8b04 e93f dfbb de3f
00000140: d891 0c3c 003b eb3e f5b7 ef3f e5a7 743d
00000150: 4755 173c 6ed6 ea3f f753 ea3d 5950 d83f
00000160: 181f e53f aafd d23f 12a4 cb3f b2d9 4e3e
00000170: 6f29 ea3f 5035 e33f b3c2 6a3e 2d73 303e
00000180: 67de 833f 9f1d 503e be7b e43f 7631 a53f
0.16576816 0.68598247 0.093456805 0.67044896 0.24970272 0.68831336 0.7519593 0.38671166
0.34293705 0.66207963 1.8730841 0.054989897 1.8738726 0.11713832 0.4215859 0.52791286
1.8523817 0.4999153 0.59868664 0.08146184 0.033912856 0.54594636 0.55614686 1.8883748
1.9133102 0.6643193 1.8121872 1.8208499 0.27154866 0.46561292 0.6403325 0.06682781
0.3592528 0.6940365 0.2796227 0.16003132 1.8257512 0.45861226 1.8236511 0.34443316
1.9014689 1.7823812 1.882915 0.1633124 0.2675354 0.7258867 0.09698181 1.7923871
0.02625249 0.3113723 0.15676793 0.3860638 0.67272025 0.0031230813 0.7166099 0.8100172
1.8405579 0.56847453 0.3154354 0.3714051 0.7512007 1.7501214 0.17121461 0.52323025
0.61947805 0.15930209 1.7997557 0.5821729 0.47155374 1.276429 0.37718984 0.37564108
0.2874746 0.7429689 0.16800939 0.6677665 0.7934522 0.05930893 1.8204511 1.7401084
0.008579694 0.4594345 1.8728014 0.05973043 0.00923664 1.8346689 0.11441796 1.689952
1.7900114 1.6483662 1.5909445 0.20200232 1.8293895 1.7750645 0.22925834 0.17231436
1.0302247 0.203238 1.7850263 1.2905719

policy_c.z f4 [1, 100]
00000000: 26ed 633f 6ce8 333e 5eb3 bf3e 0f8f 173f
00000010: bf37 563f ba89 7c3f d09e 2d3e d052 a13e
00000020: b0ac 813d 6e6a 9c3e d6f4 f93e df4f 753f
00000030: d824 fb3e 614b 283f 606f 613d 18c5 1c3f
00000040: 9ee9 d43e b0ca 213d a2a5 523f 549e cf3e
00000050: c01c 013e a33b 153f dcf6 133f 3f9b 3a3f
00000060: dc06 793f c05d 393e e4ea ed3e 1016 ba3e
00000070: 97f0 253f f55e 6a3f b0d7 a13d 70f0 d43d
00000080: d8fe a63d 5486 0b3f d207 c53e 6a53 9d3e
00000090: 92a1 013f 68ed 533f e0e8 463f 645a 153e
000000a0: 9907 133f d1bb 7b3f 20ad 653d 6b12 463f
000000b0: 8293 933e 0300 153f 73d4 143f 35b3 7c3f
000000c0: 5f55 3a3f 2034 e33e 7aed b13e e82e 723e
000000d0: 16f8 0b3f 9af8 dd3e 10f9 203f c81d c33e
000000e0: f6b9 af3e e033 f63e 16f2 bd3e 8471 e53e
000000f0: 34f8 9d3e a458 063e 6a67 0a3f ddcd 063f
00000100: 5ecc 4b3f af57 6a3f ca07 4b3f 454a 013f
00000110: 5005 203f fb0f 253f 25be 123f 6d4d 083f
00000120: bd64 353f 09bb 253f f801 873d a08a 073f
00000130: e01a 273f e848 443e fad2 cc3e 36b5 c43e
00000140: ba3e af3e 8a70 f53e 18f5 463f 8052 513e
00000150: f143 6b3f 40ba 4d3f 3582 223f 9ca0 793f
00000160: bc2a 403e 8870 883d 02f7 af3e 2087 073e
00000170: a00e 1a3d d102 0c3f 4c7c 383f 6e13 333f
00000180: 2a90 343f 7028 2d3e 5ab3 bb3e 2a1d 9a3e
0.89033735 0.1756913 0.37441534 0.59202665 0.8367881 0.98647654 0.16955113 0.31508493
0.06331766 0.3054995 0.48819607 0.95825 0.49051547 0.6574002 0.055037856 0.6123824
0.41584486 0.03949994 0.82283986 0.40550482 0.12608624 0.58294123 0.5779855 0.72893137
0.9727609 0.18102169 0.4646827 0.36344957 0.64820236 0.9155114 0.07902467 0.10397422
0.08154076 0.54501843 0.3848253 0.30727702 0.5063716 0.8278413 0.7769909 0.14585263
0.5743347 0.9833346 0.056073308 0.77371854 0.28823477 0.5820314 0.5813667 0.9871095
0.72786516 0.44375706 0.34751493 0.23650706 0.54675424 0.4335373 0.6288004 0.3810866
0.34321564 0.48086452 0.3709876 0.44813168 0.30853426 0.13119751 0.5406405 0.5265787
0.79608715 0.91540045 0.7930876 0.5050395 0.62508106 0.6447751 0.5732139 0.5324314
0.7085684 0.6473852 0.065921724 0.529459 0.65275383 0.19168437 0.40004712 0.38419503
0.34227544 0.47937423 0.77717733 0.20441628 0.91900545 0.8036232 0.6347993 0.97510695
0.18766302 0.06662089 0.3436814 0.1323514 0.037611604 0.546918 0.7206466 0.6995152
0.70532477 0.16909957 0.36660272 0.30100375
