checkpoints/three-phase/13bus3p/safe-ddpg/three_single/policy_net_checkpoint_a11.pth (torch, 5839 bytes, 8 tensors)

policy_a.b f4 [100]
0	0xb914541b	-0.00014145712
1	0xb913754c	-0.00014062709
2	0xb9142f05	-0.00014131896
3	0xb912ca58	-0.00013999024
4	0x3a1cc618	0.0005980446
5	0xb9055c08	-0.00012718153
6	0x3a1cbcad	0.00059790426
7	0xb917c557	-0.00014473997
8	0xb91d3755	-0.000149933
9	0xb8edd278	-0.000113402435
10	0xb91d6efa	-0.00015014029
11	0xb8c60751	-9.4427385e-05
12	0x3a260f58	0.0006334684
13	0xb91da10b	-0.0001503268
14	0xb91fe5ed	-0.00015249076
15	0xb91f0699	-0.0001516588
16	0x3a287091	0.0006425465
17	0xb8ca1088	-9.63519e-05
18	0xb8be454a	-9.072812e-05
19	0xb92148ce	-0.00015381278
20	0x3a2671e4	0.00063493685
21	0xb9215b99	-0.0001538828
22	0x3a2621d6	0.00063374394
23	0xb9285f51	-0.00016057237
24	0xb8aab29e	-8.139502e-05
25	0xb92a01e3	-0.00016213166
26	0xb827b7e1	-3.9987153e-05
27	0xb92a17be	-0.00016221308
28	0xb9297b01	-0.00016162918
29	0xb92a181d	-0.00016221446
30	0xb9295cf4	-0.00016151724
31	0xb8e88342	-0.00011087071
32	0xb92374b1	-0.00015588362
33	0xb9296d42	-0.00016157798
34	0x3a83660f	0.0010024923
35	0xb91ec565	-0.0001514159
36	0xb91250f7	-0.00013953807
37	0xb90a0572	-0.00013162734
38	0xb9270e9b	-0.00015931802
39	0xb91e85e4	-0.00015117932
40	0xb926926f	-0.00015885544
41	0xb92cb5c0	-0.00016470905
42	0xb92cb5c9	-0.00016470918
43	0xb92cae0c	-0.00016468036
44	0xb92cacfb	-0.00016467638
45	0xb92cb672	-0.00016471164
46	0xb90b09e8	-0.00013259763
47	0xb92d1d81	-0.00016509557
48	0x3bbb6142	0.005718381
49	0x3bbb4ce9	0.0057159555
50	0xb93fa23f	-0.00018275621
51	0xb93f92b7	-0.00018269835
52	0xb93fa111	-0.00018275181
53	0x3bbdb8f1	0.005789869
54	0x3bbe2750	0.0058030263
55	0xb94b7e5b	-0.0001940666
56	0x3bbeac03	0.0058188452
57	0xb9500cba	-0.00019841167
58	0xb94f9156	-0.000197952
59	0x3bbe6d2b	0.0058113537
60	0xb9529a0e	-0.0002008455
61	0xb94e61f5	-0.00019682183
62	0x3bc12ba1	0.0058950935
63	0x3b87c081	0.0041428213
64	0x3bb49bee	0.0055117523
65	0xb93fbf7b	-0.00018286511
66	0x3bcb36a0	0.00620158
67	0x3bb4b69a	0.005514932
68	0xb9343fd7	-0.0001718992
69	0xb938752a	-0.00017591254
70	0xb9345753	-0.00017198669
71	0xb9377c67	-0.00017498583
72	0xb93985dd	-0.00017692843
73	0x3bbc18cb	0.0057402602
74	0xb937073e	-0.00017454938
75	0xb935e774	-0.00017347728
76	0xb93c8bc1	-0.0001798114
77	0x3bc11f93	0.0058936565
78	0x3bb9d1be	0.005670755
79	0x3bb9c357	0.0056690383
80	0xb9276633	-0.00015964433
81	0x3bc1d709	0.0059155268
82	0x3bbbbf4d	0.005729592
83	0x3b896a16	0.0041935546
84	0x3bb3a177	0.0054818946
85	0xb91794f8	-0.00014455977
86	0x3baf36cd	0.005347109
87	0x3bae10e4	0.005312072
88	0x3b9ae1c0	0.0047266185
89	0x3ba61f4a	0.005069648
90	0x3ba38789	0.0049905223
91	0x3ba6d88b	0.005091732
92	0xb8b8420a	-8.7861044e-05
93	0x3ba276ed	0.0049580247
94	0x3ba061dc	0.0048944782
95	0xb86e39b7	-5.6797373e-05
96	0xb8672118	-5.5105513e-05
97	0xb8720d4e	-5.7709687e-05
98	0xb8823001	-6.2078245e-05
99	0x00000139	4.39e-43

policy_a.c f4 [100]
0	0x3b4d8e5f	0.0031365377
1	0x3b448154	0.0029984312
2	0x3a4885b2	0.00076493167
3	0x3b14ea79	0.0022722764
4	0x3b26f93a	0.002547814
5	0x3ae097f1	0.0017135126
6	0x3a90957f	0.0011030881
7	0x3b11ac02	0.0022227769
8	0x3992ea28	0.0002802175
9	0x3a6ead73	0.00091048254
10	0x3b3c0ad2	0.0028692973
11	0x3a3610a7	0.00069452304
12	0x39a9a9ed	0.00032360796
13	0x3aa6dd6e	0.0012730786
14	0x38ed308b	0.000113100825
15	0x3b2e6ba4	0.0026614452
16	0x3ab5705a	0.0013842687
17	0x3a611b3d	0.00085871277
18	0x3b2a8e06	0.0026024594
19	0x3aa3b0ba	0.0012488582
20	0x3a9a6132	0.0011778234
21	0x39a6f018	0.0003184087
22	0x3ab57788	0.0013844827
23	0x39883b51	0.00025984136
24	0x39978caf	0.00028905782
25	0x3955ee78	0.000204021
26	0x39b7f664	0.00035088055
27	0x39ee9e89	0.00045513015
28	0x3aa7024e	0.0012741776
29	0x3a8a358a	0.001054452
30	0x39c52a24	0.00037606165
31	0x3b1a17a1	0.002351262
32	0x3b21b004	0.0024671564
33	0x3b17021d	0.002304203
34	0x3b17828a	0.0023118579
35	0x3aefdd85	0.0018300271
36	0x3918d7b8	0.00014576211
37	0x3aa131ea	0.0012298201
38	0x3abefbe9	0.0014570925
39	0x3ad3d348	0.0016160989
40	0x3adef705	0.0017010873
41	0x3a9e3792	0.0012071005
42	0x3b3dad20	0.0028942302
43	0x3b0b4e0d	0.0021256239
44	0x3980147f	0.00024429333
45	0x38985499	7.263682e-05
46	0x3b018bb2	0.0019767103
47	0x3a6a29e4	0.0008932634
48	0x3b310f69	0.0027017242
49	0x3acfb3f7	0.001584648
50	0x3b48a428	0.0030615423
51	0x3a43a4cc	0.00074632163
52	0x3ab0780a	0.0013463509
53	0x3b066fd5	0.0020513434
54	0x3b2ead3d	0.002665355
55	0x3b1fb030	0.002436649
56	0x3714b5dc	8.86383e-06
57	0x3ad8b976	0.0016534764
58	0x3a8edc93	0.0010899476
59	0x3b0c3bd6	0.002139797
60	0x3b11887c	0.0022206595
61	0x3a943565	0.0011307417
62	0x3aa7046f	0.001274241
63	0x3ab7f658	0.0014035208
64	0x3ae3b48b	0.0017372532
65	0x3aa7c024	0.0012798351
66	0x3b05fbdf	0.0020444316
67	0x3b28c31b	0.0025751058
68	0x38608c82	5.353662e-05
69	0x3aee58de	0.0018184443
70	0x3a6f898a	0.00091376214
71	0x3a3d5f39	0.0007223967
72	0x3a385ca6	0.00070328487
73	0x3b39ed16	0.0028370074
74	0x3ade342a	0.0016952802
75	0x3b205bc4	0.002446876
76	0x3b219a0c	0.002465847
77	0x3a41b466	0.0007389247
78	0x3af3b7e4	0.0018594232
79	0x3b12ad71	0.0022381211
80	0x3b182079	0.0023212715
81	0x3a821651	0.0009924864
82	0x39fddf32	0.00048422214
83	0x3a5c8729	0.00084124744
84	0x3b3d7d6c	0.0028913869
85	0x396002b7	0.00021363316
86	0x3b32ad22	0.002726384
87	0x3b026b36	0.0019900328
88	0x3a3ac488	0.00071246224
89	0x3b21a5f4	0.0024665566
90	0x398e5940	0.00027150847
91	0x3ac83f44	0.0015277644
92	0x3acae13f	0.0015478506
93	0x3afc4b20	0.0019248463
94	0x3b303492	0.0026886803
95	0x3b0ed18a	0.0021792375
96	0x3a7b74fc	0.0009592322
97	0x3b3c6eee	0.0028752643
98	0x39d498f9	0.00040549765
99	0x39c930cd	0.00038374067

policy_a.q f4 [1, 100]
0	0x3f5e7f32	0.86912835
1	0x3f2364b0	0.6382551
2	0x3fae8a97	1.3636044
3	0x3f15be1d	0.58493215
4	0x39f2873b	0.00046258591
5	0x3ebb3cc4	0.36569798
6	0x2def1a37	2.7182796e-11
7	0x3f01bba3	0.50676936
8	0x3fb0431e	1.3770483
9	0x3e9a314f	0.30115744
10	0x3fb40662	1.4064448
11	0x3e82b7dd	0.25530902
12	0x0d219d0a	4.9800984e-31
13	0x3f1e51c3	0.6184351
14	0x3fbc4a80	1.4710236
15	0x3f389ba8	0.7211251
16	0x2ab0dff7	3.1419287e-13
17	0x3e858b51	0.26082852
18	0x3e80680b	0.25079378
19	0x3f0f6c22	0.5602437
20	0x80000140	-4.48e-43
21	0x3f096736	0.5367311
22	0x111d2df5	1.2399278e-28
23	0x3f3711e2	0.7151166
24	0x3e77b1b8	0.24188888
25	0x3fbab5de	1.4586751
26	0x3e226e4b	0.15862386
27	0x3fb32e43	1.3998493
28	0x3f44ed4f	0.76924604
29	0x3fb7af03	1.4350284
30	0x3f2f42cb	0.68461293
31	0x3e7828ee	0.24234363
32	0x3ee0096b	0.43757185
33	0x3f31a20e	0.693879
34	0x1754e171	6.878544e-25
35	0x3ec107fd	0.37701407
36	0x3ea29185	0.31751648
37	0x3e95aea5	0.29234806
38	0x3eeefe8b	0.46678576
39	0x3ec02fa9	0.37536362
40	0x3eea9abc	0.45821178
41	0x3fb1e39e	1.3897588
42	0x3fad3aa4	1.3533521
43	0x3f2f4266	0.6846069
44	0x3f308e7d	0.6896742
45	0x3f5b73bf	0.8572349
46	0x3e0b1ab9	0.13584413
47	0x3f4040a5	0.7509864
48	0x8a15ea17	-7.2181164e-33
49	0x022e6bc5	1.2814429e-37
50	0x3f202efa	0.6257168
51	0x3efd140d	0.4942936
52	0x3f081d38	0.53169584
53	0x81093850	-2.5203328e-38
54	0x179eabc7	1.0253873e-24
55	0x3f5dcde9	0.8664232
56	0x9ebe53b5	-2.0151653e-20
57	0x3ee6d408	0.45083642
58	0x3f0b33f6	0.5437616
59	0x80000011	-2.4e-44
60	0x3ef9a819	0.4876106
61	0x3fa7225d	1.3057362
62	0x22513109	2.835074e-18
63	0x3d8f15e8	0.069866
64	0x3d3ca443	0.04605509
65	0x3fa93440	1.321907
66	0x3c68e07e	0.014213679
67	0x3d4eda0c	0.050500914
68	0x3f9e1ecc	1.2353148
69	0x3f2362d4	0.63822675
70	0x3f9a941c	1.2076449
71	0x3f38b907	0.7215733
72	0x3ef64b31	0.48104241
73	0x3737de3d	1.0959394e-05
74	0x3eca23eb	0.39480528
75	0x3fa8235e	1.3135793
76	0x3eeb29ac	0.4593023
77	0x3d1e6af5	0.03867622
78	0x1529e4f7	3.43099e-26
79	0x0000001f	4.3e-44
80	0x3f9343af	1.150503
81	0x3d266bb2	0.04063005
82	0x3d99fd16	0.075189754
83	0x3e2343aa	0.1594378
84	0x3d2c9efa	0.0421438
85	0x3fa8bb0a	1.318208
86	0x3a601679	0.00085482706
87	0x00000081	1.81e-43
88	0x3e432f24	0.19060951
89	0x366e5172	3.551217e-06
90	0x3e32379b	0.17404024
91	0x3ddc323c	0.10751769
92	0x3f8bb3da	1.0914261
93	0x3e67a296	0.22620615
94	0x395c1217	0.00020987574
95	0x3f918b6e	1.1370676
96	0x3fac18a4	1.344502
97	0x3f88e785	1.0695654
98	0x3f67843e	0.9043616
99	0x3f1d2c7e	0.61396015

policy_a.z f4 [1, 100]
0	0x3f6c1a4f	0.92227644
1	0x3f75eff8	0.9606929
2	0x3f112d72	0.5670997
3	0x3f209bc0	0.62737656
4	0x3f1176f5	0.5682214
5	0x3f50c244	0.81546426
6	0x3f744cd0	0.95429707
7	0x3f704588	0.93856096
8	0x3ebe720a	0.3719638
9	0x3f5bc3c1	0.8584557
10	0x3d9cd4b0	0.076577544
11	0x3f56f52d	0.8396786
12	0x3caf34c0	0.021387458
13	0x3f3367e3	0.70080394
14	0x3ec4f5a6	0.38468665
15	0x3e91cc6e	0.2847628
16	0x3f3bd21b	0.7336747
17	0x3d922f30	0.071379066
18	0x3f71f8ee	0.9452046
19	0x3e8a0aea	0.26961452
20	0x3f31558e	0.6927117
21	0x3ee0a7ac	0.43877923
22	0x3edea346	0.43483943
23	0x3f0df464	0.55451035
24	0x3ec546f6	0.385307
25	0x3c8fcd20	0.017553866
26	0x3ec9c624	0.39408982
27	0x3f7ed244	0.9953959
28	0x3eee62d6	0.4655978
29	0x3f560fdf	0.8361797
30	0x3e69ce18	0.22832525
31	0x3f3c0212	0.7344066
32	0x3e530048	0.20605576
33	0x3f0cdff9	0.55029255
34	0x3f3015dc	0.68783355
35	0x3f035c45	0.5131267
36	0x3f43b117	0.7644209
37	0x3f34e250	0.70657825
38	0x3f1ffbfd	0.6249388
39	0x3f27aeae	0.65500915
40	0x3f778971	0.96694094
41	0x3e943e1c	0.28953636
42	0x3f33f90a	0.7030188
43	0x3e1bb958	0.15207422
44	0x3e356b2c	0.17716664
45	0x3e4c2930	0.19937587
46	0x3eb8b488	0.36075234
47	0x3ef4a9d6	0.47785825
48	0x3f7ea95e	0.99477184
49	0x3f5b9172	0.85768807
50	0x3f2d27ba	0.6763874
51	0x3e5f5604	0.21810156
52	0x3dea9a30	0.1145519
53	0x3db57c60	0.08861613
54	0x3f0d961e	0.55307186
55	0x3e85e746	0.2615301
56	0x3f33f920	0.7030201
57	0x3e62579c	0.22103733
58	0x3dad6e78	0.08468336
59	0x3f668275	0.9004281
60	0x3f762541	0.96150595
61	0x3e90967c	0.2823981
62	0x3f388a37	0.720859
63	0x3f621ea7	0.8832802
64	0x3f579999	0.84218746
65	0x3f2d9ba4	0.67815614
66	0x3eee4e24	0.46543992
67	0x3f5666c4	0.8375056
68	0x3f41b837	0.75671715
69	0x3f3e8364	0.74419236
70	0x3f69a5c7	0.9126858
71	0x3e59bd9c	0.21263736
72	0x3e09aed4	0.13445598
73	0x3f5363a7	0.8257393
74	0x3f7e9f9f	0.9946231
75	0x3f758ff7	0.959228
76	0x3f508bf0	0.8146353
77	0x3f542a93	0.82877463
78	0x3e95c7cc	0.29253995
79	0x3f0cb244	0.5495951
80	0x3d3a97c0	0.045554876
81	0x3f7f22c1	0.99662405
82	0x3f0d1f0a	0.55125487
83	0x3f790a99	0.97281796
84	0x3d87d100	0.066316605
85	0x3e13fc38	0.14451683
86	0x3ed8535e	0.42251104
87	0x3e9ce766	0.30645293
88	0x3ea5818e	0.32325405
89	0x3f18101a	0.5939957
90	0x3f162817	0.5865492
91	0x3f7d8163	0.99025553
92	0x3c2e60c0	0.010643184
93	0x3e05ef54	0.13079578
94	0x3f6d28cb	0.9264037
95	0x3eb30572	0.34965092
96	0x3f5a9186	0.853783
97	0x3eed1b14	0.4630972
98	0x3f571c92	0.8402797
99	0x3f0063e3	0.50152415

policy_c.b f4 [100]
0	0xb8ccfc37	-9.774457e-05
1	0xb8cc77c1	-9.749784e-05
2	0xb8cc0a87	-9.729439e-05
3	0xb9423e83	-0.00018524569
4	0xb8edfb22	-0.00011347818
5	0xb8f1af9f	-0.000115244875
6	0x3cdad873	0.02671454
7	0xb8f95bdc	-0.000118903554
8	0xb902635c	-0.0001243478
9	0xb8f404f4	-0.00011635749
10	0xb8f694fa	-0.00011757943
11	0xb8f3b956	-0.000116216645
12	0xb8f4f015	-0.000116795454
13	0xb8f52a9f	-0.00011690449
14	0xb8f93f08	-0.00011884986
15	0xb8f39d8f	-0.000116164905
16	0xb8f39972	-0.00011615724
17	0xb8f673fc	-0.00011751798
18	0xb8f39d35	-0.00011616425
19	0xb8f953c3	-0.00011888847
20	0xb8f85f46	-0.000118433076
21	0xb8f39a70	-0.00011615909
22	0xb8fa8b5f	-0.00011946889
23	0xb8f438e5	-0.00011645424
24	0xb8f97001	-0.000118941076
25	0xb8f39739	-0.0001161531
26	0xb8f61c58	-0.000117354735
27	0xb8f70f8a	-0.00011780772
28	0xb8f4ce33	-0.00011673234
29	0xb8f79eb6	-0.0001180744
30	0xb8f5aa36	-0.000117142146
31	0xb8f51879	-0.00011687069
32	0xb8f66762	-0.00011749451
33	0xb8f9ae9f	-0.00011905771
34	0xb8f41b5d	-0.000116399235
35	0xb8f4908e	-0.00011661752
36	0x3cc883c5	0.024476895
37	0xb8fc3fc1	-0.000120281715
38	0xb8fc3f07	-0.00012028036
39	0xb8fc96c8	-0.000120443816
40	0xb8fc419b	-0.00012028516
41	0xb8fca9bc	-0.00012047912
42	0xb8fc4184	-0.000120284996
43	0xb8fc85a3	-0.00012041188
44	0x3cd349d8	0.025792047
45	0xb8f8d9e9	-0.000118661505
46	0xb8f9d727	-0.000119133205
47	0xb8f8d006	-0.00011864309
48	0x3cd22b81	0.02565551
49	0xb8efb4bf	-0.00011430075
50	0xb8efc0ad	-0.00011432297
51	0xb8f57bc6	-0.00011705565
52	0xb8f40d1e	-0.0001163727
53	0xb8efe42c	-0.000114389084
54	0xb8f473b8	-0.00011656381
55	0xb8efb308	-0.00011429755
56	0xb8f0cbf6	-0.000114820825
57	0xb8efa308	-0.00011426775
58	0xb8efae19	-0.00011428836
59	0xb8f5c9fb	-0.00011720132
60	0xb8f1bea8	-0.00011527288
61	0xb8f139d3	-0.00011502546
62	0xb8ef9e78	-0.00011425925
63	0xb8f18c0e	-0.00011517863
64	0xb8f33c27	-0.00011598347
65	0xb8f00d47	-0.00011446565
66	0xb8f2449d	-0.000115522394
67	0xb8f29a97	-0.00011568254
68	0x3cc933d1	0.02456084
69	0xb8eec58a	-0.00011385519
70	0xb8ee2953	-0.000113564216
71	0xb8ee857a	-0.00011373586
72	0xb8edf0b1	-0.00011345873
73	0xb8f1763d	-0.00011513799
74	0xb8efbd11	-0.000114316244
75	0xb8f0e37b	-0.00011486463
76	0xb8f23d96	-0.000115509305
77	0xb8edf296	-0.00011346226
78	0xb8eea4ec	-0.000113794435
79	0xb8eee2ae	-0.00011390947
80	0xb8f02245	-0.00011450475
81	0xb8ee0142	-0.00011348959
82	0xb8ee278d	-0.00011356091
83	0xb8f00b0f	-0.000114461516
84	0xb8ee00a2	-0.00011348842
85	0xb8f5d5a8	-0.00011722307
86	0xb8f52815	-0.00011689976
87	0xb8ef9e17	-0.000114258546
88	0xb8ee9986	-0.0001137732
89	0xb902f241	-0.00012488013
90	0xb8ee0a61	-0.000113506576
91	0xb8ee2cff	-0.000113571055
92	0xb904fefb	-0.00012683489
93	0xb901dd08	-0.00012384739
94	0xb8edf8a8	-0.000113473565
95	0x3cc0d41f	0.023538647
96	0xb8ff559c	-0.000121752935
97	0xb9009657	-0.00012263037
98	0xb8fe0d77	-0.00012114172
99	0x1ba97d61	2.803973e-22

policy_c.c f4 [100]
0	0x3ab0bcc1	0.0013483987
1	0x3a96f68e	0.0011517571
2	0x390efe3e	0.00013636888
3	0x3a947dfa	0.0011329048
4	0x3b2bcf63	0.0026216141
5	0x3adc0a83	0.0016787801
6	0x3af9a26b	0.0019045597
7	0x3b238bd1	0.0024955163
8	0x3b444111	0.002994601
9	0x3ae187fe	0.0017206667
10	0x3a60cb48	0.0008575213
11	0x3b37758a	0.0027993643
12	0x388b4a6b	6.641898e-05
13	0x3b078595	0.0020678986
14	0x3abb2ad3	0.001427973
15	0x3b337f27	0.002738902
16	0x39578b7c	0.0002055596
17	0x3af54e0d	0.0018715278
18	0x3ad1d532	0.0016008972
19	0x3b34ad98	0.002756929
20	0x3a41fdea	0.0007400202
21	0x39bf761c	0.00036518357
22	0x3a879541	0.0010344164
23	0x39951c82	0.00028440735
24	0x3a83ee0c	0.001006545
25	0x3722d8cb	9.7064285e-06
26	0x3b353d7f	0.0027655063
27	0x3a5b6ed6	0.0008370703
28	0x3b30aa84	0.0026957104
29	0x39d7925f	0.0004111705
30	0x3afd0302	0.0019303265
31	0x3b2050e1	0.002446227
32	0x3a7793ef	0.0009444346
33	0x3a835f4e	0.001002291
34	0x3a2d72ec	0.0006616551
35	0x3a8190c7	0.0009885066
36	0x3b1dc4d3	0.0024073615
37	0x3af433a9	0.0018631119
38	0x3b2160f5	0.0024624441
39	0x3b0ad33c	0.0021183034
40	0x3a9c9111	0.0011945089
41	0x3a60b9d4	0.00085726124
42	0x3959a978	0.00020757865
43	0x3b2fce97	0.0026826018
44	0x36c1b955	5.7734237e-06
45	0x3b18df97	0.002332663
46	0x3b3a0d31	0.002838921
47	0x3aba5ce1	0.0014218354
48	0x3ac34d51	0.0014900361
49	0x3b18bd98	0.0023306366
50	0x3a891a5c	0.0010460126
51	0x3a8c4fca	0.0010704931
52	0x3ad59a25	0.0016296549
53	0x3a9eab8d	0.001210557
54	0x3b3c5cac	0.002874176
55	0x3ababae9	0.0014246377
56	0x3b4d0ec1	0.0031289312
57	0x3a437cbc	0.00074572465
58	0x3b0f2216	0.0021840385
59	0x3a2f0520	0.0006676484
60	0x3ab2b006	0.0013632781
61	0x3b27a665	0.0025581357
62	0x3a8dc07f	0.0010814815
63	0x3a76b51f	0.00094111444
64	0x3ad8e6df	0.0016548297
65	0x3a0372f2	0.00050143816
66	0x3a9ca9bf	0.0011952444
67	0x3a84d2c3	0.0010133613
68	0x3a6877e4	0.0008867963
69	0x3a82d1bb	0.0009980717
70	0x3a7b3615	0.0009582949
71	0x3b131244	0.0022441307
72	0x3a96516b	0.0011468356
73	0x3b51a0e4	0.0031986767
74	0x3a651693	0.00087390206
75	0x3adb218e	0.0016718374
76	0x3aecfe2b	0.0018081119
77	0x39202349	0.00015271934
78	0x3a1fcacc	0.0006095588
79	0x39e98dff	0.00044547018
80	0x39017d3d	0.00012349054
81	0x3a960402	0.0011445286
82	0x3b36d0dc	0.0027895486
83	0x3aae5ed7	0.0013303411
84	0x3aa20775	0.0012361842
85	0x3b449214	0.0029994296
86	0x3b0a3732	0.0021090028
87	0x3b26ea39	0.0025469197
88	0x3887baef	6.472121e-05
89	0x3a290258	0.00064471876
90	0x3b2d5d38	0.0026453268
91	0x3b2d86ff	0.002647817
92	0x3b2cb46e	0.0026352662
93	0x3a293df7	0.0006456072
94	0x3aa40f34	0.0012516738
95	0x3b073085	0.0020628285
96	0x3b011b7b	0.0019700218
97	0x3a50f095	0.000797042
98	0x3b2fc01f	0.0026817394
99	0x39f8a783	0.00047427052

policy_c.q f4 [1, 100]
0	0x3ec65628	0.38737607
1	0x3e8dbf60	0.2768507
2	0x3dee069e	0.11622356
3	0x3fe5ed4d	1.7963043
4	0x3e0be0a9	0.1365992
5	0x3f482fdf	0.78198045
6	0x3ff654f1	1.9244672
7	0x3f66996d	0.9007786
8	0x3fa381d7	1.2773999
9	0x3e8f36eb	0.27971587
10	0x3f30cfbb	0.6906697
11	0x3e21c711	0.15798594
12	0x3ef75ee6	0.4831459
13	0x3f04f716	0.51939523
14	0x3f64e1c6	0.89407
15	0x3d8ff071	0.070282824
16	0x3d34c760	0.04413545
17	0x3f2d7ffc	0.67773414
18	0x3d8c3d0b	0.068475805
19	0x3f661e19	0.89889675
20	0x3f567c39	0.837833
21	0x3d53b757	0.05168852
22	0x3f7710a0	0.9650974
23	0x3eacc342	0.3374272
24	0x3f67c767	0.9053864
25	0x3c960d1c	0.018316798
26	0x3f242929	0.64125305
27	0x3f3c457a	0.7354351
28	0x3eebba1c	0.46040428
29	0x3f48424c	0.7822616
30	0x3f169c36	0.5883211
31	0x3f022f3d	0.5085333
32	0x3f2c34e9	0.67268234
33	0x3f6b5db3	0.9193985
34	0x3e9cbe7b	0.30614075
35	0x3ed4786d	0.41498128
36	0x3ff6ca1f	1.9280432
37	0x3d27a807	0.040931728
38	0x3d0db14a	0.034592904
39	0x3e6fa78a	0.23403755
40	0x3d590fcf	0.052993592
41	0x3e83a0ea	0.25708705
42	0x3d573d22	0.052548535
43	0x3e57eca3	0.21086363
44	0x3fedf1a6	1.858937
45	0x3ef00baa	0.468839
46	0x3f1a222f	0.6020841
47	0x3eeccf6f	0.4625201
48	0x3fee3701	1.8610536
49	0x3e02654c	0.12733954
50	0x3e1f5915	0.15561326
51	0x3f5ff380	0.87480927
52	0x3f48f935	0.7850526
53	0x3e5fd5f2	0.21858957
54	0x3f4ff622	0.81234944
55	0x3dfb702b	0.12277254
56	0x3ee0f6de	0.43938345
57	0x3d855fb1	0.06512392
58	0x3dddba2e	0.108265266
59	0x3f6437ab	0.8914744
60	0x3f133e36	0.575168
61	0x3f01cfbb	0.50707597
62	0x3d094110	0.033509314
63	0x3f0cf6b0	0.55063915
64	0x3f3906cc	0.72275996
65	0x3e8bddce	0.2731766
66	0x3f222d28	0.6335015
67	0x3f2ab5d1	0.6668368
68	0x3fed5fee	1.85449
69	0x3eb7c30f	0.35891005
70	0x3e415ffe	0.18884274
71	0x3e9abe43	0.30223283
72	0x3c8b3c6c	0.016996585
73	0x3f309eee	0.6899251
74	0x3f03abc1	0.5143395
75	0x3f23d3dc	0.63995147
76	0x3f3fb39b	0.7488343
77	0x3d1fb3f9	0.038989995
78	0x3ea9b3b0	0.33144903
79	0x3ec34f2b	0.38146338
80	0x3f0ff64c	0.56235194
81	0x3dd46e3c	0.10372588
82	0x3e3e7d6a	0.18602529
83	0x3f0d47d7	0.55187744
84	0x3dd045b3	0.10169544
85	0x3f70ef8d	0.94115525
86	0x3f6971fa	0.9118954
87	0x3eff1f93	0.49828777
88	0x3ea4744e	0.32119983
89	0x3fa4fd74	1.2889848
90	0x3dfd99c9	0.12382848
91	0x3e44774a	0.1918613
92	0x3faa83a0	1.3321419
93	0x3fa189c9	1.2620174
94	0x3c153837	0.009107641
95	0x3fe80d03	1.8128971
96	0x3f08f360	0.5349636
97	0x3f2d3c9e	0.6767062
98	0x3ec644b2	0.38724285
99	0x3fd62e93	1.6732963

policy_c.z f4 [1, 100]
0	0x3e7f81cc	0.24951857
1	0x3ea1e066	0.31616515
2	0x3f5a5260	0.85281944
3	0x3f2146a6	0.62998426
4	0x3f43c163	0.7646696
5	0x3e8b5894	0.27216017
6	0x3e891046	0.26770228
7	0x3f358bd5	0.7091649
8	0x3f2f4404	0.6846316
9	0x3f5851d2	0.8449985
10	0x3f5bfce6	0.8593277
11	0x3f535932	0.82557976
12	0x3e632418	0.22181737
13	0x3f173b6a	0.59075034
14	0x3dcce288	0.10004145
15	0x3f254022	0.64550984
16	0x3f4c8469	0.7988954
17	0x3f235fc4	0.63818
18	0x3e8e1892	0.2775312
19	0x3f5e161f	0.86752504
20	0x3f635110	0.88795567
21	0x3f1fc4cf	0.6240968
22	0x3e1b20b4	0.15149194
23	0x3eb63462	0.3558684
24	0x3e427a20	0.189919
25	0x3f22f630	0.636569
26	0x3e917adc	0.28414047
27	0x3f35ec78	0.7106395
28	0x3f3f3da5	0.7470344
29	0x3f786078	0.970222
30	0x3f79afdd	0.9753397
31	0x3e0c6444	0.13710123
32	0x3e308324	0.17237526
33	0x3ead0d26	0.33799094
34	0x3e8f3a10	0.27973986
35	0x3ee3e38a	0.44509536
36	0x3eabadbe	0.33530992
37	0x3ed4d5fa	0.415695
38	0x3f6e2d5b	0.93037957
39	0x3f31828e	0.69339836
40	0x3eae1428	0.33999753
41	0x3e0087c8	0.12551796
42	0x3d396e20	0.04527104
43	0x3d948f38	0.07253879
44	0x3f42376c	0.7586582
45	0x3dea2c78	0.11434263
46	0x3f17930e	0.5920876
47	0x3f7f7f01	0.9980317
48	0x3dd595c8	0.10428959
49	0x3e253e48	0.1613704
50	0x3ddb1ef8	0.10699266
51	0x3f23edb2	0.6403457
52	0x3eefa80e	0.46807903
53	0x3f6377a8	0.88854456
54	0x3e8a0db8	0.26963592
55	0x3d74fda0	0.05981219
56	0x3f7f4e02	0.99728405
57	0x3e06d860	0.13168478
58	0x3f2fe905	0.68714935
59	0x3f237bdb	0.63860863
60	0x3f249f2d	0.6430538
61	0x3da99288	0.08279902
62	0x3d5b46d0	0.05353433
63	0x3e9ead78	0.3099172
64	0x3f0b03f9	0.54302937
65	0x3dacc5a0	0.084361315
66	0x3f1bc6a1	0.6084996
67	0x3f71dfcb	0.94482106
68	0x3f107a2c	0.5643642
69	0x3f5063e9	0.8140245
70	0x3f7e0ace	0.99235237
71	0x3f04206b	0.51611966
72	0x3f3031f0	0.688262
73	0x3ed965ac	0.42460382
74	0x3f5e52f3	0.8684532
75	0x3f3ab6b5	0.7293504
76	0x3eec9a90	0.46211672
77	0x3f257beb	0.6464221
78	0x3f31166c	0.6917484
79	0x3f0e199c	0.55507827
80	0x3da883a8	0.082282364
81	0x3d696010	0.056976378
82	0x3ea69a36	0.3253953
83	0x3ea37b60	0.31930065
84	0x3eb6acd4	0.35678732
85	0x3eacb098	0.3372848
86	0x3f348e8d	0.70530015
87	0x3e397b54	0.18113452
88	0x3f2d73f7	0.67755073
89	0x3f6ce308	0.9253392
90	0x3ee745e0	0.45170498
91	0x3f46da85	0.77677184
92	0x3f614212	0.8799144
93	0x3ec6f044	0.38855183
94	0x3f488d22	0.7834035
95	0x3e3b311c	0.18280452
96	0x3dd45428	0.10367614
97	0x3f337c84	0.7011187
98	0x3e82d128	0.255502
99	0x3dc4a030	0.09600866
