checkpoints/three-phase/13bus3p/safe-ddpg/three_single/policy_net_checkpoint_a6.pth (torch, 8449 bytes, 12 tensors)

policy_a.b f4 [100]
0	0x36f5a93c	7.3212705e-06
1	0x393db778	0.00018092792
2	0x36f41303	7.27398e-06
3	0x37dc3a52	2.6253201e-05
4	0x3927399c	0.00015947822
5	0x387604b8	5.8655365e-05
6	0x3b1d4d4d	0.0024002374
7	0xb7426907	-1.1587755e-05
8	0x3b795dbd	0.0038050257
9	0x3a67d798	0.00088440767
10	0xb7a70179	-1.9908637e-05
11	0xb7b16a62	-2.1149583e-05
12	0xb7bb56a2	-2.2332479e-05
13	0xb7ad4d47	-2.0659192e-05
14	0xb7991d1e	-1.825258e-05
15	0xb7bd215f	-2.2546095e-05
16	0xb750fdfa	-1.24569e-05
17	0xb7bb3fe9	-2.2321898e-05
18	0xb7bc5be6	-2.245414e-05
19	0xb7a48cf4	-1.961596e-05
20	0xb762620e	-1.349348e-05
21	0xb7b0f0da	-2.109299e-05
22	0xb7b4b72c	-2.1542968e-05
23	0xb783fb21	-1.5733358e-05
24	0x3aeea966	0.0018208444
25	0xb7339d01	-1.0705787e-05
26	0xb7632d3c	-1.3540786e-05
27	0xb768bd6d	-1.3872382e-05
28	0xb734d3fd	-1.0778193e-05
29	0xb740c013	-1.1488813e-05
30	0xb75c9339	-1.31473e-05
31	0xb751f3a6	-1.25141e-05
32	0x3a44c9ed	0.0007506896
33	0xb763cf73	-1.3578555e-05
34	0xb69c0f98	-4.6509776e-06
35	0x3b38d122	0.0028200825
36	0xb744436b	-1.1698207e-05
37	0xb756f843	-1.2813197e-05
38	0x3ac16912	0.0014756045
39	0xb76ea04d	-1.4223228e-05
40	0xb765fa59	-1.3707752e-05
41	0xb75cb6c0	-1.3155572e-05
42	0xb780ba0d	-1.5345426e-05
43	0xb77b5ee7	-1.4982862e-05
44	0xb77ee4ef	-1.51928825e-05
45	0xb753936c	-1.2610904e-05
46	0xb7507b27	-1.242644e-05
47	0x3b6c00c8	0.0036011208
48	0xb79a9329	-1.8426757e-05
49	0xb7999465	-1.8308123e-05
50	0xb7c0c4ea	-2.2979879e-05
51	0xb7c834de	-2.3866476e-05
52	0x3a7f76ba	0.00097451697
53	0xb7f58e7d	-2.9272627e-05
54	0x39f4e2a7	0.00046708176
55	0xb7f5e93f	-2.931489e-05
56	0xb7edf0b5	-2.836469e-05
57	0x3b094348	0.0020944644
58	0xb7f96dfb	-2.9734327e-05
59	0xb7e10dab	-2.6828455e-05
60	0xb80f15b1	-3.411406e-05
61	0xb7f83fdf	-2.9593646e-05
62	0xb80e5677	-3.3935965e-05
63	0xb7eaa972	-2.7973878e-05
64	0x3c19af1e	0.00938013
65	0xb86bc1c2	-5.6208817e-05
66	0xb869d9c2	-5.575433e-05
67	0xb8689522	-5.5452e-05
68	0xb865ee78	-5.4819946e-05
69	0xb85223a9	-5.0101113e-05
70	0xb85ff5d6	-5.3396296e-05
71	0xb8682041	-5.534315e-05
72	0x3958930d	0.00020654146
73	0x3a542950	0.0008093314
74	0xb87b4fbb	-5.9917318e-05
75	0xb87c4c1b	-6.015236e-05
76	0xb87b474f	-5.9909475e-05
77	0xb87cae94	-6.024407e-05
78	0xb8752c72	-5.8453945e-05
79	0x3c6ade14	0.014335174
80	0xb880344b	-6.113256e-05
81	0xb89cb79b	-7.472859e-05
82	0xb8a203cd	-7.72547e-05
83	0xb8a121b4	-7.683356e-05
84	0xb8a2f277	-7.7699246e-05
85	0xb887b5ab	-6.47114e-05
86	0x3c6efc9b	0.014586593
87	0xb8ca596f	-9.648769e-05
88	0xb8c9f1f1	-9.629492e-05
89	0x3c7d19f1	0.015448079
90	0x3c83bf6e	0.016082492
91	0xb9039ac3	-0.00012550787
92	0x3c81486d	0.015781606
93	0x3c7d19e6	0.015448069
94	0xb91405e0	-0.00014116568
95	0x3c6b392e	0.014356894
96	0x3c5d1fbb	0.013496335
97	0xb90f07d1	-0.00013640455
98	0xb90f053e	-0.00013639496
99	0x02caa743	2.9777236e-37

policy_a.c f4 [100]
0	0x3ada1932	0.0016639589
1	0x3acd7be8	0.0015677186
2	0x3b20c059	0.002452871
3	0x3abafdae	0.0014266276
4	0x3aca8e79	0.0015453837
5	0x3931096b	0.00016883544
6	0x3b0e704d	0.0021734417
7	0x397dca08	0.00024203223
8	0x3b12edd0	0.002241958
9	0x3980ad80	0.0002454333
10	0x3ab23a33	0.0013597667
11	0x3afdb145	0.0019355199
12	0x3b0e6605	0.002172829
13	0x3b1a66ec	0.0023559881
14	0x3b0174b2	0.0019753394
15	0x3a56ab58	0.00081889844
16	0x3b0ec3b7	0.0021784136
17	0x3ad19ddf	0.0015992484
18	0x3b1339f0	0.0022464953
19	0x3b2b5a52	0.0026146364
20	0x3b10f763	0.002212011
21	0x3a0ca30e	0.0005364873
22	0x3b0bf379	0.0021354838
23	0x3afc151e	0.0019232368
24	0x39f753dd	0.00047173994
25	0x3b2e2d80	0.0026577413
26	0x3b2468da	0.002508691
27	0x3ad81e03	0.0016488436
28	0x3a9285fc	0.0011178846
29	0x3a1a54e5	0.0005887284
30	0x3b20c824	0.0024533356
31	0x3b1b077b	0.0023655582
32	0x3aed0722	0.0018083791
33	0x3b28022c	0.002563606
34	0x3b21e0c0	0.0024700612
35	0x3ae9280f	0.0017788428
36	0x39967baa	0.00028702366
37	0x3adfba78	0.0017069122
38	0x3b1e4a13	0.0024153038
39	0x38e2f576	0.000108222404
40	0x3aecb353	0.0018058814
41	0x3ae9cc74	0.0017837421
42	0x39105a18	0.00013766473
43	0x3ac95581	0.0015360565
44	0x3b340798	0.0027470347
45	0x3a48f4ce	0.0007665873
46	0x3a7fb1c2	0.0009753966
47	0x3b25457d	0.002521842
48	0x3b2c12da	0.0026256354
49	0x3a89af33	0.0010504484
50	0x3a2f4301	0.00066857046
51	0x3abdde21	0.0014485755
52	0x3aed895f	0.0018122605
53	0x3a58dcbe	0.0008272639
54	0x3af5e13f	0.0018759145
55	0x3abfadd9	0.0014623954
56	0x3a7df2db	0.00096873724
57	0x39e09645	0.0004283657
58	0x39f05e59	0.00045846662
59	0x3b0705d2	0.0020602834
60	0x3a6e6a19	0.0009094789
61	0x3acaecf9	0.0015482
62	0x3aa060cc	0.0012235879
63	0x3a324bdd	0.00068014656
64	0x3ace86f7	0.0015756775
65	0x3b2c06a1	0.0026249068
66	0x39f1850a	0.00046066224
67	0x3a0a8c73	0.0005285211
68	0x3b33dce2	0.002744489
69	0x3ab1fd19	0.0013579457
70	0x39be6c24	0.00036320195
71	0x3b13f5ec	0.0022577
72	0x3aa4d63e	0.0012576056
73	0x3b269868	0.002542043
74	0x3aba2954	0.001420299
75	0x39d586ba	0.00040726905
76	0x39e4053d	0.00043491452
77	0x3a4067d6	0.00073396915
78	0x3b2c30cc	0.0026274202
79	0x39cde44e	0.00039270747
80	0x3ad69d3f	0.0016373767
81	0x3b2ccae8	0.0026366059
82	0x3b0bc49a	0.00213269
83	0x3a9dafac	0.0012030504
84	0x384087bc	4.590278e-05
85	0x3ad843ee	0.0016499737
86	0x3aaef5a9	0.0013348359
87	0x391f2031	0.00015175414
88	0x3b2e811b	0.0026627246
89	0x39f7bd70	0.00047252653
90	0x3ac1529b	0.001474935
91	0x396460e5	0.0002177987
92	0x3b35b879	0.0027728362
93	0x3ae93c49	0.0017794456
94	0x3a82f065	0.0009989856
95	0x3b0f0037	0.0021820196
96	0x3ac0eb37	0.0014718537
97	0x391a686f	0.00014725489
98	0x3b13dcce	0.002256203
99	0x3b017dbb	0.001975878

policy_a.q f4 [1, 100]
0	0x3b744e39	0.003727807
1	0x3f53c077	0.82715553
2	0x3d258c93	0.040417265
3	0x3eba5004	0.36389172
4	0x3f4cdc22	0.80023396
5	0x3f08da31	0.53457934
6	0x3fb3ecb0	1.4056606
7	0x3f0331b3	0.5124771
8	0x3fbe5bd0	1.4871769
9	0x3fab571a	1.3385956
10	0x3f11e725	0.56993324
11	0x3edb370b	0.42815432
12	0x3e32f2c5	0.17475422
13	0x3efb1eb5	0.49046865
14	0x3f3307d2	0.6993381
15	0x324ff750	1.2105218e-08
16	0x3f75f474	0.9607613
17	0x3e32b044	0.17450052
18	0x3de14f79	0.11001486
19	0x3f183d36	0.594684
20	0x3f6d1c33	0.92621154
21	0x3edd4764	0.4321853
22	0x3eb96255	0.36207834
23	0x3f564112	0.8369304
24	0x3fb22e59	1.3920394
25	0x3f2c2c84	0.67255425
26	0x3e76a76c	0.24087304
27	0x3d699224	0.057024136
28	0x3f2a7fab	0.66601056
29	0x3f1892d8	0.59599066
30	0x3eb17b9e	0.34664625
31	0x3eed71a6	0.4637577
32	0x3fa90df1	1.320738
33	0x3f0b5c9d	0.5443819
34	0x3f84a560	1.0362968
35	0x3fb895a7	1.442067
36	0x3f25fa42	0.6483499
37	0x3f08e08c	0.5346763
38	0x3fae7a04	1.3630986
39	0x3ee4de3e	0.44700807
40	0x3f048c0d	0.517762
41	0x3f14ae97	0.580789
42	0x3e43938c	0.19099253
43	0x3e9aa833	0.3020645
44	0x3e7a3b5c	0.24436706
45	0x3f221175	0.6330789
46	0x3f2657d5	0.6497777
47	0x3fbd622e	1.4795587
48	0x3f56e175	0.8393777
49	0x3f583e97	0.84470505
50	0x3f0c1fe1	0.54736143
51	0x3ee57008	0.44812036
52	0x3faa47ec	1.3303199
53	0x3ea41a57	0.32051346
54	0x3fa365c5	1.2765433
55	0x3e1433d4	0.14472896
56	0x3eb968e3	0.36212835
57	0x3fb4aad3	1.4114631
58	0x3f34844c	0.7051437
59	0x3f55c0b5	0.8349717
60	0x3ea74013	0.32666072
61	0x3f364c40	0.712101
62	0x3eb64c47	0.3560507
63	0x3f49e371	0.78862673
64	0x3fd17c1a	1.6365998
65	0x3db2fc7e	0.08739565
66	0x3e69418b	0.22778909
67	0x3e927aeb	0.28609404
68	0x3ec1d356	0.3785655
69	0x3f395a17	0.7240309
70	0x3f0577dd	0.5213602
71	0x3e9b7752	0.30364472
72	0x3fb2a0ad	1.3955284
73	0x3fb85bc6	1.4403007
74	0x3e4799a6	0.19492206
75	0x3dfe4796	0.12415998
76	0x3e49a0a8	0.19690192
77	0x3daa79ed	0.08324037
78	0x3ed724b2	0.42020184
79	0x3fea1e35	1.8290468
80	0x3f9992d9	1.1997939
81	0x3f3648b6	0.712047
82	0x3ea44ddd	0.32090655
83	0x3eda5b2b	0.4264768
84	0x3dec58cb	0.115403734
85	0x3f917e66	1.1366699
86	0x3ff0c941	1.8811418
87	0x3eb6d109	0.35706356
88	0x3ed3496b	0.4126695
89	0x3fecc40b	1.8497328
90	0x3fc832c0	1.5640488
91	0x3e0309a0	0.1279664
92	0x3fd6dc5f	1.6786002
93	0x3fa8f873	1.3200821
94	0x3e70fc26	0.23533687
95	0x3f7b298f	0.9811029
96	0x3f613a4d	0.87979585
97	0x3c414183	0.011795404
98	0x26e87d7d	1.6132248e-15
99	0x3f0658a0	0.5247898

policy_a.z f4 [1, 100]
0	0x3f6d809c	0.9277437
1	0x3f5643dd	0.836973
2	0x3f4ab36d	0.7918003
3	0x3f36bdf5	0.713836
4	0x3f7a4dd3	0.97775
5	0x3e309838	0.17245567
6	0x3f02cd95	0.51094943
7	0x3ef20024	0.47265732
8	0x3e9d1f0c	0.3068775
9	0x3ec066f8	0.3757856
10	0x3f5c8f2d	0.8615597
11	0x3f76a13c	0.96339774
12	0x3f2fad7a	0.6862408
13	0x3efe9180	0.49720383
14	0x3e809910	0.25116777
15	0x3e210980	0.1572628
16	0x3f410e52	0.75412476
17	0x3eb0f32a	0.3456052
18	0x3f029985	0.510155
19	0x3f774ab2	0.9659835
20	0x3e38ab94	0.18034202
21	0x3f77881d	0.9669207
22	0x3f4b239c	0.7935121
23	0x3e6cecc8	0.231372
24	0x3f6f6c5a	0.93524706
25	0x3f4fab70	0.8112097
26	0x3ecad60e	0.39616436
27	0x3f60e6c6	0.8785213
28	0x3eb834e8	0.35977864
29	0x3ebf4498	0.3735702
30	0x3eace774	0.33770335
31	0x3f056a9f	0.52115816
32	0x3f5b9c42	0.85785306
33	0x3ee9efcc	0.45690763
34	0x3f679084	0.9045489
35	0x3f169ef1	0.58836275
36	0x3c7ae000	0.015312195
37	0x3f247b3d	0.64250547
38	0x3ea67300	0.32509613
39	0x3f34fc7d	0.70697767
40	0x3e9a0bf8	0.30087256
41	0x3c31a7c0	0.010843217
42	0x3f3d209a	0.7387787
43	0x3f534464	0.8252623
44	0x3e828836	0.25494546
45	0x3ca08420	0.019594252
46	0x3f2eb493	0.68244284
47	0x3ec24856	0.37945813
48	0x3f159a29	0.58438355
49	0x3f2a4ae8	0.6652055
50	0x3f67794d	0.90419465
51	0x3f7d71d4	0.9900181
52	0x3e5b0244	0.21387583
53	0x3f137a12	0.5760814
54	0x3f492eb0	0.78586864
55	0x3f6cd3ef	0.92510885
56	0x3e2e7614	0.1703723
57	0x3f3c5b30	0.7357664
58	0x3f57b18c	0.8425529
59	0x3cde2220	0.027115881
60	0x3dc12948	0.09431702
61	0x3f570cfc	0.8400419
62	0x3f6bc3cb	0.9209563
63	0x3f1d9c2a	0.6156641
64	0x3f471353	0.7776386
65	0x3f43db0d	0.7650612
66	0x3f15ca4d	0.5851181
67	0x3f176cc4	0.5915034
68	0x3f711f81	0.94188696
69	0x3eec8704	0.4619676
70	0x3ec94fc0	0.39318657
71	0x3f42e966	0.7613739
72	0x3f0a2a66	0.53970945
73	0x3f4b5878	0.7943187
74	0x3f37e8e7	0.71839756
75	0x3f54aed3	0.8307926
76	0x3e2e75d0	0.1703713
77	0x3f6663a8	0.89995813
78	0x3e4b9278	0.19880092
79	0x3ed79d40	0.4211216
80	0x3f2f9c97	0.6859831
81	0x3f4aa7f7	0.79162544
82	0x3f40f4ab	0.75373334
83	0x3f589db6	0.8461565
84	0x3df0f708	0.117658675
85	0x3f7eaed6	0.9948553
86	0x3e644238	0.22290885
87	0x3f1802bd	0.5937918
88	0x3ed80292	0.4218946
89	0x3f24e335	0.6440919
90	0x3eb2cd24	0.34922135
91	0x3f14d4f3	0.58137435
92	0x3da90df0	0.082546115
93	0x3f08accd	0.53388673
94	0x3ed01532	0.4064117
95	0x3f7f233e	0.9966315
96	0x3f4be85b	0.7965142
97	0x3eb1995e	0.34687322
98	0x3eeac89c	0.45856178
99	0x3de10aa8	0.10988361

policy_b.b f4 [100]
0	0x3757432f	1.2830641e-05
1	0x37e457d7	2.7220622e-05
2	0x372602f0	9.895055e-06
3	0x34877088	2.5227587e-07
4	0x37dcb0b1	2.6308322e-05
5	0x378220cd	1.5512482e-05
6	0x37de9abe	2.653652e-05
7	0x37d88b4f	2.5814077e-05
8	0xb5146454	-5.5280293e-07
9	0xb5e06ce6	-1.6720994e-06
10	0x37dc476f	2.6259308e-05
11	0x36bd15b0	5.6351637e-06
12	0xb719839f	-9.150156e-06
13	0x37cc44d2	2.4350742e-05
14	0x37d163c3	2.4961197e-05
15	0xb737336a	-1.0919621e-05
16	0x37d10a2c	2.4919478e-05
17	0x37d69a2f	2.5582585e-05
18	0x3797f9c4	1.8116909e-05
19	0x37ce2ebf	2.4578881e-05
20	0xb720b97b	-9.579929e-06
21	0x379774e6	1.8055038e-05
22	0xb7ae2684	-2.0760352e-05
23	0x377b2595	1.4969516e-05
24	0x37333830	1.0682314e-05
25	0x37a1b18a	1.9275369e-05
26	0x36f434ad	7.277899e-06
27	0x37859f54	1.5929028e-05
28	0xb86b028a	-5.603073e-05
29	0xb71e6c86	-9.4428015e-06
30	0xb700266b	-7.638339e-06
31	0x37ac0d3a	2.0510157e-05
32	0x37c1f51e	2.3121534e-05
33	0x375766ab	1.2838903e-05
34	0x37d36077	2.519808e-05
35	0x37c575b2	2.3539036e-05
36	0x37c3dc58	2.3348417e-05
37	0xb6251fbe	-2.4605392e-06
38	0x3745892f	1.1774056e-05
39	0x373d307d	1.1276567e-05
40	0x37c7975c	2.379313e-05
41	0x37cedb3e	2.4659206e-05
42	0x37cd1e3e	2.4451987e-05
43	0x37b793a9	2.188406e-05
44	0x3787179d	1.610425e-05
45	0x37b1bc15	2.1187627e-05
46	0x37c7f5ac	2.3837049e-05
47	0x37c6e722	2.3711069e-05
48	0x37c57691	2.3539442e-05
49	0x37c7aa04	2.3801818e-05
50	0x37ab4b1d	2.0419766e-05
51	0x37b95d2b	2.2097103e-05
52	0x37c63d95	2.3632116e-05
53	0x376e2821	1.4195249e-05
54	0x37c5c5d3	2.357635e-05
55	0x37c79255	2.379079e-05
56	0x37a2c038	1.9401414e-05
57	0x3789005d	1.6331842e-05
58	0x37a1e5d5	1.929972e-05
59	0x364a19f0	3.0115443e-06
60	0x37861306	1.5982903e-05
61	0x378aabcb	1.653088e-05
62	0x37bca80e	2.2489603e-05
63	0x37bfdbc7	2.2871316e-05
64	0x37aa4a88	2.0300286e-05
65	0x37a9c9ec	2.0240397e-05
66	0x37ba6e9f	2.222444e-05
67	0x37b4fb65	2.1574737e-05
68	0x37b924c0	2.2070832e-05
69	0x37b675f1	2.1751011e-05
70	0x37959c13	1.7834862e-05
71	0x37a01c15	1.9086563e-05
72	0x37b1e58e	2.1206939e-05
73	0x37a54ff0	1.9706757e-05
74	0x3734b129	1.0770084e-05
75	0x378c07b1	1.6692882e-05
76	0x37a14b66	1.9227806e-05
77	0x37a86f34	2.0078944e-05
78	0x37b79a49	2.1887145e-05
79	0x37abde7f	2.0488396e-05
80	0x37b29948	2.129063e-05
81	0x37448044	1.17123745e-05
82	0x379cbe63	1.8685305e-05
83	0x37b26897	2.1267957e-05
84	0x37ab5a10	2.0426727e-05
85	0x37823a57	1.5524374e-05
86	0x37b3659f	2.1385784e-05
87	0x37b2607f	2.1264188e-05
88	0x37af98c5	2.0932765e-05
89	0x37a932b5	2.0169982e-05
90	0x37ad3423	2.0647485e-05
91	0x37adec8f	2.0733363e-05
92	0x37adde1f	2.072664e-05
93	0x37aea700	2.0820182e-05
94	0x37ab0740	2.0388165e-05
95	0x37ab92eb	2.0453203e-05
96	0x3e1728a5	0.14761598
97	0xb8030bad	-3.1243708e-05
98	0xb802c399	-3.117658e-05
99	0x379e9653	1.8905068e-05

policy_b.c f4 [100]
0	0x3a9756d4	0.0011546263
1	0x3a968480	0.001148358
2	0x393aecfa	0.00017826623
3	0x3b1128c6	0.0022149547
4	0x3b0eb5b1	0.0021775777
5	0x3ae694d3	0.001759196
6	0x388bfff0	6.6757086e-05
7	0x3b0fdfe9	0.002195353
8	0x3af44276	0.001863553
9	0x3a252026	0.0006299041
10	0x3a68efa0	0.00088858046
11	0x3abb24b8	0.0014277911
12	0x3a6cbb08	0.00090305554
13	0x3b319044	0.0027094046
14	0x393295c4	0.00017031195
15	0x3b2bec52	0.0026233387
16	0x3aa5942c	0.001263266
17	0x3a9b4486	0.0011845983
18	0x3b3fe106	0.0029278412
19	0x3b362134	0.0027790787
20	0x390bfcad	0.00013350202
21	0x3b31ca86	0.002712877
22	0x3a9e6f9a	0.0012087703
23	0x3999d622	0.00029341975
24	0x3b274e74	0.002552894
25	0x3a9d372b	0.0011994591
26	0x3a9d93de	0.0012022217
27	0x3afc29b4	0.0019238503
28	0x3ac75a37	0.0015209381
29	0x3ad299b5	0.0016067537
30	0x398fec94	0.0002745135
31	0x3b286a6d	0.00256982
32	0x3990dae0	0.00027628895
33	0x3b3eba3b	0.0029102701
34	0x3a477a73	0.0007609494
35	0x3b0ef20f	0.0021811759
36	0x3b298e93	0.0025872334
37	0x38d676b5	0.00010226426
38	0x3b0d10ea	0.0021524974
39	0x3992d3bc	0.00028005044
40	0x3ad32c14	0.0016111159
41	0x3b010ca4	0.0019691372
42	0x3a1a6317	0.00058893993
43	0x39806608	0.00024490082
44	0x3b00f574	0.0019677551
45	0x3b3c1e12	0.0028704447
46	0x3b43019d	0.00297556
47	0x39c59f6b	0.00037693544
48	0x39994669	0.00029234894
49	0x394fa420	0.000198022
50	0x3a7c4208	0.00096228765
51	0x3acf630f	0.0015822368
52	0x3afc356c	0.0019241995
53	0x39ecfc49	0.00045201395
54	0x3a7fc25a	0.00097564387
55	0x3a8a288b	0.0010540647
56	0x3a0a9305	0.000528619
57	0x3b21f676	0.0024713553
58	0x3af7c0ea	0.0018902097
59	0x3a1ffc8c	0.0006103001
60	0x3a9f75c6	0.0012165837
61	0x3a59553d	0.00082905946
62	0x3a95b4ec	0.0011421717
63	0x3aa23555	0.0012375513
64	0x3ae507f5	0.0017473685
65	0x3b3c2b36	0.002871228
66	0x3a595487	0.00082904886
67	0x3b31b500	0.002711594
68	0x3a984687	0.0011617698
69	0x3afe38b2	0.0019395559
70	0x3a29bcc2	0.00064749655
71	0x3a8fb385	0.0010963535
72	0x3ad2a603	0.0016071204
73	0x3b169955	0.0022979577
74	0x3a8eaaa4	0.0010884595
75	0x3a98d0ae	0.0011658871
76	0x3a55524b	0.0008137568
77	0x3b3b234b	0.0028554972
78	0x3b13966a	0.0022520074
79	0x3b32694f	0.0027223413
80	0x3b398262	0.0028306474
81	0x3ac9b1e2	0.0015388096
82	0x3b0e496c	0.0021711243
83	0x3a85869e	0.0010187214
84	0x3a039e04	0.00050207996
85	0x3a51d1b5	0.0008003966
86	0x3b2756f2	0.0025534001
87	0x3b3aff88	0.0028533656
88	0x3a41d87c	0.00073946244
89	0x3add44fc	0.0016881521
90	0x3b059d4c	0.0020387946
91	0x3addf81d	0.0016934905
92	0x3b0dee0c	0.002165678
93	0x3aa8510b	0.0012841535
94	0x3abb32ee	0.0014282146
95	0x3b124a94	0.0022322284
96	0x3a3e5311	0.00072603027
97	0x3af99acd	0.0019043327
98	0x3a2f966a	0.00066981337
99	0x3b2ec304	0.0026666531

policy_b.q f4 [1, 100]
0	0x3f086c48	0.53290224
1	0x3d876f4d	0.06613026
2	0x3f141a26	0.578524
3	0x3f32ef26	0.6989616
4	0x3e125f04	0.14294058
5	0x3ef8ab80	0.48568344
6	0x3dfe387d	0.12413118
7	0x3e350308	0.17676938
8	0x3f37ab71	0.71745974
9	0x3f3aae58	0.7292228
10	0x3dff300b	0.12460335
11	0x3f251cc1	0.64497
12	0x3f5b5921	0.85682875
13	0x3e4726d1	0.19448401
14	0x3e18cafb	0.14921181
15	0x3f73a285	0.9516986
16	0x3e1c5fa9	0.15270866
17	0x3d958c8f	0.073022
18	0x3ee5ef3f	0.44909093
19	0x3e3a6733	0.1820343
20	0x3f703ea9	0.9384561
21	0x3ee2d141	0.44300273
22	0x3f9ed265	1.2407957
23	0x3f063f9f	0.5244083
24	0x3f1d1939	0.6136661
25	0x3ecfb44f	0.40567252
26	0x3f2e09a4	0.6798346
27	0x3f01020a	0.50393736
28	0x3fcacbc7	1.5843438
29	0x3f75387a	0.957893
30	0x3f631cb0	0.8871565
31	0x3ed100a5	0.40820804
32	0x3e9d06bd	0.30669203
33	0x3f1a4fde	0.6027812
34	0x3dfe74fe	0.12424658
35	0x3e84b926	0.25922507
36	0x3e8a730f	0.27040908
37	0x3f57aa20	0.84243965
38	0x3f21a1d5	0.6313756
39	0x3f241d3a	0.64107096
40	0x3e327b94	0.17429954
41	0x3c707450	0.014676169
42	0x3dbc582b	0.09196504
43	0x3ea9fd09	0.33200863
44	0x3f1843d4	0.594785
45	0x3ebddd20	0.37082767
46	0x3dc605b0	0.096690536
47	0x3e0050fd	0.12530895
48	0x3e216405	0.1576081
49	0x3dcee77a	0.101027444
50	0x3ee3966d	0.44450703
51	0x3ea62dd0	0.32456827
52	0x3dfdc7f1	0.123916514
53	0x3f399b36	0.7250246
54	0x3e0d8ab6	0.13822445
55	0x3d4e8a67	0.05042496
56	0x3f14da2a	0.5814539
57	0x3f3b3dee	0.7314137
58	0x3f15f0c8	0.5857053
59	0x3f896851	1.073496
60	0x3f3d0787	0.7383961
61	0x3f36d25e	0.71414745
62	0x3e8102b7	0.25197384
63	0x3e30e301	0.17274095
64	0x3f026ffc	0.50952125
65	0x3f03b58f	0.5144891
66	0x3e824fbe	0.25451463
67	0x3ebe4115	0.3715903
68	0x3e8c894f	0.27448508
69	0x3eadeb6f	0.33968684
70	0x3f40fc16	0.7538465
71	0x3f273d93	0.6532833
72	0x3eca882b	0.39557013
73	0x3f1bd5b3	0.60872954
74	0x3f8d71fd	1.1050411
75	0x3f5a6dc7	0.85323757
76	0x3f26feda	0.6523262
77	0x3f0c4263	0.547888
78	0x3dc76637	0.09736293
79	0x3f003834	0.5008576
80	0x3e9df117	0.30848
81	0x3f93cda3	1.154713
82	0x3f373aaf	0.7157392
83	0x3dbfaaa5	0.0935872
84	0x3ee58314	0.44826567
85	0x3f8608c9	1.0471431
86	0xbd35015a	-0.044190742
87	0x3e4bcdfa	0.19902793
88	0x3ed71afd	0.42012778
89	0x3f3a9464	0.72882676
90	0x3f03748a	0.513497
91	0x3e06f3b5	0.13178904
92	0x3e2c1182	0.16803554
93	0x3f241b2b	0.64103955
94	0x3d6214bb	0.05519555
95	0x3e9ae55e	0.30253118
96	0x3fef5194	1.8696771
97	0x3e083f29	0.13305344
98	0x3d30e63b	0.043188315
99	0x3f3d1c5b	0.7387139

policy_b.z f4 [1, 100]
0	0x3f69d5de	0.9134196
1	0x3da17e48	0.07885414
2	0x3edcce66	0.4312622
3	0x3f2c0f06	0.67210424
4	0x3ef8c7fc	0.48590076
5	0x3f34c1ea	0.7060839
6	0x3f1a5d48	0.60298586
7	0x3f3caea0	0.73703957
8	0x3f1e1df1	0.61764437
9	0x3f0df2e8	0.5544877
10	0x3e415f2c	0.18883961
11	0x3e8dc10e	0.27686352
12	0x3e16e1d4	0.14734584
13	0x3f3d8421	0.7402974
14	0x3f7e225a	0.99271166
15	0x3f4d03b2	0.80083764
16	0x3e83f870	0.2577548
17	0x3e2d7f6c	0.16943139
18	0x3f1c721f	0.61111635
19	0x3ea65f48	0.3249457
20	0x3f668aee	0.9005574
21	0x3e50b034	0.20379716
22	0x3e660f90	0.22466874
23	0x3e075900	0.13217545
24	0x3f639b27	0.8890862
25	0x3f36bb99	0.7138
26	0x3f3c19b3	0.73476714
27	0x3d717760	0.058951735
28	0x3ab57000	0.0013842583
29	0x3f34392f	0.70399755
30	0x3f1b0363	0.6055204
31	0x3ee5a98c	0.44855917
32	0x3e117f68	0.14208758
33	0x3ee69e5a	0.45042688
34	0x3f6e85c6	0.9317287
35	0x3ef233e2	0.47305208
36	0x3ef8fc96	0.48630208
37	0x3ea6affe	0.32556146
38	0x3f221826	0.633181
39	0x3e319904	0.17343527
40	0x3dbf6a20	0.093464136
41	0x3f69fe1f	0.91403383
42	0x3f57c9be	0.8429221
43	0x3f3424fe	0.70368946
44	0x3f364946	0.71205556
45	0x3dce9fb8	0.10089058
46	0x3dd5da60	0.10442042
47	0x3f622e3d	0.88351804
48	0x3f0d436f	0.5518102
49	0x3f305b04	0.6888888
50	0x3f1dc0fb	0.6162259
51	0x3f737781	0.95104223
52	0x3ee31d60	0.4435835
53	0x3efd7346	0.4950201
54	0x3e4f0aa8	0.20218909
55	0x3f32807c	0.697273
56	0x3e277e7c	0.16356844
57	0x3f0fb9d6	0.5614294
58	0x3f50a019	0.8149429
59	0x3e07cccc	0.13261718
60	0x3f5a3047	0.85229915
61	0x3f2cb974	0.6747048
62	0x3f0ac003	0.54199237
63	0x3f650144	0.89455056
64	0x3f585be7	0.8451523
65	0x3f79f494	0.9763882
66	0x3d9c4eb0	0.07632196
67	0x3f460a40	0.7735939
68	0x3f0a2196	0.539575
69	0x3f64d485	0.8938678
70	0x3f6f2da6	0.9342903
71	0x3ecfbc1c	0.40573204
72	0x3f06a6b0	0.52598095
73	0x3f0b00fa	0.54298365
74	0x3ecd2dc8	0.4007399
75	0x3f797aff	0.974533
76	0x3f3bb8e3	0.7332899
77	0x3c4d8ec0	0.012546241
78	0x3ed4354e	0.41446918
79	0x3ee88f78	0.45421958
80	0x3e286db4	0.16448098
81	0x3f733dfa	0.95016444
82	0x3f1ae9eb	0.6051318
83	0x3e297ee8	0.16552317
84	0x3d6a3920	0.057183385
85	0x3f6e81ba	0.931667
86	0x3e6e35b8	0.2326268
87	0x3efa393c	0.4887179
88	0x3f78c982	0.97182477
89	0x3f50f79e	0.81627834
90	0x3edf931e	0.4366693
91	0x3ec0b462	0.3763762
92	0x3e8da650	0.2766595
93	0x3eb6bcc4	0.35690892
94	0x3ea67cd0	0.325171
95	0x3f7988e9	0.97474533
96	0x3dae5318	0.085119426
97	0x3deb7f08	0.11498839
98	0x3f33b543	0.7019846
99	0x3f6cf544	0.92561746

policy_c.b f4 [100]
0	0xb8e99101	-0.00011137315
1	0xb8eb9c95	-0.00011234839
2	0xb8e887c0	-0.000110879075
3	0xb8e8ae97	-0.00011095142
4	0xb9006b43	-0.0001224699
5	0xb8fcd673	-0.00012056241
6	0xb8e870f9	-0.00011083665
7	0xb8f204c3	-0.00011540346
8	0xb8ea4671	-0.0001117111
9	0xb8e88b8a	-0.00011088613
10	0xb8e86d9c	-0.000110830384
11	0xb902eb98	-0.00012485532
12	0xb8e86fb3	-0.00011083428
13	0xb8ea6089	-0.000111759706
14	0xb8fb01eb	-0.0001196897
15	0xb8eb9ade	-0.000112345195
16	0xb8e98632	-0.000111353016
17	0xb8e8630f	-0.00011081073
18	0xb8ea50fa	-0.000111730726
19	0xb8e87bbe	-0.00011085671
20	0xb8e9c584	-0.00011147096
21	0xb8eb1801	-0.00011210144
22	0xb8e8571f	-0.0001107885
23	0x3bbd0881	0.005768836
24	0xb8e33806	-0.00010834639
25	0xb8f5ebe2	-0.00011726447
26	0xb8e76a20	-0.00011034706
27	0xb8e63e80	-0.00010978896
28	0xb8e31dc5	-0.000108297485
29	0x3bbaf1d6	0.0057050986
30	0x3bc14b44	0.005898865
31	0xb8eb81c7	-0.00011229846
32	0xb8e9f333	-0.00011155605
33	0xb8e9f31c	-0.000111555884
34	0x3bc3e8a8	0.0059786625
35	0x3bc70db6	0.0060746325
36	0xb8f5e949	-0.00011725963
37	0xb8f58cc3	-0.00011708729
38	0xb8f6f8b1	-0.000117765165
39	0x3bc6cdc2	0.0060670087
40	0xb8f923cb	-0.00011879912
41	0xb8f95918	-0.0001188984
42	0xb8fa7805	-0.00011943284
43	0x3bdc6e9a	0.006727052
44	0xb8fa7942	-0.00011943515
45	0xb8f94901	-0.00011886843
46	0xb8fa19dc	-0.00011925746
47	0x3bce2112	0.0062905634
48	0xb90019fc	-0.00012216711
49	0xb9050dd2	-0.00012689017
50	0xb9021aea	-0.00012407792
51	0xb901dd85	-0.00012384921
52	0xb90ec6f9	-0.00013616298
53	0xb90029d4	-0.00012222613
54	0xb90025f2	-0.00012221167
55	0xb900957e	-0.00012262721
56	0xb9002735	-0.00012221637
57	0xb9015781	-0.00012334996
58	0x3bd18a45	0.006394657
59	0xb902cfe4	-0.00012475211
60	0xb902d01c	-0.00012475293
61	0xb902a28a	-0.00012458317
62	0xb902968e	-0.00012453852
63	0xb90295fe	-0.00012453643
64	0xb902a335	-0.00012458565
65	0x3bd32399	0.0064434526
66	0x3bda756f	0.006666831
67	0xb9099b44	-0.00013123179
68	0x3bdc3927	0.0067206803
69	0x3bd97937	0.0066367644
70	0xb90d4b7e	-0.00013474931
71	0x3bda57a3	0.006663279
72	0xb90afceb	-0.00013254925
73	0xb90cf122	-0.0001344127
74	0x3bdb720f	0.0066969465
75	0x3bda4d82	0.0066620717
76	0xb911edff	-0.00013916938
77	0xb9158587	-0.0001425949
78	0xb913101d	-0.00014025015
79	0xb911db84	-0.00013910054
80	0xb9122d7b	-0.00013940588
81	0xb911dd6b	-0.00013910762
82	0xb912038a	-0.00013924963
83	0x3bda3dfb	0.0066602207
84	0x3bda4709	0.0066613
85	0xb90c26ae	-0.0001336585
86	0xb90d5591	-0.00013478684
87	0xb90c2821	-0.0001336639
88	0x3bd64e98	0.006540131
89	0xb9096c53	-0.00013105692
90	0xb90973c6	-0.00013108467
91	0x3bd6a032	0.0065498585
92	0x3bd206ed	0.006409517
93	0xb90b3ec5	-0.00013279456
94	0x3bcbee7a	0.006223497
95	0x3bcb7e55	0.0062101283
96	0xb90085bf	-0.00012256856
97	0x3bcd484a	0.006264721
98	0xb909ccda	-0.00013141651
99	0x00000085	1.86e-43

policy_c.c f4 [100]
0	0x3a9e9604	0.0012099151
1	0x3afc39d6	0.0019243311
2	0x3b5292cb	0.0032130952
3	0x392c34f3	0.00016422923
4	0x3b22f126	0.0024862974
5	0x3ad940bc	0.0016575078
6	0x3a1757e6	0.0005773291
7	0x3a3ecb06	0.00072781777
8	0x3b4234e0	0.0029633567
9	0x3b2c7a5a	0.0026318044
10	0x3b253b2e	0.0025212276
11	0x3ab1cd8e	0.0013565288
12	0x3a996f3b	0.0011706123
13	0x3afc5176	0.0019250351
14	0x3a520a60	0.000801241
15	0x39cd32f1	0.000391386
16	0x3a532160	0.00080539845
17	0x399a18eb	0.00029391734
18	0x3b41d8d2	0.0029578698
19	0x3acfebdc	0.0015863138
20	0x3a15c2dd	0.0005712936
21	0x399bad14	0.00029692857
22	0x3a35b13c	0.0006931012
23	0x3b230de4	0.0024880106
24	0x3a85e703	0.0010215942
25	0x39db584d	0.00041836724
26	0x3ad9ebac	0.0016626022
27	0x3992371a	0.00027888344
28	0x3add0ef8	0.0016865423
29	0x3ae24978	0.0017264327
30	0x393f67b6	0.00018253815
31	0x3ac0d883	0.0014712963
32	0x3a33726d	0.0006845359
33	0x38cdd0a1	9.814022e-05
34	0x3ab10039	0.0013504095
35	0x3a8533eb	0.0010162567
36	0x3a85fe96	0.0010222967
37	0x3af5c42a	0.0018750478
38	0x399a6f22	0.0002945597
39	0x3af44588	0.0018636445
40	0x3b231896	0.002488648
41	0x3b17b12c	0.0023146374
42	0x3b33e548	0.0027449895
43	0x3b12aa9d	0.0022379525
44	0x3a725b46	0.0009245168
45	0x38ebc1eb	0.00011241793
46	0x3a9cc723	0.0011961203
47	0x3a10a136	0.00055171864
48	0x3ae93534	0.0017792345
49	0x3aa9b645	0.0012947997
50	0x3ad6ac2f	0.0016378219
51	0x39c749a2	0.00038011099
52	0x3b484344	0.0030557672
53	0x3b324eb3	0.0027207553
54	0x3aeaed50	0.0017923508
55	0x3b3ea801	0.0029091837
56	0x3aa3b97e	0.0012491194
57	0x3b31b427	0.0027115436
58	0x3a4521db	0.00075199985
59	0x3a038f64	0.000501862
60	0x3b019007	0.0019769685
61	0x3b4ff7df	0.0031733436
62	0x3911f2ed	0.00013918774
63	0x39ca23fb	0.0003855525
64	0x39b05a9c	0.00033636845
65	0x3b29ea89	0.0025927147
66	0x3a98d680	0.0011660606
67	0x3a93cbee	0.0011275986
68	0x3a94cbbc	0.0011352221
69	0x3ada89b7	0.0016673122
70	0x3b4db1d8	0.003138652
71	0x3aba45b1	0.0014211443
72	0x39bf5a1e	0.000364975
73	0x3b29ffea	0.002593989
74	0x3b30e4d2	0.0026991856
75	0x3a50e7be	0.00079691026
76	0x3b03d6f5	0.0020117138
77	0x3af7c95a	0.0018904612
78	0x38d80f3a	0.00010302519
79	0x3b0473d0	0.0020210631
80	0x3a55281f	0.00081312837
81	0x3abd21c3	0.0014429617
82	0x3af00275	0.0018311279
83	0x3ab2115f	0.0013585499
84	0x3aa2d2db	0.0012422459
85	0x3b14e3b6	0.0022718734
86	0x3b5163db	0.0031950388
87	0x3b30b7ab	0.0026964943
88	0x3a9fe997	0.0012200353
89	0x3aa95bac	0.0012920997
90	0x3996161d	0.00028626705
91	0x3b0c089e	0.002136744
92	0x39506781	0.00019874984
93	0x3ad52f1b	0.0016264649
94	0x3ad4e553	0.001624266
95	0x3b25179f	0.0025191081
96	0x3b525de8	0.003209943
97	0x3b2dd8e1	0.0026526975
98	0x3a9aa6cd	0.0011798978
99	0x3a88008c	0.001037614

policy_c.q f4 [1, 100]
0	0x3ee9ae2e	0.456407
1	0x3f33b322	0.7019521
2	0x3e4cd205	0.20001991
3	0x3e836148	0.25660157
4	0x3fadbc76	1.3573139
5	0x3fa6e104	1.3037419
6	0x3e2076da	0.15670338
7	0x3f871d90	1.0555897
8	0x3f0f4bcf	0.5597505
9	0x3e52f7b4	0.20602304
10	0x3e18ebab	0.1493365
11	0x3fb4789e	1.409931
12	0x3e1b62b7	0.15174375
13	0x3f1277d7	0.5721411
14	0x3fa3243d	1.2745434
15	0x3f337889	0.701058
16	0x3ee5a099	0.4484909
17	0x3df635c5	0.120219745
18	0x3f10867f	0.56455225
19	0x3e34cee3	0.17657046
20	0x3efa3d8f	0.4887509
21	0x3f26fd4d	0.65230256
22	0x3da249e2	0.07924248
23	0x3ff329d6	1.8997142
24	0x3e5e9ed7	0.2174028
25	0x3fa4bcdc	1.2870135
26	0x3f4e4e1d	0.8058794
27	0x3f3629c1	0.7115746
28	0x3e2df4fc	0.16987985
29	0x3ff59eeb	1.9189123
30	0x3ff268e5	1.8938261
31	0x3f072ed8	0.5280585
32	0x3e2c51dd	0.16828103
33	0x3e2c1546	0.1680499
34	0x3ff29854	1.8952737
35	0x3ff26dcf	1.8939761
36	0x3e7bc5ad	0.24587126
37	0x3d0634b5	0.03276511
38	0x3ef0fb30	0.4706664
39	0x3ff558d3	1.9167732
40	0x3e3cd646	0.18441114
41	0x3e8421b6	0.2580697
42	0x3ef57f18	0.47948527
43	0x3fe7c0d3	1.810572
44	0x3f14d3d0	0.581357
45	0x3ed52328	0.41628385
46	0x3f0984f6	0.5371851
47	0x3ff10956	1.8830974
48	0x3d097906	0.033562683
49	0x3f7d9a0c	0.9906318
50	0x3f35b5ca	0.70980513
51	0x3f2c65f3	0.6734306
52	0x3fa7f9f4	1.3123155
53	0x3e0b4e6d	0.13604136
54	0x3df1785d	0.117905356
55	0x3ebfd2ce	0.3746552
56	0x3dfe2e2a	0.12411149
57	0x3f141492	0.5784389
58	0x3fee41cc	1.861383
59	0x3e810082	0.251957
60	0x3e813f2c	0.2524351
61	0x3df27508	0.11838728
62	0x3ccbd004	0.024879463
63	0xa3829631	-1.4158237e-17
64	0x3df8cebc	0.121488065
65	0x3fed99c3	1.8562549
66	0x3fe2cab5	1.7718111
67	0x3d878e92	0.0661899
68	0x3fe0c905	1.7561346
69	0x3fe7feec	1.8124671
70	0x3ec145bc	0.37748516
71	0x3fe5c472	1.7950575
72	0x3e8578ff	0.26068875
73	0x3f249a28	0.64297724
74	0x3fe2470e	1.7677934
75	0x3fe9c97e	1.8264616
76	0x3dd7e3d7	0.10541504
77	0x3f2c1a41	0.6722756
78	0x3ed47990	0.41498995
79	0x2040dfea	1.633712e-19
80	0x3e6188bc	0.22024816
81	0x3d09f3ce	0.033679776
82	0x3e1e7350	0.15473676
83	0x3febb2fd	1.8413998
84	0x3feb8f29	1.8403064
85	0x3d603f1f	0.054747697
86	0x3ecee916	0.40412205
87	0x3d7cdf3c	0.06173633
88	0x3fc804f8	1.5626516
89	0x3ea8407c	0.32861698
90	0x3eab3fba	0.33447057
91	0x3fcfd805	1.6237799
92	0x3fbf21d0	1.4932194
93	0x3e15c2e9	0.14625134
94	0x3fb1292a	1.3840687
95	0x3fb27a70	1.3943615
96	0x3e0b5b32	0.13609007
97	0x3fc02f52	1.5014441
98	0x3f3da290	0.74076176
99	0x3f94846e	1.1602914

policy_c.z f4 [1, 100]
0	0x3f763d3c	0.96187186
1	0x3f28dc3e	0.6596106
2	0x3ef064e4	0.46951973
3	0x3f3c9677	0.7366709
4	0x3f31deb6	0.69480455
5	0x3ca7b320	0.020471156
6	0x3f7a61d5	0.9780553
7	0x3ef534fa	0.4789198
8	0x3d3aaf50	0.045577347
9	0x3de76548	0.11298615
10	0x3f427e07	0.7597355
11	0x3df84328	0.12122184
12	0x3eaf4ece	0.3423981
13	0x3e2858e0	0.16440153
14	0x3ef8d69e	0.4860124
15	0x3e8c91b2	0.27454907
16	0x3ee62fa2	0.44958216
17	0x3d6db960	0.058038116
18	0x3e586408	0.21131909
19	0x3ec3b762	0.38225847
20	0x3f2850b7	0.6574816
21	0x3ecab978	0.39594626
22	0x3f06235d	0.5239771
23	0x3eda4826	0.4263317
24	0x3e049300	0.12946701
25	0x3ebf8a5e	0.37410253
26	0x3eef4aac	0.46736658
27	0x3f0e04b9	0.55475956
28	0x3e9495ea	0.29020625
29	0x3ce01d20	0.027357638
30	0x3e2c2b98	0.16813505
31	0x3d47d0e0	0.048783183
32	0x3eecd57a	0.4625662
33	0x3dcad588	0.09904009
34	0x3dc10950	0.09425604
35	0x3f1ca7ac	0.61193347
36	0x3ef8ec58	0.48617816
37	0x3f3ecb9c	0.74529433
38	0x3b903180	0.004400432
39	0x3f5d1fae	0.86376464
40	0x3f195142	0.59889615
41	0x3f119f7b	0.5688397
42	0x3f615590	0.88021183
43	0x3e0b72b8	0.1361798
44	0x3f53b895	0.82703525
45	0x3f2f00fe	0.6836089
46	0x3ef2ba90	0.4740796
47	0x3f6df527	0.929522
48	0x3e82a0ac	0.25513208
49	0x3f3375f5	0.70101863
50	0x3f45f2bf	0.77323526
51	0x3f6364f1	0.888259
52	0x3e8c7502	0.2743302
53	0x3eb67054	0.35632575
54	0x3ee657f0	0.44988966
55	0x3dd66ee0	0.104703665
56	0x3c6ca780	0.014444232
57	0x3eceb79e	0.40374464
58	0x3f3c31fa	0.7351376
59	0x3ea2a1ca	0.3176406
60	0x3f2bfed0	0.6718569
61	0x3f4e6b49	0.80632454
62	0x3d130070	0.03588909
63	0x3eedce84	0.4644662
64	0x3f3f877c	0.7481611
65	0x3efb9182	0.4913445
66	0x3f501a36	0.81289995
67	0x3e0d30f0	0.137882
68	0x3eadb1ac	0.33924615
69	0x3e9a6992	0.3015867
70	0x3ef47bf2	0.47750813
71	0x3f78c5e7	0.97176975
72	0x3e8ff08a	0.28113204
73	0x3e5b4de8	0.21416438
74	0x3f7462f1	0.9546347
75	0x3f64f086	0.8942951
76	0x3de20aa8	0.11037189
77	0x3f034a7b	0.51285523
78	0x3f7129c2	0.9420434
79	0x3f7ab721	0.9793568
80	0x3e564158	0.20923364
81	0x3e0f9b48	0.14024079
82	0x3e7c41d4	0.24634486
83	0x3e496b5c	0.1966986
84	0x3e4531ac	0.1925723
85	0x3ea87348	0.32900453
86	0x3f3c7ea2	0.73630726
87	0x3f6fc166	0.9365448
88	0x3f33c999	0.7022949
89	0x3ea5de9a	0.32396394
90	0x3eb9ed76	0.3631398
91	0x3f5a80bb	0.8535268
92	0x3ebaf914	0.36518157
93	0x3f45b4da	0.7722908
94	0x3ebff816	0.37493962
95	0x3f541180	0.828392
96	0x3efe15f2	0.49626118
97	0x3efaf086	0.4901163
98	0x3ea84970	0.32868528
99	0x3e093840	0.13400364
